{"Layers": [{
  "Name": "Reshape_0",
  "LayerType": "NoOp",
  "Inputs": [
  {
    "Name": "img",
    "Location": "Device",
    "Dimensions": [1,6,3,256,704],
    "Format/Datatype": "Row major linear FP16 format"
  }],
  "Outputs": [
  {
    "Name": "518",
    "Location": "Device",
    "Dimensions": [6,3,256,704],
    "Format/Datatype": "Row major linear FP16 format"
  }],
  "TacticValue": "0x0000000000000000",
  "StreamId": 0,
  "Metadata": "[ONNX Layer: Reshape_0]"
},{
  "Name": "Reformatting CopyNode for Input Tensor 0 to Reshape_145",
  "LayerType": "Reformat",
  "Inputs": [
  {
    "Name": "depth",
    "Location": "Device",
    "Dimensions": [1,6,1,256,704],
    "Format/Datatype": "Row major linear FP16 format"
  }],
  "Outputs": [
  {
    "Name": "Reformatted Input Tensor 0 to Reshape_145",
    "Location": "Device",
    "Dimensions": [1,6,1,256,704],
    "Format/Datatype": "Row major linear FP32"
  }],
  "ParameterType": "Reformat",
  "Origin": "REFORMAT",
  "TacticValue": "0x00000000000003e8",
  "StreamId": 0,
  "Metadata": ""
},{
  "Name": "Reshape_145",
  "LayerType": "NoOp",
  "Inputs": [
  {
    "Name": "Reformatted Input Tensor 0 to Reshape_145",
    "Location": "Device",
    "Dimensions": [1,6,1,256,704],
    "Format/Datatype": "Row major linear FP32"
  }],
  "Outputs": [
  {
    "Name": "699",
    "Location": "Device",
    "Dimensions": [6,1,256,704],
    "Format/Datatype": "Row major linear FP32"
  }],
  "TacticValue": "0x0000000000000000",
  "StreamId": 0,
  "Metadata": "[ONNX Layer: Reshape_145]"
},{
  "Name": "Reformatting CopyNode for Input Tensor 0 to Conv_1 + Relu_2",
  "LayerType": "Reformat",
  "Inputs": [
  {
    "Name": "518",
    "Location": "Device",
    "Dimensions": [6,3,256,704],
    "Format/Datatype": "Row major linear FP16 format"
  }],
  "Outputs": [
  {
    "Name": "Reformatted Input Tensor 0 to Conv_1 + Relu_2",
    "Location": "Device",
    "Dimensions": [6,3,256,704],
    "Format/Datatype": "Channel major FP16 format where channel % 4 == 0"
  }],
  "ParameterType": "Reformat",
  "Origin": "REFORMAT",
  "TacticValue": "0x00000000000003ea",
  "StreamId": 0,
  "Metadata": ""
},{
  "Name": "Conv_1 + Relu_2",
  "LayerType": "CaskConvolution",
  "Inputs": [
  {
    "Name": "Reformatted Input Tensor 0 to Conv_1 + Relu_2",
    "Location": "Device",
    "Dimensions": [6,3,256,704],
    "Format/Datatype": "Channel major FP16 format where channel % 4 == 0"
  }],
  "Outputs": [
  {
    "Name": "520",
    "Location": "Device",
    "Dimensions": [6,64,128,352],
    "Format/Datatype": "Channel major FP16 format where channel % 8 == 0"
  }],
  "ParameterType": "Convolution",
  "Kernel": [7,7],
  "PaddingMode": "kEXPLICIT_ROUND_DOWN",
  "PrePadding": [3,3],
  "PostPadding": [3,3],
  "Stride": [2,2],
  "Dilation": [1,1],
  "OutMaps": 64,
  "Groups": 1,
  "Weights": {"Type": "Half", "Count": 9408},
  "Bias": {"Type": "Half", "Count": 64},
  "HasBias": 1,
  "HasReLU": 1,
  "HasSparseWeights": 0,
  "HasDynamicFilter": 0,
  "HasDynamicBias": 0,
  "HasResidual": 0,
  "ConvXAsActInputIdx": -1,
  "BiasAsActInputIdx": -1,
  "ResAsActInputIdx": -1,
  "Activation": "RELU",
  "TacticName": "sm80_xmma_fprop_image_first_layer_f16f16_f32_f16_nhwckrsc_nhwc_hmma_k64c4r7s7_stride2x2_tile16x64x64_tensor1688",
  "TacticValue": "0x4341b9cbb7197a9b",
  "StreamId": 0,
  "Metadata": "[ONNX Layer: Conv_1]\u001e[ONNX Layer: Relu_2]"
},{
  "Name": "Reformatting CopyNode for Input Tensor 0 to Conv_148 + Relu_149",
  "LayerType": "Reformat",
  "Inputs": [
  {
    "Name": "699",
    "Location": "Device",
    "Dimensions": [6,1,256,704],
    "Format/Datatype": "Row major linear FP32"
  }],
  "Outputs": [
  {
    "Name": "Reformatted Input Tensor 0 to Conv_148 + Relu_149",
    "Location": "Device",
    "Dimensions": [6,1,256,704],
    "Format/Datatype": "Channel major FP16 format where channel % 8 == 0"
  }],
  "ParameterType": "Reformat",
  "Origin": "REFORMAT",
  "TacticValue": "0x00000000000003ea",
  "StreamId": 0,
  "Metadata": ""
},{
  "Name": "Conv_148 + Relu_149",
  "LayerType": "CaskConvolution",
  "Inputs": [
  {
    "Name": "Reformatted Input Tensor 0 to Conv_148 + Relu_149",
    "Location": "Device",
    "Dimensions": [6,1,256,704],
    "Format/Datatype": "Channel major FP16 format where channel % 8 == 0"
  }],
  "Outputs": [
  {
    "Name": "703",
    "Location": "Device",
    "Dimensions": [6,8,256,704],
    "Format/Datatype": "Channel major FP16 format where channel % 8 == 0"
  }],
  "ParameterType": "Convolution",
  "Kernel": [1,1],
  "PaddingMode": "kEXPLICIT_ROUND_DOWN",
  "PrePadding": [0,0],
  "PostPadding": [0,0],
  "Stride": [1,1],
  "Dilation": [1,1],
  "OutMaps": 8,
  "Groups": 1,
  "Weights": {"Type": "Half", "Count": 8},
  "Bias": {"Type": "Half", "Count": 8},
  "HasBias": 1,
  "HasReLU": 1,
  "HasSparseWeights": 0,
  "HasDynamicFilter": 0,
  "HasDynamicBias": 0,
  "HasResidual": 0,
  "ConvXAsActInputIdx": -1,
  "BiasAsActInputIdx": -1,
  "ResAsActInputIdx": -1,
  "Activation": "RELU",
  "TacticName": "sm80_xmma_fprop_implicit_gemm_indexed_wo_smem_f16f16_f16f16_f16_nhwckrsc_nhwc_tilesize128x16x32_stage1_warpsize4x1x1_g1_tensor16x8x16_aligna8_alignc2",
  "TacticValue": "0x955dd84f2f723fdc",
  "StreamId": 0,
  "Metadata": "[ONNX Layer: Conv_148]\u001e[ONNX Layer: Relu_149]"
},{
  "Name": "MaxPool_3",
  "LayerType": "CaskPooling",
  "Inputs": [
  {
    "Name": "520",
    "Location": "Device",
    "Dimensions": [6,64,128,352],
    "Format/Datatype": "Channel major FP16 format where channel % 8 == 0"
  }],
  "Outputs": [
  {
    "Name": "521",
    "Location": "Device",
    "Dimensions": [6,64,64,176],
    "Format/Datatype": "Channel major FP16 format where channel % 8 == 0"
  }],
  "ParameterType": "Pooling",
  "PoolingType": "MAX",
  "WindowSize": [3,3],
  "PaddingMode": "kEXPLICIT_ROUND_DOWN",
  "PrePadding": [1,1],
  "PostPadding": [1,1],
  "Stride": [2,2],
  "BlendFactor": 0,
  "AverageCountExcludesPadding": 1,
  "TacticName": "sm50_xmma_pooling_coalescedC_NHWC_kMAX_3_False",
  "TacticValue": "0xdb415cba6b0e9137",
  "StreamId": 0,
  "Metadata": "[ONNX Layer: MaxPool_3]"
},{
  "Name": "Reformatting CopyNode for Input Tensor 0 to Conv_150 + Relu_151",
  "LayerType": "NoOp",
  "Inputs": [
  {
    "Name": "703",
    "Location": "Device",
    "Dimensions": [6,8,256,704],
    "Format/Datatype": "Channel major FP16 format where channel % 8 == 0"
  }],
  "Outputs": [
  {
    "Name": "Reformatted Input Tensor 0 to Conv_150 + Relu_151",
    "Location": "Device",
    "Dimensions": [6,8,256,704],
    "Format/Datatype": "Channel major FP16 format where channel % 2 == 0"
  }],
  "TacticValue": "0x0000000000000000",
  "StreamId": 0,
  "Metadata": ""
},{
  "Name": "Conv_150 + Relu_151",
  "LayerType": "CaskConvolution",
  "Inputs": [
  {
    "Name": "Reformatted Input Tensor 0 to Conv_150 + Relu_151",
    "Location": "Device",
    "Dimensions": [6,8,256,704],
    "Format/Datatype": "Channel major FP16 format where channel % 2 == 0"
  }],
  "Outputs": [
  {
    "Name": "705",
    "Location": "Device",
    "Dimensions": [6,32,64,176],
    "Format/Datatype": "Channel major FP16 format where channel % 2 == 0"
  }],
  "ParameterType": "Convolution",
  "Kernel": [5,5],
  "PaddingMode": "kEXPLICIT_ROUND_DOWN",
  "PrePadding": [2,2],
  "PostPadding": [2,2],
  "Stride": [4,4],
  "Dilation": [1,1],
  "OutMaps": 32,
  "Groups": 1,
  "Weights": {"Type": "Half", "Count": 6400},
  "Bias": {"Type": "Half", "Count": 32},
  "HasBias": 1,
  "HasReLU": 1,
  "HasSparseWeights": 0,
  "HasDynamicFilter": 0,
  "HasDynamicBias": 0,
  "HasResidual": 0,
  "ConvXAsActInputIdx": -1,
  "BiasAsActInputIdx": -1,
  "ResAsActInputIdx": -1,
  "Activation": "RELU",
  "TacticName": "sm80_xmma_fprop_implicit_gemm_indexed_wo_smem_f16f16_f16f16_f16_nhwckrsc_nhwc_tilesize128x32x16_stage1_warpsize4x1x1_g1_tensor16x8x16_aligna4_alignc4",
  "TacticValue": "0x72c5a15b17fc333a",
  "StreamId": 0,
  "Metadata": "[ONNX Layer: Conv_150]\u001e[ONNX Layer: Relu_151]"
},{
  "Name": "Conv_4 + Relu_5",
  "LayerType": "CaskGemmConvolution",
  "Inputs": [
  {
    "Name": "521",
    "Location": "Device",
    "Dimensions": [6,64,64,176],
    "Format/Datatype": "Channel major FP16 format where channel % 8 == 0"
  }],
  "Outputs": [
  {
    "Name": "523",
    "Location": "Device",
    "Dimensions": [6,64,64,176],
    "Format/Datatype": "Channel major FP16 format where channel % 8 == 0"
  }],
  "ParameterType": "Convolution",
  "Kernel": [1,1],
  "PaddingMode": "kEXPLICIT_ROUND_DOWN",
  "PrePadding": [0,0],
  "PostPadding": [0,0],
  "Stride": [1,1],
  "Dilation": [1,1],
  "OutMaps": 64,
  "Groups": 1,
  "Weights": {"Type": "Half", "Count": 4096},
  "Bias": {"Type": "Half", "Count": 64},
  "HasBias": 1,
  "HasReLU": 1,
  "HasSparseWeights": 0,
  "HasDynamicFilter": 0,
  "HasDynamicBias": 0,
  "HasResidual": 0,
  "ConvXAsActInputIdx": -1,
  "BiasAsActInputIdx": -1,
  "ResAsActInputIdx": -1,
  "Activation": "RELU",
  "TacticName": "sm80_xmma_gemm_f16f16_f16f16_f16_nn_n_tilesize256x64x32_stage3_warpsize4x1x1_tensor16x8x16",
  "TacticValue": "0x0000000000020501",
  "StreamId": 0,
  "Metadata": "[ONNX Layer: Conv_4]\u001e[ONNX Layer: Relu_5]"
},{
  "Name": "Reformatting CopyNode for Input Tensor 0 to Conv_152 + Relu_153",
  "LayerType": "NoOp",
  "Inputs": [
  {
    "Name": "705",
    "Location": "Device",
    "Dimensions": [6,32,64,176],
    "Format/Datatype": "Channel major FP16 format where channel % 2 == 0"
  }],
  "Outputs": [
  {
    "Name": "Reformatted Input Tensor 0 to Conv_152 + Relu_153",
    "Location": "Device",
    "Dimensions": [6,32,64,176],
    "Format/Datatype": "Channel major FP16 format where channel % 8 == 0"
  }],
  "TacticValue": "0x0000000000000000",
  "StreamId": 0,
  "Metadata": ""
},{
  "Name": "Conv_152 + Relu_153",
  "LayerType": "CaskConvolution",
  "Inputs": [
  {
    "Name": "Reformatted Input Tensor 0 to Conv_152 + Relu_153",
    "Location": "Device",
    "Dimensions": [6,32,64,176],
    "Format/Datatype": "Channel major FP16 format where channel % 8 == 0"
  }],
  "Outputs": [
  {
    "Name": "708",
    "Location": "Device",
    "Dimensions": [6,64,32,88],
    "Format/Datatype": "Channel major FP16 format where channel % 8 == 0"
  }],
  "ParameterType": "Convolution",
  "Kernel": [5,5],
  "PaddingMode": "kEXPLICIT_ROUND_DOWN",
  "PrePadding": [2,2],
  "PostPadding": [2,2],
  "Stride": [2,2],
  "Dilation": [1,1],
  "OutMaps": 64,
  "Groups": 1,
  "Weights": {"Type": "Half", "Count": 51200},
  "Bias": {"Type": "Half", "Count": 64},
  "HasBias": 1,
  "HasReLU": 1,
  "HasSparseWeights": 0,
  "HasDynamicFilter": 0,
  "HasDynamicBias": 0,
  "HasResidual": 0,
  "ConvXAsActInputIdx": -1,
  "BiasAsActInputIdx": -1,
  "ResAsActInputIdx": -1,
  "Activation": "RELU",
  "TacticName": "sm80_xmma_fprop_implicit_gemm_f16f16_f16f16_f16_nhwckrsc_nhwc_tilesize256x64x32_stage3_warpsize4x1x1_g1_tensor16x8x16_t1r5s5",
  "TacticValue": "0x5ff3f65d8d1c0627",
  "StreamId": 0,
  "Metadata": "[ONNX Layer: Conv_152]\u001e[ONNX Layer: Relu_153]"
},{
  "Name": "Conv_6 + Relu_7",
  "LayerType": "CaskConvolution",
  "Inputs": [
  {
    "Name": "523",
    "Location": "Device",
    "Dimensions": [6,64,64,176],
    "Format/Datatype": "Channel major FP16 format where channel % 8 == 0"
  }],
  "Outputs": [
  {
    "Name": "525",
    "Location": "Device",
    "Dimensions": [6,64,64,176],
    "Format/Datatype": "Channel major FP16 format where channel % 8 == 0"
  }],
  "ParameterType": "Convolution",
  "Kernel": [3,3],
  "PaddingMode": "kEXPLICIT_ROUND_DOWN",
  "PrePadding": [1,1],
  "PostPadding": [1,1],
  "Stride": [1,1],
  "Dilation": [1,1],
  "OutMaps": 64,
  "Groups": 1,
  "Weights": {"Type": "Half", "Count": 36864},
  "Bias": {"Type": "Half", "Count": 64},
  "HasBias": 1,
  "HasReLU": 1,
  "HasSparseWeights": 0,
  "HasDynamicFilter": 0,
  "HasDynamicBias": 0,
  "HasResidual": 0,
  "ConvXAsActInputIdx": -1,
  "BiasAsActInputIdx": -1,
  "ResAsActInputIdx": -1,
  "Activation": "RELU",
  "TacticName": "sm80_xmma_fprop_implicit_gemm_f16f16_f16f16_f16_nhwckrsc_nhwc_tilesize128x64x64_stage3_warpsize2x2x1_g1_tensor16x8x16_t1r3s3_aACCESS",
  "TacticValue": "0x263a38afd75e3a43",
  "StreamId": 0,
  "Metadata": "[ONNX Layer: Conv_6]\u001e[ONNX Layer: Relu_7]"
},{
  "Name": "Conv_8",
  "LayerType": "CaskGemmConvolution",
  "Inputs": [
  {
    "Name": "525",
    "Location": "Device",
    "Dimensions": [6,64,64,176],
    "Format/Datatype": "Channel major FP16 format where channel % 8 == 0"
  }],
  "Outputs": [
  {
    "Name": "526",
    "Location": "Device",
    "Dimensions": [6,256,64,176],
    "Format/Datatype": "Channel major FP16 format where channel % 8 == 0"
  }],
  "ParameterType": "Convolution",
  "Kernel": [1,1],
  "PaddingMode": "kEXPLICIT_ROUND_DOWN",
  "PrePadding": [0,0],
  "PostPadding": [0,0],
  "Stride": [1,1],
  "Dilation": [1,1],
  "OutMaps": 256,
  "Groups": 1,
  "Weights": {"Type": "Half", "Count": 16384},
  "Bias": {"Type": "Half", "Count": 256},
  "HasBias": 1,
  "HasReLU": 0,
  "HasSparseWeights": 0,
  "HasDynamicFilter": 0,
  "HasDynamicBias": 0,
  "HasResidual": 0,
  "ConvXAsActInputIdx": -1,
  "BiasAsActInputIdx": -1,
  "ResAsActInputIdx": -1,
  "Activation": "NONE",
  "TacticName": "sm80_xmma_gemm_f16f16_f16f16_f16_nn_n_tilesize128x128x32_stage4_warpsize2x2x1_tensor16x8x16",
  "TacticValue": "0x0000000000020794",
  "StreamId": 0,
  "Metadata": "[ONNX Layer: Conv_8]"
},{
  "Name": "Conv_9 + Add_10 + Relu_11",
  "LayerType": "CaskConvolution",
  "Inputs": [
  {
    "Name": "521",
    "Location": "Device",
    "Dimensions": [6,64,64,176],
    "Format/Datatype": "Channel major FP16 format where channel % 8 == 0"
  },
  {
    "Name": "526",
    "Location": "Device",
    "Dimensions": [6,256,64,176],
    "Format/Datatype": "Channel major FP16 format where channel % 8 == 0"
  }],
  "Outputs": [
  {
    "Name": "529",
    "Location": "Device",
    "Dimensions": [6,256,64,176],
    "Format/Datatype": "Channel major FP16 format where channel % 8 == 0"
  }],
  "ParameterType": "Convolution",
  "Kernel": [1,1],
  "PaddingMode": "kEXPLICIT_ROUND_DOWN",
  "PrePadding": [0,0],
  "PostPadding": [0,0],
  "Stride": [1,1],
  "Dilation": [1,1],
  "OutMaps": 256,
  "Groups": 1,
  "Weights": {"Type": "Half", "Count": 16384},
  "Bias": {"Type": "Half", "Count": 256},
  "HasBias": 1,
  "HasReLU": 1,
  "HasSparseWeights": 0,
  "HasDynamicFilter": 0,
  "HasDynamicBias": 0,
  "HasResidual": 1,
  "ConvXAsActInputIdx": -1,
  "BiasAsActInputIdx": -1,
  "ResAsActInputIdx": -1,
  "Activation": "RELU",
  "TacticName": "sm80_xmma_fprop_implicit_gemm_f16f16_f16f16_f16_nhwckrsc_nhwc_tilesize256x128x32_stage3_warpsize4x2x1_g1_tensor16x8x16_t1r1s1",
  "TacticValue": "0x8e1e99c68a674ff4",
  "StreamId": 0,
  "Metadata": "[ONNX Layer: Conv_9]\u001e[ONNX Layer: Add_10]\u001e[ONNX Layer: Relu_11]"
},{
  "Name": "Conv_12 + Relu_13",
  "LayerType": "CaskGemmConvolution",
  "Inputs": [
  {
    "Name": "529",
    "Location": "Device",
    "Dimensions": [6,256,64,176],
    "Format/Datatype": "Channel major FP16 format where channel % 8 == 0"
  }],
  "Outputs": [
  {
    "Name": "531",
    "Location": "Device",
    "Dimensions": [6,64,64,176],
    "Format/Datatype": "Channel major FP16 format where channel % 8 == 0"
  }],
  "ParameterType": "Convolution",
  "Kernel": [1,1],
  "PaddingMode": "kEXPLICIT_ROUND_DOWN",
  "PrePadding": [0,0],
  "PostPadding": [0,0],
  "Stride": [1,1],
  "Dilation": [1,1],
  "OutMaps": 64,
  "Groups": 1,
  "Weights": {"Type": "Half", "Count": 16384},
  "Bias": {"Type": "Half", "Count": 64},
  "HasBias": 1,
  "HasReLU": 1,
  "HasSparseWeights": 0,
  "HasDynamicFilter": 0,
  "HasDynamicBias": 0,
  "HasResidual": 0,
  "ConvXAsActInputIdx": -1,
  "BiasAsActInputIdx": -1,
  "ResAsActInputIdx": -1,
  "Activation": "RELU",
  "TacticName": "sm80_xmma_gemm_f16f16_f16f16_f16_nn_n_tilesize256x64x64_stage3_warpsize4x1x1_tensor16x8x16",
  "TacticValue": "0x0000000000020457",
  "StreamId": 0,
  "Metadata": "[ONNX Layer: Conv_12]\u001e[ONNX Layer: Relu_13]"
},{
  "Name": "Conv_14 + Relu_15",
  "LayerType": "CaskConvolution",
  "Inputs": [
  {
    "Name": "531",
    "Location": "Device",
    "Dimensions": [6,64,64,176],
    "Format/Datatype": "Channel major FP16 format where channel % 8 == 0"
  }],
  "Outputs": [
  {
    "Name": "533",
    "Location": "Device",
    "Dimensions": [6,64,64,176],
    "Format/Datatype": "Channel major FP16 format where channel % 8 == 0"
  }],
  "ParameterType": "Convolution",
  "Kernel": [3,3],
  "PaddingMode": "kEXPLICIT_ROUND_DOWN",
  "PrePadding": [1,1],
  "PostPadding": [1,1],
  "Stride": [1,1],
  "Dilation": [1,1],
  "OutMaps": 64,
  "Groups": 1,
  "Weights": {"Type": "Half", "Count": 36864},
  "Bias": {"Type": "Half", "Count": 64},
  "HasBias": 1,
  "HasReLU": 1,
  "HasSparseWeights": 0,
  "HasDynamicFilter": 0,
  "HasDynamicBias": 0,
  "HasResidual": 0,
  "ConvXAsActInputIdx": -1,
  "BiasAsActInputIdx": -1,
  "ResAsActInputIdx": -1,
  "Activation": "RELU",
  "TacticName": "sm80_xmma_fprop_implicit_gemm_f16f16_f16f16_f16_nhwckrsc_nhwc_tilesize128x64x64_stage3_warpsize2x2x1_g1_tensor16x8x16_t1r3s3_aACCESS",
  "TacticValue": "0x263a38afd75e3a43",
  "StreamId": 0,
  "Metadata": "[ONNX Layer: Conv_14]\u001e[ONNX Layer: Relu_15]"
},{
  "Name": "Conv_16 + Add_17 + Relu_18",
  "LayerType": "CaskConvolution",
  "Inputs": [
  {
    "Name": "533",
    "Location": "Device",
    "Dimensions": [6,64,64,176],
    "Format/Datatype": "Channel major FP16 format where channel % 8 == 0"
  },
  {
    "Name": "529",
    "Location": "Device",
    "Dimensions": [6,256,64,176],
    "Format/Datatype": "Channel major FP16 format where channel % 8 == 0"
  }],
  "Outputs": [
  {
    "Name": "536",
    "Location": "Device",
    "Dimensions": [6,256,64,176],
    "Format/Datatype": "Channel major FP16 format where channel % 8 == 0"
  }],
  "ParameterType": "Convolution",
  "Kernel": [1,1],
  "PaddingMode": "kEXPLICIT_ROUND_DOWN",
  "PrePadding": [0,0],
  "PostPadding": [0,0],
  "Stride": [1,1],
  "Dilation": [1,1],
  "OutMaps": 256,
  "Groups": 1,
  "Weights": {"Type": "Half", "Count": 16384},
  "Bias": {"Type": "Half", "Count": 256},
  "HasBias": 1,
  "HasReLU": 1,
  "HasSparseWeights": 0,
  "HasDynamicFilter": 0,
  "HasDynamicBias": 0,
  "HasResidual": 1,
  "ConvXAsActInputIdx": -1,
  "BiasAsActInputIdx": -1,
  "ResAsActInputIdx": -1,
  "Activation": "RELU",
  "TacticName": "sm80_xmma_fprop_implicit_gemm_f16f16_f16f16_f16_nhwckrsc_nhwc_tilesize256x128x32_stage3_warpsize4x2x1_g1_tensor16x8x16_t1r1s1",
  "TacticValue": "0x8e1e99c68a674ff4",
  "StreamId": 0,
  "Metadata": "[ONNX Layer: Conv_16]\u001e[ONNX Layer: Add_17]\u001e[ONNX Layer: Relu_18]"
},{
  "Name": "Conv_19 + Relu_20",
  "LayerType": "CaskGemmConvolution",
  "Inputs": [
  {
    "Name": "536",
    "Location": "Device",
    "Dimensions": [6,256,64,176],
    "Format/Datatype": "Channel major FP16 format where channel % 8 == 0"
  }],
  "Outputs": [
  {
    "Name": "538",
    "Location": "Device",
    "Dimensions": [6,64,64,176],
    "Format/Datatype": "Channel major FP16 format where channel % 8 == 0"
  }],
  "ParameterType": "Convolution",
  "Kernel": [1,1],
  "PaddingMode": "kEXPLICIT_ROUND_DOWN",
  "PrePadding": [0,0],
  "PostPadding": [0,0],
  "Stride": [1,1],
  "Dilation": [1,1],
  "OutMaps": 64,
  "Groups": 1,
  "Weights": {"Type": "Half", "Count": 16384},
  "Bias": {"Type": "Half", "Count": 64},
  "HasBias": 1,
  "HasReLU": 1,
  "HasSparseWeights": 0,
  "HasDynamicFilter": 0,
  "HasDynamicBias": 0,
  "HasResidual": 0,
  "ConvXAsActInputIdx": -1,
  "BiasAsActInputIdx": -1,
  "ResAsActInputIdx": -1,
  "Activation": "RELU",
  "TacticName": "sm80_xmma_gemm_f16f16_f16f16_f16_nn_n_tilesize256x64x64_stage3_warpsize4x1x1_tensor16x8x16",
  "TacticValue": "0x0000000000020457",
  "StreamId": 0,
  "Metadata": "[ONNX Layer: Conv_19]\u001e[ONNX Layer: Relu_20]"
},{
  "Name": "Conv_21 + Relu_22",
  "LayerType": "CaskConvolution",
  "Inputs": [
  {
    "Name": "538",
    "Location": "Device",
    "Dimensions": [6,64,64,176],
    "Format/Datatype": "Channel major FP16 format where channel % 8 == 0"
  }],
  "Outputs": [
  {
    "Name": "540",
    "Location": "Device",
    "Dimensions": [6,64,64,176],
    "Format/Datatype": "Channel major FP16 format where channel % 8 == 0"
  }],
  "ParameterType": "Convolution",
  "Kernel": [3,3],
  "PaddingMode": "kEXPLICIT_ROUND_DOWN",
  "PrePadding": [1,1],
  "PostPadding": [1,1],
  "Stride": [1,1],
  "Dilation": [1,1],
  "OutMaps": 64,
  "Groups": 1,
  "Weights": {"Type": "Half", "Count": 36864},
  "Bias": {"Type": "Half", "Count": 64},
  "HasBias": 1,
  "HasReLU": 1,
  "HasSparseWeights": 0,
  "HasDynamicFilter": 0,
  "HasDynamicBias": 0,
  "HasResidual": 0,
  "ConvXAsActInputIdx": -1,
  "BiasAsActInputIdx": -1,
  "ResAsActInputIdx": -1,
  "Activation": "RELU",
  "TacticName": "sm80_xmma_fprop_implicit_gemm_f16f16_f16f16_f16_nhwckrsc_nhwc_tilesize128x64x64_stage3_warpsize2x2x1_g1_tensor16x8x16_t1r3s3_aACCESS",
  "TacticValue": "0x263a38afd75e3a43",
  "StreamId": 0,
  "Metadata": "[ONNX Layer: Conv_21]\u001e[ONNX Layer: Relu_22]"
},{
  "Name": "Conv_23 + Add_24 + Relu_25",
  "LayerType": "CaskConvolution",
  "Inputs": [
  {
    "Name": "540",
    "Location": "Device",
    "Dimensions": [6,64,64,176],
    "Format/Datatype": "Channel major FP16 format where channel % 8 == 0"
  },
  {
    "Name": "536",
    "Location": "Device",
    "Dimensions": [6,256,64,176],
    "Format/Datatype": "Channel major FP16 format where channel % 8 == 0"
  }],
  "Outputs": [
  {
    "Name": "543",
    "Location": "Device",
    "Dimensions": [6,256,64,176],
    "Format/Datatype": "Channel major FP16 format where channel % 8 == 0"
  }],
  "ParameterType": "Convolution",
  "Kernel": [1,1],
  "PaddingMode": "kEXPLICIT_ROUND_DOWN",
  "PrePadding": [0,0],
  "PostPadding": [0,0],
  "Stride": [1,1],
  "Dilation": [1,1],
  "OutMaps": 256,
  "Groups": 1,
  "Weights": {"Type": "Half", "Count": 16384},
  "Bias": {"Type": "Half", "Count": 256},
  "HasBias": 1,
  "HasReLU": 1,
  "HasSparseWeights": 0,
  "HasDynamicFilter": 0,
  "HasDynamicBias": 0,
  "HasResidual": 1,
  "ConvXAsActInputIdx": -1,
  "BiasAsActInputIdx": -1,
  "ResAsActInputIdx": -1,
  "Activation": "RELU",
  "TacticName": "sm80_xmma_fprop_implicit_gemm_f16f16_f16f16_f16_nhwckrsc_nhwc_tilesize256x128x32_stage3_warpsize4x2x1_g1_tensor16x8x16_t1r1s1",
  "TacticValue": "0x8e1e99c68a674ff4",
  "StreamId": 0,
  "Metadata": "[ONNX Layer: Conv_23]\u001e[ONNX Layer: Add_24]\u001e[ONNX Layer: Relu_25]"
},{
  "Name": "Conv_26 + Relu_27",
  "LayerType": "CaskConvolution",
  "Inputs": [
  {
    "Name": "543",
    "Location": "Device",
    "Dimensions": [6,256,64,176],
    "Format/Datatype": "Channel major FP16 format where channel % 8 == 0"
  }],
  "Outputs": [
  {
    "Name": "545",
    "Location": "Device",
    "Dimensions": [6,128,64,176],
    "Format/Datatype": "Channel major FP16 format where channel % 8 == 0"
  }],
  "ParameterType": "Convolution",
  "Kernel": [1,1],
  "PaddingMode": "kEXPLICIT_ROUND_DOWN",
  "PrePadding": [0,0],
  "PostPadding": [0,0],
  "Stride": [1,1],
  "Dilation": [1,1],
  "OutMaps": 128,
  "Groups": 1,
  "Weights": {"Type": "Half", "Count": 32768},
  "Bias": {"Type": "Half", "Count": 128},
  "HasBias": 1,
  "HasReLU": 1,
  "HasSparseWeights": 0,
  "HasDynamicFilter": 0,
  "HasDynamicBias": 0,
  "HasResidual": 0,
  "ConvXAsActInputIdx": -1,
  "BiasAsActInputIdx": -1,
  "ResAsActInputIdx": -1,
  "Activation": "RELU",
  "TacticName": "sm80_xmma_fprop_implicit_gemm_f16f16_f16f16_f16_nhwckrsc_nhwc_tilesize256x128x64_stage3_warpsize4x2x1_g1_tensor16x8x16_simple_t1r1s1",
  "TacticValue": "0xd3946b1e61efd383",
  "StreamId": 0,
  "Metadata": "[ONNX Layer: Conv_26]\u001e[ONNX Layer: Relu_27]"
},{
  "Name": "Conv_31",
  "LayerType": "CaskConvolution",
  "Inputs": [
  {
    "Name": "543",
    "Location": "Device",
    "Dimensions": [6,256,64,176],
    "Format/Datatype": "Channel major FP16 format where channel % 8 == 0"
  }],
  "Outputs": [
  {
    "Name": "549",
    "Location": "Device",
    "Dimensions": [6,512,32,88],
    "Format/Datatype": "Channel major FP16 format where channel % 8 == 0"
  }],
  "ParameterType": "Convolution",
  "Kernel": [1,1],
  "PaddingMode": "kEXPLICIT_ROUND_DOWN",
  "PrePadding": [0,0],
  "PostPadding": [0,0],
  "Stride": [2,2],
  "Dilation": [1,1],
  "OutMaps": 512,
  "Groups": 1,
  "Weights": {"Type": "Half", "Count": 131072},
  "Bias": {"Type": "Half", "Count": 512},
  "HasBias": 1,
  "HasReLU": 0,
  "HasSparseWeights": 0,
  "HasDynamicFilter": 0,
  "HasDynamicBias": 0,
  "HasResidual": 0,
  "ConvXAsActInputIdx": -1,
  "BiasAsActInputIdx": -1,
  "ResAsActInputIdx": -1,
  "Activation": "NONE",
  "TacticName": "sm80_xmma_fprop_implicit_gemm_f16f16_f16f16_f16_nhwckrsc_nhwc_tilesize128x128x32_stage4_warpsize2x2x1_g1_tensor16x8x16",
  "TacticValue": "0xdfa020ef435ef810",
  "StreamId": 0,
  "Metadata": "[ONNX Layer: Conv_31]"
},{
  "Name": "Conv_28 + Relu_29",
  "LayerType": "CaskConvolution",
  "Inputs": [
  {
    "Name": "545",
    "Location": "Device",
    "Dimensions": [6,128,64,176],
    "Format/Datatype": "Channel major FP16 format where channel % 8 == 0"
  }],
  "Outputs": [
  {
    "Name": "547",
    "Location": "Device",
    "Dimensions": [6,128,32,88],
    "Format/Datatype": "Channel major FP16 format where channel % 8 == 0"
  }],
  "ParameterType": "Convolution",
  "Kernel": [3,3],
  "PaddingMode": "kEXPLICIT_ROUND_DOWN",
  "PrePadding": [1,1],
  "PostPadding": [1,1],
  "Stride": [2,2],
  "Dilation": [1,1],
  "OutMaps": 128,
  "Groups": 1,
  "Weights": {"Type": "Half", "Count": 147456},
  "Bias": {"Type": "Half", "Count": 128},
  "HasBias": 1,
  "HasReLU": 1,
  "HasSparseWeights": 0,
  "HasDynamicFilter": 0,
  "HasDynamicBias": 0,
  "HasResidual": 0,
  "ConvXAsActInputIdx": -1,
  "BiasAsActInputIdx": -1,
  "ResAsActInputIdx": -1,
  "Activation": "RELU",
  "TacticName": "sm80_xmma_fprop_implicit_gemm_f16f16_f16f16_f16_nhwckrsc_nhwc_tilesize128x128x32_stage4_warpsize2x2x1_g1_tensor16x8x16_t1r3s3_aACCESS",
  "TacticValue": "0x245530c34bd6090f",
  "StreamId": 0,
  "Metadata": "[ONNX Layer: Conv_28]\u001e[ONNX Layer: Relu_29]"
},{
  "Name": "Conv_30 + Add_32 + Relu_33",
  "LayerType": "CaskGemmConvolution",
  "Inputs": [
  {
    "Name": "547",
    "Location": "Device",
    "Dimensions": [6,128,32,88],
    "Format/Datatype": "Channel major FP16 format where channel % 8 == 0"
  },
  {
    "Name": "549",
    "Location": "Device",
    "Dimensions": [6,512,32,88],
    "Format/Datatype": "Channel major FP16 format where channel % 8 == 0"
  }],
  "Outputs": [
  {
    "Name": "551",
    "Location": "Device",
    "Dimensions": [6,512,32,88],
    "Format/Datatype": "Channel major FP16 format where channel % 8 == 0"
  }],
  "ParameterType": "Convolution",
  "Kernel": [1,1],
  "PaddingMode": "kEXPLICIT_ROUND_DOWN",
  "PrePadding": [0,0],
  "PostPadding": [0,0],
  "Stride": [1,1],
  "Dilation": [1,1],
  "OutMaps": 512,
  "Groups": 1,
  "Weights": {"Type": "Half", "Count": 65536},
  "Bias": {"Type": "Half", "Count": 512},
  "HasBias": 1,
  "HasReLU": 1,
  "HasSparseWeights": 0,
  "HasDynamicFilter": 0,
  "HasDynamicBias": 0,
  "HasResidual": 1,
  "ConvXAsActInputIdx": -1,
  "BiasAsActInputIdx": -1,
  "ResAsActInputIdx": -1,
  "Activation": "RELU",
  "TacticName": "sm80_xmma_gemm_f16f16_f16f16_f16_tn_n_tilesize128x128x32_stage4_warpsize2x2x1_tensor16x8x16",
  "TacticValue": "0x0000000000020244",
  "StreamId": 0,
  "Metadata": "[ONNX Layer: Conv_30]\u001e[ONNX Layer: Add_32]\u001e[ONNX Layer: Relu_33]"
},{
  "Name": "Conv_34 + Relu_35",
  "LayerType": "CaskGemmConvolution",
  "Inputs": [
  {
    "Name": "551",
    "Location": "Device",
    "Dimensions": [6,512,32,88],
    "Format/Datatype": "Channel major FP16 format where channel % 8 == 0"
  }],
  "Outputs": [
  {
    "Name": "553",
    "Location": "Device",
    "Dimensions": [6,128,32,88],
    "Format/Datatype": "Channel major FP16 format where channel % 8 == 0"
  }],
  "ParameterType": "Convolution",
  "Kernel": [1,1],
  "PaddingMode": "kEXPLICIT_ROUND_DOWN",
  "PrePadding": [0,0],
  "PostPadding": [0,0],
  "Stride": [1,1],
  "Dilation": [1,1],
  "OutMaps": 128,
  "Groups": 1,
  "Weights": {"Type": "Half", "Count": 65536},
  "Bias": {"Type": "Half", "Count": 128},
  "HasBias": 1,
  "HasReLU": 1,
  "HasSparseWeights": 0,
  "HasDynamicFilter": 0,
  "HasDynamicBias": 0,
  "HasResidual": 0,
  "ConvXAsActInputIdx": -1,
  "BiasAsActInputIdx": -1,
  "ResAsActInputIdx": -1,
  "Activation": "RELU",
  "TacticName": "ampere_h16816gemm_128x128_ldg8_relu_stages_32x5_tn_v1",
  "TacticValue": "0x0000000000020118",
  "StreamId": 0,
  "Metadata": "[ONNX Layer: Conv_34]\u001e[ONNX Layer: Relu_35]"
},{
  "Name": "Conv_36 + Relu_37",
  "LayerType": "CaskConvolution",
  "Inputs": [
  {
    "Name": "553",
    "Location": "Device",
    "Dimensions": [6,128,32,88],
    "Format/Datatype": "Channel major FP16 format where channel % 8 == 0"
  }],
  "Outputs": [
  {
    "Name": "555",
    "Location": "Device",
    "Dimensions": [6,128,32,88],
    "Format/Datatype": "Channel major FP16 format where channel % 8 == 0"
  }],
  "ParameterType": "Convolution",
  "Kernel": [3,3],
  "PaddingMode": "kEXPLICIT_ROUND_DOWN",
  "PrePadding": [1,1],
  "PostPadding": [1,1],
  "Stride": [1,1],
  "Dilation": [1,1],
  "OutMaps": 128,
  "Groups": 1,
  "Weights": {"Type": "Half", "Count": 147456},
  "Bias": {"Type": "Half", "Count": 128},
  "HasBias": 1,
  "HasReLU": 1,
  "HasSparseWeights": 0,
  "HasDynamicFilter": 0,
  "HasDynamicBias": 0,
  "HasResidual": 0,
  "ConvXAsActInputIdx": -1,
  "BiasAsActInputIdx": -1,
  "ResAsActInputIdx": -1,
  "Activation": "RELU",
  "TacticName": "sm80_xmma_fprop_implicit_gemm_f16f16_f16f16_f16_nhwckrsc_nhwc_tilesize128x128x32_stage4_warpsize2x2x1_g1_tensor16x8x16_t1r3s3_aACCESS",
  "TacticValue": "0x245530c34bd6090f",
  "StreamId": 0,
  "Metadata": "[ONNX Layer: Conv_36]\u001e[ONNX Layer: Relu_37]"
},{
  "Name": "Conv_38 + Add_39 + Relu_40",
  "LayerType": "CaskGemmConvolution",
  "Inputs": [
  {
    "Name": "555",
    "Location": "Device",
    "Dimensions": [6,128,32,88],
    "Format/Datatype": "Channel major FP16 format where channel % 8 == 0"
  },
  {
    "Name": "551",
    "Location": "Device",
    "Dimensions": [6,512,32,88],
    "Format/Datatype": "Channel major FP16 format where channel % 8 == 0"
  }],
  "Outputs": [
  {
    "Name": "558",
    "Location": "Device",
    "Dimensions": [6,512,32,88],
    "Format/Datatype": "Channel major FP16 format where channel % 8 == 0"
  }],
  "ParameterType": "Convolution",
  "Kernel": [1,1],
  "PaddingMode": "kEXPLICIT_ROUND_DOWN",
  "PrePadding": [0,0],
  "PostPadding": [0,0],
  "Stride": [1,1],
  "Dilation": [1,1],
  "OutMaps": 512,
  "Groups": 1,
  "Weights": {"Type": "Half", "Count": 65536},
  "Bias": {"Type": "Half", "Count": 512},
  "HasBias": 1,
  "HasReLU": 1,
  "HasSparseWeights": 0,
  "HasDynamicFilter": 0,
  "HasDynamicBias": 0,
  "HasResidual": 1,
  "ConvXAsActInputIdx": -1,
  "BiasAsActInputIdx": -1,
  "ResAsActInputIdx": -1,
  "Activation": "RELU",
  "TacticName": "sm80_xmma_gemm_f16f16_f16f16_f16_tn_n_tilesize128x128x32_stage4_warpsize2x2x1_tensor16x8x16",
  "TacticValue": "0x0000000000020244",
  "StreamId": 0,
  "Metadata": "[ONNX Layer: Conv_38]\u001e[ONNX Layer: Add_39]\u001e[ONNX Layer: Relu_40]"
},{
  "Name": "Conv_41 + Relu_42",
  "LayerType": "CaskGemmConvolution",
  "Inputs": [
  {
    "Name": "558",
    "Location": "Device",
    "Dimensions": [6,512,32,88],
    "Format/Datatype": "Channel major FP16 format where channel % 8 == 0"
  }],
  "Outputs": [
  {
    "Name": "560",
    "Location": "Device",
    "Dimensions": [6,128,32,88],
    "Format/Datatype": "Channel major FP16 format where channel % 8 == 0"
  }],
  "ParameterType": "Convolution",
  "Kernel": [1,1],
  "PaddingMode": "kEXPLICIT_ROUND_DOWN",
  "PrePadding": [0,0],
  "PostPadding": [0,0],
  "Stride": [1,1],
  "Dilation": [1,1],
  "OutMaps": 128,
  "Groups": 1,
  "Weights": {"Type": "Half", "Count": 65536},
  "Bias": {"Type": "Half", "Count": 128},
  "HasBias": 1,
  "HasReLU": 1,
  "HasSparseWeights": 0,
  "HasDynamicFilter": 0,
  "HasDynamicBias": 0,
  "HasResidual": 0,
  "ConvXAsActInputIdx": -1,
  "BiasAsActInputIdx": -1,
  "ResAsActInputIdx": -1,
  "Activation": "RELU",
  "TacticName": "ampere_h16816gemm_128x128_ldg8_relu_stages_32x5_tn_v1",
  "TacticValue": "0x0000000000020118",
  "StreamId": 0,
  "Metadata": "[ONNX Layer: Conv_41]\u001e[ONNX Layer: Relu_42]"
},{
  "Name": "Conv_43 + Relu_44",
  "LayerType": "CaskConvolution",
  "Inputs": [
  {
    "Name": "560",
    "Location": "Device",
    "Dimensions": [6,128,32,88],
    "Format/Datatype": "Channel major FP16 format where channel % 8 == 0"
  }],
  "Outputs": [
  {
    "Name": "562",
    "Location": "Device",
    "Dimensions": [6,128,32,88],
    "Format/Datatype": "Channel major FP16 format where channel % 8 == 0"
  }],
  "ParameterType": "Convolution",
  "Kernel": [3,3],
  "PaddingMode": "kEXPLICIT_ROUND_DOWN",
  "PrePadding": [1,1],
  "PostPadding": [1,1],
  "Stride": [1,1],
  "Dilation": [1,1],
  "OutMaps": 128,
  "Groups": 1,
  "Weights": {"Type": "Half", "Count": 147456},
  "Bias": {"Type": "Half", "Count": 128},
  "HasBias": 1,
  "HasReLU": 1,
  "HasSparseWeights": 0,
  "HasDynamicFilter": 0,
  "HasDynamicBias": 0,
  "HasResidual": 0,
  "ConvXAsActInputIdx": -1,
  "BiasAsActInputIdx": -1,
  "ResAsActInputIdx": -1,
  "Activation": "RELU",
  "TacticName": "sm80_xmma_fprop_implicit_gemm_f16f16_f16f16_f16_nhwckrsc_nhwc_tilesize128x128x32_stage4_warpsize2x2x1_g1_tensor16x8x16_t1r3s3_aACCESS",
  "TacticValue": "0x245530c34bd6090f",
  "StreamId": 0,
  "Metadata": "[ONNX Layer: Conv_43]\u001e[ONNX Layer: Relu_44]"
},{
  "Name": "Conv_45 + Add_46 + Relu_47",
  "LayerType": "CaskGemmConvolution",
  "Inputs": [
  {
    "Name": "562",
    "Location": "Device",
    "Dimensions": [6,128,32,88],
    "Format/Datatype": "Channel major FP16 format where channel % 8 == 0"
  },
  {
    "Name": "558",
    "Location": "Device",
    "Dimensions": [6,512,32,88],
    "Format/Datatype": "Channel major FP16 format where channel % 8 == 0"
  }],
  "Outputs": [
  {
    "Name": "565",
    "Location": "Device",
    "Dimensions": [6,512,32,88],
    "Format/Datatype": "Channel major FP16 format where channel % 8 == 0"
  }],
  "ParameterType": "Convolution",
  "Kernel": [1,1],
  "PaddingMode": "kEXPLICIT_ROUND_DOWN",
  "PrePadding": [0,0],
  "PostPadding": [0,0],
  "Stride": [1,1],
  "Dilation": [1,1],
  "OutMaps": 512,
  "Groups": 1,
  "Weights": {"Type": "Half", "Count": 65536},
  "Bias": {"Type": "Half", "Count": 512},
  "HasBias": 1,
  "HasReLU": 1,
  "HasSparseWeights": 0,
  "HasDynamicFilter": 0,
  "HasDynamicBias": 0,
  "HasResidual": 1,
  "ConvXAsActInputIdx": -1,
  "BiasAsActInputIdx": -1,
  "ResAsActInputIdx": -1,
  "Activation": "RELU",
  "TacticName": "sm80_xmma_gemm_f16f16_f16f16_f16_tn_n_tilesize128x128x32_stage4_warpsize2x2x1_tensor16x8x16",
  "TacticValue": "0x0000000000020244",
  "StreamId": 0,
  "Metadata": "[ONNX Layer: Conv_45]\u001e[ONNX Layer: Add_46]\u001e[ONNX Layer: Relu_47]"
},{
  "Name": "Conv_48 + Relu_49",
  "LayerType": "CaskGemmConvolution",
  "Inputs": [
  {
    "Name": "565",
    "Location": "Device",
    "Dimensions": [6,512,32,88],
    "Format/Datatype": "Channel major FP16 format where channel % 8 == 0"
  }],
  "Outputs": [
  {
    "Name": "567",
    "Location": "Device",
    "Dimensions": [6,128,32,88],
    "Format/Datatype": "Channel major FP16 format where channel % 8 == 0"
  }],
  "ParameterType": "Convolution",
  "Kernel": [1,1],
  "PaddingMode": "kEXPLICIT_ROUND_DOWN",
  "PrePadding": [0,0],
  "PostPadding": [0,0],
  "Stride": [1,1],
  "Dilation": [1,1],
  "OutMaps": 128,
  "Groups": 1,
  "Weights": {"Type": "Half", "Count": 65536},
  "Bias": {"Type": "Half", "Count": 128},
  "HasBias": 1,
  "HasReLU": 1,
  "HasSparseWeights": 0,
  "HasDynamicFilter": 0,
  "HasDynamicBias": 0,
  "HasResidual": 0,
  "ConvXAsActInputIdx": -1,
  "BiasAsActInputIdx": -1,
  "ResAsActInputIdx": -1,
  "Activation": "RELU",
  "TacticName": "ampere_h16816gemm_128x128_ldg8_relu_stages_32x5_tn_v1",
  "TacticValue": "0x0000000000020118",
  "StreamId": 0,
  "Metadata": "[ONNX Layer: Conv_48]\u001e[ONNX Layer: Relu_49]"
},{
  "Name": "Conv_50 + Relu_51",
  "LayerType": "CaskConvolution",
  "Inputs": [
  {
    "Name": "567",
    "Location": "Device",
    "Dimensions": [6,128,32,88],
    "Format/Datatype": "Channel major FP16 format where channel % 8 == 0"
  }],
  "Outputs": [
  {
    "Name": "569",
    "Location": "Device",
    "Dimensions": [6,128,32,88],
    "Format/Datatype": "Channel major FP16 format where channel % 8 == 0"
  }],
  "ParameterType": "Convolution",
  "Kernel": [3,3],
  "PaddingMode": "kEXPLICIT_ROUND_DOWN",
  "PrePadding": [1,1],
  "PostPadding": [1,1],
  "Stride": [1,1],
  "Dilation": [1,1],
  "OutMaps": 128,
  "Groups": 1,
  "Weights": {"Type": "Half", "Count": 147456},
  "Bias": {"Type": "Half", "Count": 128},
  "HasBias": 1,
  "HasReLU": 1,
  "HasSparseWeights": 0,
  "HasDynamicFilter": 0,
  "HasDynamicBias": 0,
  "HasResidual": 0,
  "ConvXAsActInputIdx": -1,
  "BiasAsActInputIdx": -1,
  "ResAsActInputIdx": -1,
  "Activation": "RELU",
  "TacticName": "sm80_xmma_fprop_implicit_gemm_f16f16_f16f16_f16_nhwckrsc_nhwc_tilesize128x128x32_stage4_warpsize2x2x1_g1_tensor16x8x16_t1r3s3_aACCESS",
  "TacticValue": "0x245530c34bd6090f",
  "StreamId": 0,
  "Metadata": "[ONNX Layer: Conv_50]\u001e[ONNX Layer: Relu_51]"
},{
  "Name": "Conv_52 + Add_53 + Relu_54",
  "LayerType": "CaskGemmConvolution",
  "Inputs": [
  {
    "Name": "569",
    "Location": "Device",
    "Dimensions": [6,128,32,88],
    "Format/Datatype": "Channel major FP16 format where channel % 8 == 0"
  },
  {
    "Name": "565",
    "Location": "Device",
    "Dimensions": [6,512,32,88],
    "Format/Datatype": "Channel major FP16 format where channel % 8 == 0"
  }],
  "Outputs": [
  {
    "Name": "572",
    "Location": "Device",
    "Dimensions": [6,512,32,88],
    "Format/Datatype": "Channel major FP16 format where channel % 8 == 0"
  }],
  "ParameterType": "Convolution",
  "Kernel": [1,1],
  "PaddingMode": "kEXPLICIT_ROUND_DOWN",
  "PrePadding": [0,0],
  "PostPadding": [0,0],
  "Stride": [1,1],
  "Dilation": [1,1],
  "OutMaps": 512,
  "Groups": 1,
  "Weights": {"Type": "Half", "Count": 65536},
  "Bias": {"Type": "Half", "Count": 512},
  "HasBias": 1,
  "HasReLU": 1,
  "HasSparseWeights": 0,
  "HasDynamicFilter": 0,
  "HasDynamicBias": 0,
  "HasResidual": 1,
  "ConvXAsActInputIdx": -1,
  "BiasAsActInputIdx": -1,
  "ResAsActInputIdx": -1,
  "Activation": "RELU",
  "TacticName": "sm80_xmma_gemm_f16f16_f16f16_f16_tn_n_tilesize128x128x32_stage4_warpsize2x2x1_tensor16x8x16",
  "TacticValue": "0x0000000000020244",
  "StreamId": 0,
  "Metadata": "[ONNX Layer: Conv_52]\u001e[ONNX Layer: Add_53]\u001e[ONNX Layer: Relu_54]"
},{
  "Name": "Conv_55 + Relu_56",
  "LayerType": "CaskGemmConvolution",
  "Inputs": [
  {
    "Name": "572",
    "Location": "Device",
    "Dimensions": [6,512,32,88],
    "Format/Datatype": "Channel major FP16 format where channel % 8 == 0"
  }],
  "Outputs": [
  {
    "Name": "574",
    "Location": "Device",
    "Dimensions": [6,256,32,88],
    "Format/Datatype": "Channel major FP16 format where channel % 8 == 0"
  }],
  "ParameterType": "Convolution",
  "Kernel": [1,1],
  "PaddingMode": "kEXPLICIT_ROUND_DOWN",
  "PrePadding": [0,0],
  "PostPadding": [0,0],
  "Stride": [1,1],
  "Dilation": [1,1],
  "OutMaps": 256,
  "Groups": 1,
  "Weights": {"Type": "Half", "Count": 131072},
  "Bias": {"Type": "Half", "Count": 256},
  "HasBias": 1,
  "HasReLU": 1,
  "HasSparseWeights": 0,
  "HasDynamicFilter": 0,
  "HasDynamicBias": 0,
  "HasResidual": 0,
  "ConvXAsActInputIdx": -1,
  "BiasAsActInputIdx": -1,
  "ResAsActInputIdx": -1,
  "Activation": "RELU",
  "TacticName": "ampere_h16816gemm_128x128_ldg8_relu_stages_32x5_nn_v1",
  "TacticValue": "0x0000000000020112",
  "StreamId": 0,
  "Metadata": "[ONNX Layer: Conv_55]\u001e[ONNX Layer: Relu_56]"
},{
  "Name": "Conv_60",
  "LayerType": "CaskConvolution",
  "Inputs": [
  {
    "Name": "572",
    "Location": "Device",
    "Dimensions": [6,512,32,88],
    "Format/Datatype": "Channel major FP16 format where channel % 8 == 0"
  }],
  "Outputs": [
  {
    "Name": "578",
    "Location": "Device",
    "Dimensions": [6,1024,16,44],
    "Format/Datatype": "Channel major FP16 format where channel % 8 == 0"
  }],
  "ParameterType": "Convolution",
  "Kernel": [1,1],
  "PaddingMode": "kEXPLICIT_ROUND_DOWN",
  "PrePadding": [0,0],
  "PostPadding": [0,0],
  "Stride": [2,2],
  "Dilation": [1,1],
  "OutMaps": 1024,
  "Groups": 1,
  "Weights": {"Type": "Half", "Count": 524288},
  "Bias": {"Type": "Half", "Count": 1024},
  "HasBias": 1,
  "HasReLU": 0,
  "HasSparseWeights": 0,
  "HasDynamicFilter": 0,
  "HasDynamicBias": 0,
  "HasResidual": 0,
  "ConvXAsActInputIdx": -1,
  "BiasAsActInputIdx": -1,
  "ResAsActInputIdx": -1,
  "Activation": "NONE",
  "TacticName": "sm80_xmma_fprop_implicit_gemm_f16f16_f16f16_f16_nhwckrsc_nhwc_tilesize128x128x32_stage4_warpsize2x2x1_g1_tensor16x8x16_t1r1s1",
  "TacticValue": "0xea50b6d3d87bf5dd",
  "StreamId": 0,
  "Metadata": "[ONNX Layer: Conv_60]"
},{
  "Name": "Conv_57 + Relu_58",
  "LayerType": "CaskConvolution",
  "Inputs": [
  {
    "Name": "574",
    "Location": "Device",
    "Dimensions": [6,256,32,88],
    "Format/Datatype": "Channel major FP16 format where channel % 8 == 0"
  }],
  "Outputs": [
  {
    "Name": "576",
    "Location": "Device",
    "Dimensions": [6,256,16,44],
    "Format/Datatype": "Channel major FP16 format where channel % 8 == 0"
  }],
  "ParameterType": "Convolution",
  "Kernel": [3,3],
  "PaddingMode": "kEXPLICIT_ROUND_DOWN",
  "PrePadding": [1,1],
  "PostPadding": [1,1],
  "Stride": [2,2],
  "Dilation": [1,1],
  "OutMaps": 256,
  "Groups": 1,
  "Weights": {"Type": "Half", "Count": 589824},
  "Bias": {"Type": "Half", "Count": 256},
  "HasBias": 1,
  "HasReLU": 1,
  "HasSparseWeights": 0,
  "HasDynamicFilter": 0,
  "HasDynamicBias": 0,
  "HasResidual": 0,
  "ConvXAsActInputIdx": -1,
  "BiasAsActInputIdx": -1,
  "ResAsActInputIdx": -1,
  "Activation": "RELU",
  "TacticName": "sm80_xmma_fprop_implicit_gemm_f16f16_f16f16_f16_nhwckrsc_nhwc_tilesize128x128x32_stage4_warpsize2x2x1_g1_tensor16x8x16_t1r3s3",
  "TacticValue": "0x60c3421152ef8e10",
  "StreamId": 0,
  "Metadata": "[ONNX Layer: Conv_57]\u001e[ONNX Layer: Relu_58]"
},{
  "Name": "Conv_59 + Add_61 + Relu_62",
  "LayerType": "CaskConvolution",
  "Inputs": [
  {
    "Name": "576",
    "Location": "Device",
    "Dimensions": [6,256,16,44],
    "Format/Datatype": "Channel major FP16 format where channel % 8 == 0"
  },
  {
    "Name": "578",
    "Location": "Device",
    "Dimensions": [6,1024,16,44],
    "Format/Datatype": "Channel major FP16 format where channel % 8 == 0"
  }],
  "Outputs": [
  {
    "Name": "580",
    "Location": "Device",
    "Dimensions": [6,1024,16,44],
    "Format/Datatype": "Channel major FP16 format where channel % 8 == 0"
  }],
  "ParameterType": "Convolution",
  "Kernel": [1,1],
  "PaddingMode": "kEXPLICIT_ROUND_DOWN",
  "PrePadding": [0,0],
  "PostPadding": [0,0],
  "Stride": [1,1],
  "Dilation": [1,1],
  "OutMaps": 1024,
  "Groups": 1,
  "Weights": {"Type": "Half", "Count": 262144},
  "Bias": {"Type": "Half", "Count": 1024},
  "HasBias": 1,
  "HasReLU": 1,
  "HasSparseWeights": 0,
  "HasDynamicFilter": 0,
  "HasDynamicBias": 0,
  "HasResidual": 1,
  "ConvXAsActInputIdx": -1,
  "BiasAsActInputIdx": -1,
  "ResAsActInputIdx": -1,
  "Activation": "RELU",
  "TacticName": "sm80_xmma_fprop_implicit_gemm_f16f16_f16f16_f16_nhwckrsc_nhwc_tilesize128x128x32_stage4_warpsize2x2x1_g1_tensor16x8x16_simple_t1r1s1",
  "TacticValue": "0xa2121200e08f5391",
  "StreamId": 0,
  "Metadata": "[ONNX Layer: Conv_59]\u001e[ONNX Layer: Add_61]\u001e[ONNX Layer: Relu_62]"
},{
  "Name": "Conv_63 + Relu_64",
  "LayerType": "CaskGemmConvolution",
  "Inputs": [
  {
    "Name": "580",
    "Location": "Device",
    "Dimensions": [6,1024,16,44],
    "Format/Datatype": "Channel major FP16 format where channel % 8 == 0"
  }],
  "Outputs": [
  {
    "Name": "582",
    "Location": "Device",
    "Dimensions": [6,256,16,44],
    "Format/Datatype": "Channel major FP16 format where channel % 8 == 0"
  }],
  "ParameterType": "Convolution",
  "Kernel": [1,1],
  "PaddingMode": "kEXPLICIT_ROUND_DOWN",
  "PrePadding": [0,0],
  "PostPadding": [0,0],
  "Stride": [1,1],
  "Dilation": [1,1],
  "OutMaps": 256,
  "Groups": 1,
  "Weights": {"Type": "Half", "Count": 262144},
  "Bias": {"Type": "Half", "Count": 256},
  "HasBias": 1,
  "HasReLU": 1,
  "HasSparseWeights": 0,
  "HasDynamicFilter": 0,
  "HasDynamicBias": 0,
  "HasResidual": 0,
  "ConvXAsActInputIdx": -1,
  "BiasAsActInputIdx": -1,
  "ResAsActInputIdx": -1,
  "Activation": "RELU",
  "TacticName": "ampere_h16816gemm_128x128_ldg8_relu_stages_32x5_nn_v1",
  "TacticValue": "0x0000000000020112",
  "StreamId": 0,
  "Metadata": "[ONNX Layer: Conv_63]\u001e[ONNX Layer: Relu_64]"
},{
  "Name": "Conv_65 + Relu_66",
  "LayerType": "CaskConvolution",
  "Inputs": [
  {
    "Name": "582",
    "Location": "Device",
    "Dimensions": [6,256,16,44],
    "Format/Datatype": "Channel major FP16 format where channel % 8 == 0"
  }],
  "Outputs": [
  {
    "Name": "584",
    "Location": "Device",
    "Dimensions": [6,256,16,44],
    "Format/Datatype": "Channel major FP16 format where channel % 8 == 0"
  }],
  "ParameterType": "Convolution",
  "Kernel": [3,3],
  "PaddingMode": "kEXPLICIT_ROUND_DOWN",
  "PrePadding": [1,1],
  "PostPadding": [1,1],
  "Stride": [1,1],
  "Dilation": [1,1],
  "OutMaps": 256,
  "Groups": 1,
  "Weights": {"Type": "Half", "Count": 589824},
  "Bias": {"Type": "Half", "Count": 256},
  "HasBias": 1,
  "HasReLU": 1,
  "HasSparseWeights": 0,
  "HasDynamicFilter": 0,
  "HasDynamicBias": 0,
  "HasResidual": 0,
  "ConvXAsActInputIdx": -1,
  "BiasAsActInputIdx": -1,
  "ResAsActInputIdx": -1,
  "Activation": "RELU",
  "TacticName": "sm80_xmma_fprop_implicit_gemm_f16f16_f16f16_f16_nhwckrsc_nhwc_tilesize128x128x32_stage4_warpsize2x2x1_g1_tensor16x8x16",
  "TacticValue": "0xdfa020ef435ef810",
  "StreamId": 0,
  "Metadata": "[ONNX Layer: Conv_65]\u001e[ONNX Layer: Relu_66]"
},{
  "Name": "Conv_67 + Add_68 + Relu_69",
  "LayerType": "CaskConvolution",
  "Inputs": [
  {
    "Name": "584",
    "Location": "Device",
    "Dimensions": [6,256,16,44],
    "Format/Datatype": "Channel major FP16 format where channel % 8 == 0"
  },
  {
    "Name": "580",
    "Location": "Device",
    "Dimensions": [6,1024,16,44],
    "Format/Datatype": "Channel major FP16 format where channel % 8 == 0"
  }],
  "Outputs": [
  {
    "Name": "587",
    "Location": "Device",
    "Dimensions": [6,1024,16,44],
    "Format/Datatype": "Channel major FP16 format where channel % 8 == 0"
  }],
  "ParameterType": "Convolution",
  "Kernel": [1,1],
  "PaddingMode": "kEXPLICIT_ROUND_DOWN",
  "PrePadding": [0,0],
  "PostPadding": [0,0],
  "Stride": [1,1],
  "Dilation": [1,1],
  "OutMaps": 1024,
  "Groups": 1,
  "Weights": {"Type": "Half", "Count": 262144},
  "Bias": {"Type": "Half", "Count": 1024},
  "HasBias": 1,
  "HasReLU": 1,
  "HasSparseWeights": 0,
  "HasDynamicFilter": 0,
  "HasDynamicBias": 0,
  "HasResidual": 1,
  "ConvXAsActInputIdx": -1,
  "BiasAsActInputIdx": -1,
  "ResAsActInputIdx": -1,
  "Activation": "RELU",
  "TacticName": "sm80_xmma_fprop_implicit_gemm_f16f16_f16f16_f16_nhwckrsc_nhwc_tilesize128x128x32_stage4_warpsize2x2x1_g1_tensor16x8x16_simple_t1r1s1",
  "TacticValue": "0xa2121200e08f5391",
  "StreamId": 0,
  "Metadata": "[ONNX Layer: Conv_67]\u001e[ONNX Layer: Add_68]\u001e[ONNX Layer: Relu_69]"
},{
  "Name": "Conv_70 + Relu_71",
  "LayerType": "CaskGemmConvolution",
  "Inputs": [
  {
    "Name": "587",
    "Location": "Device",
    "Dimensions": [6,1024,16,44],
    "Format/Datatype": "Channel major FP16 format where channel % 8 == 0"
  }],
  "Outputs": [
  {
    "Name": "589",
    "Location": "Device",
    "Dimensions": [6,256,16,44],
    "Format/Datatype": "Channel major FP16 format where channel % 8 == 0"
  }],
  "ParameterType": "Convolution",
  "Kernel": [1,1],
  "PaddingMode": "kEXPLICIT_ROUND_DOWN",
  "PrePadding": [0,0],
  "PostPadding": [0,0],
  "Stride": [1,1],
  "Dilation": [1,1],
  "OutMaps": 256,
  "Groups": 1,
  "Weights": {"Type": "Half", "Count": 262144},
  "Bias": {"Type": "Half", "Count": 256},
  "HasBias": 1,
  "HasReLU": 1,
  "HasSparseWeights": 0,
  "HasDynamicFilter": 0,
  "HasDynamicBias": 0,
  "HasResidual": 0,
  "ConvXAsActInputIdx": -1,
  "BiasAsActInputIdx": -1,
  "ResAsActInputIdx": -1,
  "Activation": "RELU",
  "TacticName": "ampere_h16816gemm_128x128_ldg8_relu_stages_32x5_nn_v1",
  "TacticValue": "0x0000000000020112",
  "StreamId": 0,
  "Metadata": "[ONNX Layer: Conv_70]\u001e[ONNX Layer: Relu_71]"
},{
  "Name": "Conv_72 + Relu_73",
  "LayerType": "CaskConvolution",
  "Inputs": [
  {
    "Name": "589",
    "Location": "Device",
    "Dimensions": [6,256,16,44],
    "Format/Datatype": "Channel major FP16 format where channel % 8 == 0"
  }],
  "Outputs": [
  {
    "Name": "591",
    "Location": "Device",
    "Dimensions": [6,256,16,44],
    "Format/Datatype": "Channel major FP16 format where channel % 8 == 0"
  }],
  "ParameterType": "Convolution",
  "Kernel": [3,3],
  "PaddingMode": "kEXPLICIT_ROUND_DOWN",
  "PrePadding": [1,1],
  "PostPadding": [1,1],
  "Stride": [1,1],
  "Dilation": [1,1],
  "OutMaps": 256,
  "Groups": 1,
  "Weights": {"Type": "Half", "Count": 589824},
  "Bias": {"Type": "Half", "Count": 256},
  "HasBias": 1,
  "HasReLU": 1,
  "HasSparseWeights": 0,
  "HasDynamicFilter": 0,
  "HasDynamicBias": 0,
  "HasResidual": 0,
  "ConvXAsActInputIdx": -1,
  "BiasAsActInputIdx": -1,
  "ResAsActInputIdx": -1,
  "Activation": "RELU",
  "TacticName": "sm80_xmma_fprop_implicit_gemm_f16f16_f16f16_f16_nhwckrsc_nhwc_tilesize128x128x32_stage4_warpsize2x2x1_g1_tensor16x8x16",
  "TacticValue": "0xdfa020ef435ef810",
  "StreamId": 0,
  "Metadata": "[ONNX Layer: Conv_72]\u001e[ONNX Layer: Relu_73]"
},{
  "Name": "Conv_74 + Add_75 + Relu_76",
  "LayerType": "CaskConvolution",
  "Inputs": [
  {
    "Name": "591",
    "Location": "Device",
    "Dimensions": [6,256,16,44],
    "Format/Datatype": "Channel major FP16 format where channel % 8 == 0"
  },
  {
    "Name": "587",
    "Location": "Device",
    "Dimensions": [6,1024,16,44],
    "Format/Datatype": "Channel major FP16 format where channel % 8 == 0"
  }],
  "Outputs": [
  {
    "Name": "594",
    "Location": "Device",
    "Dimensions": [6,1024,16,44],
    "Format/Datatype": "Channel major FP16 format where channel % 8 == 0"
  }],
  "ParameterType": "Convolution",
  "Kernel": [1,1],
  "PaddingMode": "kEXPLICIT_ROUND_DOWN",
  "PrePadding": [0,0],
  "PostPadding": [0,0],
  "Stride": [1,1],
  "Dilation": [1,1],
  "OutMaps": 1024,
  "Groups": 1,
  "Weights": {"Type": "Half", "Count": 262144},
  "Bias": {"Type": "Half", "Count": 1024},
  "HasBias": 1,
  "HasReLU": 1,
  "HasSparseWeights": 0,
  "HasDynamicFilter": 0,
  "HasDynamicBias": 0,
  "HasResidual": 1,
  "ConvXAsActInputIdx": -1,
  "BiasAsActInputIdx": -1,
  "ResAsActInputIdx": -1,
  "Activation": "RELU",
  "TacticName": "sm80_xmma_fprop_implicit_gemm_f16f16_f16f16_f16_nhwckrsc_nhwc_tilesize128x128x32_stage4_warpsize2x2x1_g1_tensor16x8x16_simple_t1r1s1",
  "TacticValue": "0xa2121200e08f5391",
  "StreamId": 0,
  "Metadata": "[ONNX Layer: Conv_74]\u001e[ONNX Layer: Add_75]\u001e[ONNX Layer: Relu_76]"
},{
  "Name": "Conv_77 + Relu_78",
  "LayerType": "CaskGemmConvolution",
  "Inputs": [
  {
    "Name": "594",
    "Location": "Device",
    "Dimensions": [6,1024,16,44],
    "Format/Datatype": "Channel major FP16 format where channel % 8 == 0"
  }],
  "Outputs": [
  {
    "Name": "596",
    "Location": "Device",
    "Dimensions": [6,256,16,44],
    "Format/Datatype": "Channel major FP16 format where channel % 8 == 0"
  }],
  "ParameterType": "Convolution",
  "Kernel": [1,1],
  "PaddingMode": "kEXPLICIT_ROUND_DOWN",
  "PrePadding": [0,0],
  "PostPadding": [0,0],
  "Stride": [1,1],
  "Dilation": [1,1],
  "OutMaps": 256,
  "Groups": 1,
  "Weights": {"Type": "Half", "Count": 262144},
  "Bias": {"Type": "Half", "Count": 256},
  "HasBias": 1,
  "HasReLU": 1,
  "HasSparseWeights": 0,
  "HasDynamicFilter": 0,
  "HasDynamicBias": 0,
  "HasResidual": 0,
  "ConvXAsActInputIdx": -1,
  "BiasAsActInputIdx": -1,
  "ResAsActInputIdx": -1,
  "Activation": "RELU",
  "TacticName": "ampere_h16816gemm_128x128_ldg8_relu_stages_32x5_nn_v1",
  "TacticValue": "0x0000000000020112",
  "StreamId": 0,
  "Metadata": "[ONNX Layer: Conv_77]\u001e[ONNX Layer: Relu_78]"
},{
  "Name": "Conv_79 + Relu_80",
  "LayerType": "CaskConvolution",
  "Inputs": [
  {
    "Name": "596",
    "Location": "Device",
    "Dimensions": [6,256,16,44],
    "Format/Datatype": "Channel major FP16 format where channel % 8 == 0"
  }],
  "Outputs": [
  {
    "Name": "598",
    "Location": "Device",
    "Dimensions": [6,256,16,44],
    "Format/Datatype": "Channel major FP16 format where channel % 8 == 0"
  }],
  "ParameterType": "Convolution",
  "Kernel": [3,3],
  "PaddingMode": "kEXPLICIT_ROUND_DOWN",
  "PrePadding": [1,1],
  "PostPadding": [1,1],
  "Stride": [1,1],
  "Dilation": [1,1],
  "OutMaps": 256,
  "Groups": 1,
  "Weights": {"Type": "Half", "Count": 589824},
  "Bias": {"Type": "Half", "Count": 256},
  "HasBias": 1,
  "HasReLU": 1,
  "HasSparseWeights": 0,
  "HasDynamicFilter": 0,
  "HasDynamicBias": 0,
  "HasResidual": 0,
  "ConvXAsActInputIdx": -1,
  "BiasAsActInputIdx": -1,
  "ResAsActInputIdx": -1,
  "Activation": "RELU",
  "TacticName": "sm80_xmma_fprop_implicit_gemm_f16f16_f16f16_f16_nhwckrsc_nhwc_tilesize128x128x32_stage4_warpsize2x2x1_g1_tensor16x8x16",
  "TacticValue": "0xdfa020ef435ef810",
  "StreamId": 0,
  "Metadata": "[ONNX Layer: Conv_79]\u001e[ONNX Layer: Relu_80]"
},{
  "Name": "Conv_81 + Add_82 + Relu_83",
  "LayerType": "CaskConvolution",
  "Inputs": [
  {
    "Name": "598",
    "Location": "Device",
    "Dimensions": [6,256,16,44],
    "Format/Datatype": "Channel major FP16 format where channel % 8 == 0"
  },
  {
    "Name": "594",
    "Location": "Device",
    "Dimensions": [6,1024,16,44],
    "Format/Datatype": "Channel major FP16 format where channel % 8 == 0"
  }],
  "Outputs": [
  {
    "Name": "601",
    "Location": "Device",
    "Dimensions": [6,1024,16,44],
    "Format/Datatype": "Channel major FP16 format where channel % 8 == 0"
  }],
  "ParameterType": "Convolution",
  "Kernel": [1,1],
  "PaddingMode": "kEXPLICIT_ROUND_DOWN",
  "PrePadding": [0,0],
  "PostPadding": [0,0],
  "Stride": [1,1],
  "Dilation": [1,1],
  "OutMaps": 1024,
  "Groups": 1,
  "Weights": {"Type": "Half", "Count": 262144},
  "Bias": {"Type": "Half", "Count": 1024},
  "HasBias": 1,
  "HasReLU": 1,
  "HasSparseWeights": 0,
  "HasDynamicFilter": 0,
  "HasDynamicBias": 0,
  "HasResidual": 1,
  "ConvXAsActInputIdx": -1,
  "BiasAsActInputIdx": -1,
  "ResAsActInputIdx": -1,
  "Activation": "RELU",
  "TacticName": "sm80_xmma_fprop_implicit_gemm_f16f16_f16f16_f16_nhwckrsc_nhwc_tilesize128x128x32_stage4_warpsize2x2x1_g1_tensor16x8x16_simple_t1r1s1",
  "TacticValue": "0xa2121200e08f5391",
  "StreamId": 0,
  "Metadata": "[ONNX Layer: Conv_81]\u001e[ONNX Layer: Add_82]\u001e[ONNX Layer: Relu_83]"
},{
  "Name": "Conv_84 + Relu_85",
  "LayerType": "CaskGemmConvolution",
  "Inputs": [
  {
    "Name": "601",
    "Location": "Device",
    "Dimensions": [6,1024,16,44],
    "Format/Datatype": "Channel major FP16 format where channel % 8 == 0"
  }],
  "Outputs": [
  {
    "Name": "603",
    "Location": "Device",
    "Dimensions": [6,256,16,44],
    "Format/Datatype": "Channel major FP16 format where channel % 8 == 0"
  }],
  "ParameterType": "Convolution",
  "Kernel": [1,1],
  "PaddingMode": "kEXPLICIT_ROUND_DOWN",
  "PrePadding": [0,0],
  "PostPadding": [0,0],
  "Stride": [1,1],
  "Dilation": [1,1],
  "OutMaps": 256,
  "Groups": 1,
  "Weights": {"Type": "Half", "Count": 262144},
  "Bias": {"Type": "Half", "Count": 256},
  "HasBias": 1,
  "HasReLU": 1,
  "HasSparseWeights": 0,
  "HasDynamicFilter": 0,
  "HasDynamicBias": 0,
  "HasResidual": 0,
  "ConvXAsActInputIdx": -1,
  "BiasAsActInputIdx": -1,
  "ResAsActInputIdx": -1,
  "Activation": "RELU",
  "TacticName": "ampere_h16816gemm_128x128_ldg8_relu_stages_32x5_nn_v1",
  "TacticValue": "0x0000000000020112",
  "StreamId": 0,
  "Metadata": "[ONNX Layer: Conv_84]\u001e[ONNX Layer: Relu_85]"
},{
  "Name": "Conv_86 + Relu_87",
  "LayerType": "CaskConvolution",
  "Inputs": [
  {
    "Name": "603",
    "Location": "Device",
    "Dimensions": [6,256,16,44],
    "Format/Datatype": "Channel major FP16 format where channel % 8 == 0"
  }],
  "Outputs": [
  {
    "Name": "605",
    "Location": "Device",
    "Dimensions": [6,256,16,44],
    "Format/Datatype": "Channel major FP16 format where channel % 8 == 0"
  }],
  "ParameterType": "Convolution",
  "Kernel": [3,3],
  "PaddingMode": "kEXPLICIT_ROUND_DOWN",
  "PrePadding": [1,1],
  "PostPadding": [1,1],
  "Stride": [1,1],
  "Dilation": [1,1],
  "OutMaps": 256,
  "Groups": 1,
  "Weights": {"Type": "Half", "Count": 589824},
  "Bias": {"Type": "Half", "Count": 256},
  "HasBias": 1,
  "HasReLU": 1,
  "HasSparseWeights": 0,
  "HasDynamicFilter": 0,
  "HasDynamicBias": 0,
  "HasResidual": 0,
  "ConvXAsActInputIdx": -1,
  "BiasAsActInputIdx": -1,
  "ResAsActInputIdx": -1,
  "Activation": "RELU",
  "TacticName": "sm80_xmma_fprop_implicit_gemm_f16f16_f16f16_f16_nhwckrsc_nhwc_tilesize128x128x32_stage4_warpsize2x2x1_g1_tensor16x8x16",
  "TacticValue": "0xdfa020ef435ef810",
  "StreamId": 0,
  "Metadata": "[ONNX Layer: Conv_86]\u001e[ONNX Layer: Relu_87]"
},{
  "Name": "Conv_88 + Add_89 + Relu_90",
  "LayerType": "CaskConvolution",
  "Inputs": [
  {
    "Name": "605",
    "Location": "Device",
    "Dimensions": [6,256,16,44],
    "Format/Datatype": "Channel major FP16 format where channel % 8 == 0"
  },
  {
    "Name": "601",
    "Location": "Device",
    "Dimensions": [6,1024,16,44],
    "Format/Datatype": "Channel major FP16 format where channel % 8 == 0"
  }],
  "Outputs": [
  {
    "Name": "608",
    "Location": "Device",
    "Dimensions": [6,1024,16,44],
    "Format/Datatype": "Channel major FP16 format where channel % 8 == 0"
  }],
  "ParameterType": "Convolution",
  "Kernel": [1,1],
  "PaddingMode": "kEXPLICIT_ROUND_DOWN",
  "PrePadding": [0,0],
  "PostPadding": [0,0],
  "Stride": [1,1],
  "Dilation": [1,1],
  "OutMaps": 1024,
  "Groups": 1,
  "Weights": {"Type": "Half", "Count": 262144},
  "Bias": {"Type": "Half", "Count": 1024},
  "HasBias": 1,
  "HasReLU": 1,
  "HasSparseWeights": 0,
  "HasDynamicFilter": 0,
  "HasDynamicBias": 0,
  "HasResidual": 1,
  "ConvXAsActInputIdx": -1,
  "BiasAsActInputIdx": -1,
  "ResAsActInputIdx": -1,
  "Activation": "RELU",
  "TacticName": "sm80_xmma_fprop_implicit_gemm_f16f16_f16f16_f16_nhwckrsc_nhwc_tilesize128x128x32_stage4_warpsize2x2x1_g1_tensor16x8x16_simple_t1r1s1",
  "TacticValue": "0xa2121200e08f5391",
  "StreamId": 0,
  "Metadata": "[ONNX Layer: Conv_88]\u001e[ONNX Layer: Add_89]\u001e[ONNX Layer: Relu_90]"
},{
  "Name": "Conv_91 + Relu_92",
  "LayerType": "CaskGemmConvolution",
  "Inputs": [
  {
    "Name": "608",
    "Location": "Device",
    "Dimensions": [6,1024,16,44],
    "Format/Datatype": "Channel major FP16 format where channel % 8 == 0"
  }],
  "Outputs": [
  {
    "Name": "610",
    "Location": "Device",
    "Dimensions": [6,256,16,44],
    "Format/Datatype": "Channel major FP16 format where channel % 8 == 0"
  }],
  "ParameterType": "Convolution",
  "Kernel": [1,1],
  "PaddingMode": "kEXPLICIT_ROUND_DOWN",
  "PrePadding": [0,0],
  "PostPadding": [0,0],
  "Stride": [1,1],
  "Dilation": [1,1],
  "OutMaps": 256,
  "Groups": 1,
  "Weights": {"Type": "Half", "Count": 262144},
  "Bias": {"Type": "Half", "Count": 256},
  "HasBias": 1,
  "HasReLU": 1,
  "HasSparseWeights": 0,
  "HasDynamicFilter": 0,
  "HasDynamicBias": 0,
  "HasResidual": 0,
  "ConvXAsActInputIdx": -1,
  "BiasAsActInputIdx": -1,
  "ResAsActInputIdx": -1,
  "Activation": "RELU",
  "TacticName": "ampere_h16816gemm_128x128_ldg8_relu_stages_32x5_nn_v1",
  "TacticValue": "0x0000000000020112",
  "StreamId": 0,
  "Metadata": "[ONNX Layer: Conv_91]\u001e[ONNX Layer: Relu_92]"
},{
  "Name": "Conv_93 + Relu_94",
  "LayerType": "CaskConvolution",
  "Inputs": [
  {
    "Name": "610",
    "Location": "Device",
    "Dimensions": [6,256,16,44],
    "Format/Datatype": "Channel major FP16 format where channel % 8 == 0"
  }],
  "Outputs": [
  {
    "Name": "612",
    "Location": "Device",
    "Dimensions": [6,256,16,44],
    "Format/Datatype": "Channel major FP16 format where channel % 8 == 0"
  }],
  "ParameterType": "Convolution",
  "Kernel": [3,3],
  "PaddingMode": "kEXPLICIT_ROUND_DOWN",
  "PrePadding": [1,1],
  "PostPadding": [1,1],
  "Stride": [1,1],
  "Dilation": [1,1],
  "OutMaps": 256,
  "Groups": 1,
  "Weights": {"Type": "Half", "Count": 589824},
  "Bias": {"Type": "Half", "Count": 256},
  "HasBias": 1,
  "HasReLU": 1,
  "HasSparseWeights": 0,
  "HasDynamicFilter": 0,
  "HasDynamicBias": 0,
  "HasResidual": 0,
  "ConvXAsActInputIdx": -1,
  "BiasAsActInputIdx": -1,
  "ResAsActInputIdx": -1,
  "Activation": "RELU",
  "TacticName": "sm80_xmma_fprop_implicit_gemm_f16f16_f16f16_f16_nhwckrsc_nhwc_tilesize128x128x32_stage4_warpsize2x2x1_g1_tensor16x8x16",
  "TacticValue": "0xdfa020ef435ef810",
  "StreamId": 0,
  "Metadata": "[ONNX Layer: Conv_93]\u001e[ONNX Layer: Relu_94]"
},{
  "Name": "Conv_95 + Add_96 + Relu_97",
  "LayerType": "CaskConvolution",
  "Inputs": [
  {
    "Name": "612",
    "Location": "Device",
    "Dimensions": [6,256,16,44],
    "Format/Datatype": "Channel major FP16 format where channel % 8 == 0"
  },
  {
    "Name": "608",
    "Location": "Device",
    "Dimensions": [6,1024,16,44],
    "Format/Datatype": "Channel major FP16 format where channel % 8 == 0"
  }],
  "Outputs": [
  {
    "Name": "615",
    "Location": "Device",
    "Dimensions": [6,1024,16,44],
    "Format/Datatype": "Channel major FP16 format where channel % 8 == 0"
  }],
  "ParameterType": "Convolution",
  "Kernel": [1,1],
  "PaddingMode": "kEXPLICIT_ROUND_DOWN",
  "PrePadding": [0,0],
  "PostPadding": [0,0],
  "Stride": [1,1],
  "Dilation": [1,1],
  "OutMaps": 1024,
  "Groups": 1,
  "Weights": {"Type": "Half", "Count": 262144},
  "Bias": {"Type": "Half", "Count": 1024},
  "HasBias": 1,
  "HasReLU": 1,
  "HasSparseWeights": 0,
  "HasDynamicFilter": 0,
  "HasDynamicBias": 0,
  "HasResidual": 1,
  "ConvXAsActInputIdx": -1,
  "BiasAsActInputIdx": -1,
  "ResAsActInputIdx": -1,
  "Activation": "RELU",
  "TacticName": "sm80_xmma_fprop_implicit_gemm_f16f16_f16f16_f16_nhwckrsc_nhwc_tilesize128x128x32_stage4_warpsize2x2x1_g1_tensor16x8x16_simple_t1r1s1",
  "TacticValue": "0xa2121200e08f5391",
  "StreamId": 0,
  "Metadata": "[ONNX Layer: Conv_95]\u001e[ONNX Layer: Add_96]\u001e[ONNX Layer: Relu_97]"
},{
  "Name": "Conv_98 + Relu_99",
  "LayerType": "CaskGemmConvolution",
  "Inputs": [
  {
    "Name": "615",
    "Location": "Device",
    "Dimensions": [6,1024,16,44],
    "Format/Datatype": "Channel major FP16 format where channel % 8 == 0"
  }],
  "Outputs": [
  {
    "Name": "617",
    "Location": "Device",
    "Dimensions": [6,512,16,44],
    "Format/Datatype": "Channel major FP16 format where channel % 8 == 0"
  }],
  "ParameterType": "Convolution",
  "Kernel": [1,1],
  "PaddingMode": "kEXPLICIT_ROUND_DOWN",
  "PrePadding": [0,0],
  "PostPadding": [0,0],
  "Stride": [1,1],
  "Dilation": [1,1],
  "OutMaps": 512,
  "Groups": 1,
  "Weights": {"Type": "Half", "Count": 524288},
  "Bias": {"Type": "Half", "Count": 512},
  "HasBias": 1,
  "HasReLU": 1,
  "HasSparseWeights": 0,
  "HasDynamicFilter": 0,
  "HasDynamicBias": 0,
  "HasResidual": 0,
  "ConvXAsActInputIdx": -1,
  "BiasAsActInputIdx": -1,
  "ResAsActInputIdx": -1,
  "Activation": "RELU",
  "TacticName": "ampere_h16816gemm_128x128_ldg8_relu_stages_32x5_nn_v1",
  "TacticValue": "0x0000000000020112",
  "StreamId": 0,
  "Metadata": "[ONNX Layer: Conv_98]\u001e[ONNX Layer: Relu_99]"
},{
  "Name": "Conv_103",
  "LayerType": "CaskConvolution",
  "Inputs": [
  {
    "Name": "615",
    "Location": "Device",
    "Dimensions": [6,1024,16,44],
    "Format/Datatype": "Channel major FP16 format where channel % 8 == 0"
  }],
  "Outputs": [
  {
    "Name": "621",
    "Location": "Device",
    "Dimensions": [6,2048,8,22],
    "Format/Datatype": "Channel major FP16 format where channel % 8 == 0"
  }],
  "ParameterType": "Convolution",
  "Kernel": [1,1],
  "PaddingMode": "kEXPLICIT_ROUND_DOWN",
  "PrePadding": [0,0],
  "PostPadding": [0,0],
  "Stride": [2,2],
  "Dilation": [1,1],
  "OutMaps": 2048,
  "Groups": 1,
  "Weights": {"Type": "Half", "Count": 2097152},
  "Bias": {"Type": "Half", "Count": 2048},
  "HasBias": 1,
  "HasReLU": 0,
  "HasSparseWeights": 0,
  "HasDynamicFilter": 0,
  "HasDynamicBias": 0,
  "HasResidual": 0,
  "ConvXAsActInputIdx": -1,
  "BiasAsActInputIdx": -1,
  "ResAsActInputIdx": -1,
  "Activation": "NONE",
  "TacticName": "sm80_xmma_fprop_implicit_gemm_f16f16_f16f16_f16_nhwckrsc_nhwc_tilesize256x128x64_stage3_warpsize4x2x1_g1_tensor16x8x16_t1r1s1",
  "TacticValue": "0x586f548ae63d09ab",
  "StreamId": 0,
  "Metadata": "[ONNX Layer: Conv_103]"
},{
  "Name": "Conv_100 + Relu_101",
  "LayerType": "CaskConvolution",
  "Inputs": [
  {
    "Name": "617",
    "Location": "Device",
    "Dimensions": [6,512,16,44],
    "Format/Datatype": "Channel major FP16 format where channel % 8 == 0"
  }],
  "Outputs": [
  {
    "Name": "619",
    "Location": "Device",
    "Dimensions": [6,512,8,22],
    "Format/Datatype": "Channel major FP16 format where channel % 8 == 0"
  }],
  "ParameterType": "Convolution",
  "Kernel": [3,3],
  "PaddingMode": "kEXPLICIT_ROUND_DOWN",
  "PrePadding": [1,1],
  "PostPadding": [1,1],
  "Stride": [2,2],
  "Dilation": [1,1],
  "OutMaps": 512,
  "Groups": 1,
  "Weights": {"Type": "Half", "Count": 2359296},
  "Bias": {"Type": "Half", "Count": 512},
  "HasBias": 1,
  "HasReLU": 1,
  "HasSparseWeights": 0,
  "HasDynamicFilter": 0,
  "HasDynamicBias": 0,
  "HasResidual": 0,
  "ConvXAsActInputIdx": -1,
  "BiasAsActInputIdx": -1,
  "ResAsActInputIdx": -1,
  "Activation": "RELU",
  "TacticName": "sm80_xmma_fprop_implicit_gemm_f16f16_f16f16_f16_nhwckrsc_nhwc_tilesize128x128x32_stage4_warpsize2x2x1_g1_tensor16x8x16_t1r3s3",
  "TacticValue": "0x60c3421152ef8e10",
  "StreamId": 0,
  "Metadata": "[ONNX Layer: Conv_100]\u001e[ONNX Layer: Relu_101]"
},{
  "Name": "Conv_102 + Add_104 + Relu_105",
  "LayerType": "CaskGemmConvolution",
  "Inputs": [
  {
    "Name": "619",
    "Location": "Device",
    "Dimensions": [6,512,8,22],
    "Format/Datatype": "Channel major FP16 format where channel % 8 == 0"
  },
  {
    "Name": "621",
    "Location": "Device",
    "Dimensions": [6,2048,8,22],
    "Format/Datatype": "Channel major FP16 format where channel % 8 == 0"
  }],
  "Outputs": [
  {
    "Name": "623",
    "Location": "Device",
    "Dimensions": [6,2048,8,22],
    "Format/Datatype": "Channel major FP16 format where channel % 8 == 0"
  }],
  "ParameterType": "Convolution",
  "Kernel": [1,1],
  "PaddingMode": "kEXPLICIT_ROUND_DOWN",
  "PrePadding": [0,0],
  "PostPadding": [0,0],
  "Stride": [1,1],
  "Dilation": [1,1],
  "OutMaps": 2048,
  "Groups": 1,
  "Weights": {"Type": "Half", "Count": 1048576},
  "Bias": {"Type": "Half", "Count": 2048},
  "HasBias": 1,
  "HasReLU": 1,
  "HasSparseWeights": 0,
  "HasDynamicFilter": 0,
  "HasDynamicBias": 0,
  "HasResidual": 1,
  "ConvXAsActInputIdx": -1,
  "BiasAsActInputIdx": -1,
  "ResAsActInputIdx": -1,
  "Activation": "RELU",
  "TacticName": "sm80_xmma_gemm_f16f16_f16f16_f16_tn_n_tilesize128x128x32_stage4_warpsize2x2x1_tensor16x8x16",
  "TacticValue": "0x0000000000020244",
  "StreamId": 0,
  "Metadata": "[ONNX Layer: Conv_102]\u001e[ONNX Layer: Add_104]\u001e[ONNX Layer: Relu_105]"
},{
  "Name": "Conv_106 + Relu_107",
  "LayerType": "CaskGemmConvolution",
  "Inputs": [
  {
    "Name": "623",
    "Location": "Device",
    "Dimensions": [6,2048,8,22],
    "Format/Datatype": "Channel major FP16 format where channel % 8 == 0"
  }],
  "Outputs": [
  {
    "Name": "625",
    "Location": "Device",
    "Dimensions": [6,512,8,22],
    "Format/Datatype": "Channel major FP16 format where channel % 8 == 0"
  }],
  "ParameterType": "Convolution",
  "Kernel": [1,1],
  "PaddingMode": "kEXPLICIT_ROUND_DOWN",
  "PrePadding": [0,0],
  "PostPadding": [0,0],
  "Stride": [1,1],
  "Dilation": [1,1],
  "OutMaps": 512,
  "Groups": 1,
  "Weights": {"Type": "Half", "Count": 1048576},
  "Bias": {"Type": "Half", "Count": 512},
  "HasBias": 1,
  "HasReLU": 1,
  "HasSparseWeights": 0,
  "HasDynamicFilter": 0,
  "HasDynamicBias": 0,
  "HasResidual": 0,
  "ConvXAsActInputIdx": -1,
  "BiasAsActInputIdx": -1,
  "ResAsActInputIdx": -1,
  "Activation": "RELU",
  "TacticName": "ampere_h16816gemm_128x128_ldg8_relu_stages_32x5_nn_v1",
  "TacticValue": "0x0000000002040112",
  "StreamId": 0,
  "Metadata": "[ONNX Layer: Conv_106]\u001e[ONNX Layer: Relu_107]"
},{
  "Name": "Conv_108 + Relu_109",
  "LayerType": "CaskConvolution",
  "Inputs": [
  {
    "Name": "625",
    "Location": "Device",
    "Dimensions": [6,512,8,22],
    "Format/Datatype": "Channel major FP16 format where channel % 8 == 0"
  }],
  "Outputs": [
  {
    "Name": "627",
    "Location": "Device",
    "Dimensions": [6,512,8,22],
    "Format/Datatype": "Channel major FP16 format where channel % 8 == 0"
  }],
  "ParameterType": "Convolution",
  "Kernel": [3,3],
  "PaddingMode": "kEXPLICIT_ROUND_DOWN",
  "PrePadding": [1,1],
  "PostPadding": [1,1],
  "Stride": [1,1],
  "Dilation": [1,1],
  "OutMaps": 512,
  "Groups": 1,
  "Weights": {"Type": "Half", "Count": 2359296},
  "Bias": {"Type": "Half", "Count": 512},
  "HasBias": 1,
  "HasReLU": 1,
  "HasSparseWeights": 0,
  "HasDynamicFilter": 0,
  "HasDynamicBias": 0,
  "HasResidual": 0,
  "ConvXAsActInputIdx": -1,
  "BiasAsActInputIdx": -1,
  "ResAsActInputIdx": -1,
  "Activation": "RELU",
  "TacticName": "sm80_xmma_fprop_implicit_gemm_f16f16_f16f16_f16_nhwckrsc_nhwc_tilesize128x128x32_stage4_warpsize2x2x1_g1_tensor16x8x16",
  "TacticValue": "0xdfa020ef435ef810",
  "StreamId": 0,
  "Metadata": "[ONNX Layer: Conv_108]\u001e[ONNX Layer: Relu_109]"
},{
  "Name": "Conv_110 + Add_111 + Relu_112",
  "LayerType": "CaskGemmConvolution",
  "Inputs": [
  {
    "Name": "627",
    "Location": "Device",
    "Dimensions": [6,512,8,22],
    "Format/Datatype": "Channel major FP16 format where channel % 8 == 0"
  },
  {
    "Name": "623",
    "Location": "Device",
    "Dimensions": [6,2048,8,22],
    "Format/Datatype": "Channel major FP16 format where channel % 8 == 0"
  }],
  "Outputs": [
  {
    "Name": "630",
    "Location": "Device",
    "Dimensions": [6,2048,8,22],
    "Format/Datatype": "Channel major FP16 format where channel % 8 == 0"
  }],
  "ParameterType": "Convolution",
  "Kernel": [1,1],
  "PaddingMode": "kEXPLICIT_ROUND_DOWN",
  "PrePadding": [0,0],
  "PostPadding": [0,0],
  "Stride": [1,1],
  "Dilation": [1,1],
  "OutMaps": 2048,
  "Groups": 1,
  "Weights": {"Type": "Half", "Count": 1048576},
  "Bias": {"Type": "Half", "Count": 2048},
  "HasBias": 1,
  "HasReLU": 1,
  "HasSparseWeights": 0,
  "HasDynamicFilter": 0,
  "HasDynamicBias": 0,
  "HasResidual": 1,
  "ConvXAsActInputIdx": -1,
  "BiasAsActInputIdx": -1,
  "ResAsActInputIdx": -1,
  "Activation": "RELU",
  "TacticName": "sm80_xmma_gemm_f16f16_f16f16_f16_tn_n_tilesize128x128x32_stage4_warpsize2x2x1_tensor16x8x16",
  "TacticValue": "0x0000000000020244",
  "StreamId": 0,
  "Metadata": "[ONNX Layer: Conv_110]\u001e[ONNX Layer: Add_111]\u001e[ONNX Layer: Relu_112]"
},{
  "Name": "Conv_113 + Relu_114",
  "LayerType": "CaskGemmConvolution",
  "Inputs": [
  {
    "Name": "630",
    "Location": "Device",
    "Dimensions": [6,2048,8,22],
    "Format/Datatype": "Channel major FP16 format where channel % 8 == 0"
  }],
  "Outputs": [
  {
    "Name": "632",
    "Location": "Device",
    "Dimensions": [6,512,8,22],
    "Format/Datatype": "Channel major FP16 format where channel % 8 == 0"
  }],
  "ParameterType": "Convolution",
  "Kernel": [1,1],
  "PaddingMode": "kEXPLICIT_ROUND_DOWN",
  "PrePadding": [0,0],
  "PostPadding": [0,0],
  "Stride": [1,1],
  "Dilation": [1,1],
  "OutMaps": 512,
  "Groups": 1,
  "Weights": {"Type": "Half", "Count": 1048576},
  "Bias": {"Type": "Half", "Count": 512},
  "HasBias": 1,
  "HasReLU": 1,
  "HasSparseWeights": 0,
  "HasDynamicFilter": 0,
  "HasDynamicBias": 0,
  "HasResidual": 0,
  "ConvXAsActInputIdx": -1,
  "BiasAsActInputIdx": -1,
  "ResAsActInputIdx": -1,
  "Activation": "RELU",
  "TacticName": "ampere_h16816gemm_128x128_ldg8_relu_stages_32x5_nn_v1",
  "TacticValue": "0x0000000002040112",
  "StreamId": 0,
  "Metadata": "[ONNX Layer: Conv_113]\u001e[ONNX Layer: Relu_114]"
},{
  "Name": "Conv_115 + Relu_116",
  "LayerType": "CaskConvolution",
  "Inputs": [
  {
    "Name": "632",
    "Location": "Device",
    "Dimensions": [6,512,8,22],
    "Format/Datatype": "Channel major FP16 format where channel % 8 == 0"
  }],
  "Outputs": [
  {
    "Name": "634",
    "Location": "Device",
    "Dimensions": [6,512,8,22],
    "Format/Datatype": "Channel major FP16 format where channel % 8 == 0"
  }],
  "ParameterType": "Convolution",
  "Kernel": [3,3],
  "PaddingMode": "kEXPLICIT_ROUND_DOWN",
  "PrePadding": [1,1],
  "PostPadding": [1,1],
  "Stride": [1,1],
  "Dilation": [1,1],
  "OutMaps": 512,
  "Groups": 1,
  "Weights": {"Type": "Half", "Count": 2359296},
  "Bias": {"Type": "Half", "Count": 512},
  "HasBias": 1,
  "HasReLU": 1,
  "HasSparseWeights": 0,
  "HasDynamicFilter": 0,
  "HasDynamicBias": 0,
  "HasResidual": 0,
  "ConvXAsActInputIdx": -1,
  "BiasAsActInputIdx": -1,
  "ResAsActInputIdx": -1,
  "Activation": "RELU",
  "TacticName": "sm80_xmma_fprop_implicit_gemm_f16f16_f16f16_f16_nhwckrsc_nhwc_tilesize128x128x32_stage4_warpsize2x2x1_g1_tensor16x8x16",
  "TacticValue": "0xdfa020ef435ef810",
  "StreamId": 0,
  "Metadata": "[ONNX Layer: Conv_115]\u001e[ONNX Layer: Relu_116]"
},{
  "Name": "Conv_117 + Add_118 + Relu_119",
  "LayerType": "CaskGemmConvolution",
  "Inputs": [
  {
    "Name": "634",
    "Location": "Device",
    "Dimensions": [6,512,8,22],
    "Format/Datatype": "Channel major FP16 format where channel % 8 == 0"
  },
  {
    "Name": "630",
    "Location": "Device",
    "Dimensions": [6,2048,8,22],
    "Format/Datatype": "Channel major FP16 format where channel % 8 == 0"
  }],
  "Outputs": [
  {
    "Name": "637",
    "Location": "Device",
    "Dimensions": [6,2048,8,22],
    "Format/Datatype": "Channel major FP16 format where channel % 8 == 0"
  }],
  "ParameterType": "Convolution",
  "Kernel": [1,1],
  "PaddingMode": "kEXPLICIT_ROUND_DOWN",
  "PrePadding": [0,0],
  "PostPadding": [0,0],
  "Stride": [1,1],
  "Dilation": [1,1],
  "OutMaps": 2048,
  "Groups": 1,
  "Weights": {"Type": "Half", "Count": 1048576},
  "Bias": {"Type": "Half", "Count": 2048},
  "HasBias": 1,
  "HasReLU": 1,
  "HasSparseWeights": 0,
  "HasDynamicFilter": 0,
  "HasDynamicBias": 0,
  "HasResidual": 1,
  "ConvXAsActInputIdx": -1,
  "BiasAsActInputIdx": -1,
  "ResAsActInputIdx": -1,
  "Activation": "RELU",
  "TacticName": "sm80_xmma_gemm_f16f16_f16f16_f16_tn_n_tilesize128x128x32_stage4_warpsize2x2x1_tensor16x8x16",
  "TacticValue": "0x0000000000020244",
  "StreamId": 0,
  "Metadata": "[ONNX Layer: Conv_117]\u001e[ONNX Layer: Add_118]\u001e[ONNX Layer: Relu_119]"
},{
  "Name": "Resize_126",
  "LayerType": "Resize",
  "Inputs": [
  {
    "Name": "637",
    "Location": "Device",
    "Dimensions": [6,2048,8,22],
    "Format/Datatype": "Channel major FP16 format where channel % 8 == 0"
  }],
  "Outputs": [
  {
    "Name": "648",
    "Location": "Device",
    "Dimensions": [6,2048,16,44],
    "Format/Datatype": "Channel major FP16 format where channel % 8 == 0"
  }],
  "ParameterType": "Resize",
  "InterpolationMode": "LINEAR",
  "ResizeScales": [0, 0, 0, 0, 0, 0, 0, 0],
  "ExcludeOutside": 0,
  "CubicCoeff": -0.75,
  "CoordTransform": "kHALF_PIXEL",
  "ResizeSelector": "kUPPER",
  "NNRounding": "kFLOOR",
  "TacticValue": "0x0000000000000007",
  "StreamId": 0,
  "Metadata": "[ONNX Layer: Resize_126]"
},{
  "Name": "615 copy",
  "LayerType": "Reformat",
  "Inputs": [
  {
    "Name": "615",
    "Location": "Device",
    "Dimensions": [6,1024,16,44],
    "Format/Datatype": "Channel major FP16 format where channel % 8 == 0"
  }],
  "Outputs": [
  {
    "Name": "649",
    "Location": "Device",
    "Dimensions": [6,1024,16,44],
    "Format/Datatype": "Channel major FP32 format where channel % 4 == 0"
  }],
  "ParameterType": "Reformat",
  "Origin": "CONCAT",
  "TacticValue": "0x00000000000003ea",
  "StreamId": 0,
  "Metadata": "[ONNX Layer: Concat_127]"
},{
  "Name": "648 copy",
  "LayerType": "Reformat",
  "Inputs": [
  {
    "Name": "648",
    "Location": "Device",
    "Dimensions": [6,2048,16,44],
    "Format/Datatype": "Channel major FP16 format where channel % 8 == 0"
  }],
  "Outputs": [
  {
    "Name": "649",
    "Location": "Device",
    "Dimensions": [6,2048,16,44],
    "Format/Datatype": "Channel major FP32 format where channel % 4 == 0"
  }],
  "ParameterType": "Reformat",
  "Origin": "CONCAT",
  "TacticValue": "0x00000000000003ea",
  "StreamId": 0,
  "Metadata": "[ONNX Layer: Concat_127]"
},{
  "Name": "Conv_128 + Relu_129",
  "LayerType": "CaskConvolution",
  "Inputs": [
  {
    "Name": "649",
    "Location": "Device",
    "Dimensions": [6,3072,16,44],
    "Format/Datatype": "Channel major FP32 format where channel % 4 == 0"
  }],
  "Outputs": [
  {
    "Name": "651",
    "Location": "Device",
    "Dimensions": [6,256,16,44],
    "Format/Datatype": "Row major linear FP32"
  }],
  "ParameterType": "Convolution",
  "Kernel": [1,1],
  "PaddingMode": "kEXPLICIT_ROUND_DOWN",
  "PrePadding": [0,0],
  "PostPadding": [0,0],
  "Stride": [1,1],
  "Dilation": [1,1],
  "OutMaps": 256,
  "Groups": 1,
  "Weights": {"Type": "Float", "Count": 786432},
  "Bias": {"Type": "Float", "Count": 256},
  "HasBias": 1,
  "HasReLU": 1,
  "HasSparseWeights": 0,
  "HasDynamicFilter": 0,
  "HasDynamicBias": 0,
  "HasResidual": 0,
  "ConvXAsActInputIdx": -1,
  "BiasAsActInputIdx": -1,
  "ResAsActInputIdx": -1,
  "Activation": "RELU",
  "TacticName": "sm80_xmma_fprop_implicit_gemm_indexed_f32f32_tf32f32_f32_nhwckrsc_nchw_tilesize128x256x32_stage3_warpsize2x4x1_g1_tensor16x8x8",
  "TacticValue": "0xcd6c525a3239bae9",
  "StreamId": 0,
  "Metadata": "[ONNX Layer: Conv_128]\u001e[ONNX Layer: Relu_129]"
},{
  "Name": "Reformatting CopyNode for Input Tensor 0 to Conv_130 + Relu_131",
  "LayerType": "Reformat",
  "Inputs": [
  {
    "Name": "651",
    "Location": "Device",
    "Dimensions": [6,256,16,44],
    "Format/Datatype": "Row major linear FP32"
  }],
  "Outputs": [
  {
    "Name": "Reformatted Input Tensor 0 to Conv_130 + Relu_131",
    "Location": "Device",
    "Dimensions": [6,256,16,44],
    "Format/Datatype": "Channel major FP16 format where channel % 8 == 0"
  }],
  "ParameterType": "Reformat",
  "Origin": "REFORMAT",
  "TacticValue": "0x00000000000003ea",
  "StreamId": 0,
  "Metadata": ""
},{
  "Name": "Conv_130 + Relu_131",
  "LayerType": "CaskConvolution",
  "Inputs": [
  {
    "Name": "Reformatted Input Tensor 0 to Conv_130 + Relu_131",
    "Location": "Device",
    "Dimensions": [6,256,16,44],
    "Format/Datatype": "Channel major FP16 format where channel % 8 == 0"
  }],
  "Outputs": [
  {
    "Name": "653",
    "Location": "Device",
    "Dimensions": [6,256,16,44],
    "Format/Datatype": "Channel major FP16 format where channel % 8 == 0"
  }],
  "ParameterType": "Convolution",
  "Kernel": [3,3],
  "PaddingMode": "kEXPLICIT_ROUND_DOWN",
  "PrePadding": [1,1],
  "PostPadding": [1,1],
  "Stride": [1,1],
  "Dilation": [1,1],
  "OutMaps": 256,
  "Groups": 1,
  "Weights": {"Type": "Half", "Count": 589824},
  "Bias": {"Type": "Half", "Count": 256},
  "HasBias": 1,
  "HasReLU": 1,
  "HasSparseWeights": 0,
  "HasDynamicFilter": 0,
  "HasDynamicBias": 0,
  "HasResidual": 0,
  "ConvXAsActInputIdx": -1,
  "BiasAsActInputIdx": -1,
  "ResAsActInputIdx": -1,
  "Activation": "RELU",
  "TacticName": "sm80_xmma_fprop_implicit_gemm_f16f16_f16f16_f16_nhwckrsc_nhwc_tilesize128x128x32_stage4_warpsize2x2x1_g1_tensor16x8x16",
  "TacticValue": "0xdfa020ef435ef810",
  "StreamId": 0,
  "Metadata": "[ONNX Layer: Conv_130]\u001e[ONNX Layer: Relu_131]"
},{
  "Name": "Resize_138",
  "LayerType": "Resize",
  "Inputs": [
  {
    "Name": "653",
    "Location": "Device",
    "Dimensions": [6,256,16,44],
    "Format/Datatype": "Channel major FP16 format where channel % 8 == 0"
  }],
  "Outputs": [
  {
    "Name": "664",
    "Location": "Device",
    "Dimensions": [6,256,32,88],
    "Format/Datatype": "Channel major FP16 format where channel % 8 == 0"
  }],
  "ParameterType": "Resize",
  "InterpolationMode": "LINEAR",
  "ResizeScales": [0, 0, 0, 0, 0, 0, 0, 0],
  "ExcludeOutside": 0,
  "CubicCoeff": -0.75,
  "CoordTransform": "kHALF_PIXEL",
  "ResizeSelector": "kUPPER",
  "NNRounding": "kFLOOR",
  "TacticValue": "0x0000000000000007",
  "StreamId": 0,
  "Metadata": "[ONNX Layer: Resize_138]"
},{
  "Name": "572 copy",
  "LayerType": "Reformat",
  "Inputs": [
  {
    "Name": "572",
    "Location": "Device",
    "Dimensions": [6,512,32,88],
    "Format/Datatype": "Channel major FP16 format where channel % 8 == 0"
  }],
  "Outputs": [
  {
    "Name": "665",
    "Location": "Device",
    "Dimensions": [6,512,32,88],
    "Format/Datatype": "Channel major FP16 format where channel % 8 == 0"
  }],
  "ParameterType": "Reformat",
  "Origin": "CONCAT",
  "TacticValue": "0x00000000000003ea",
  "StreamId": 0,
  "Metadata": "[ONNX Layer: Concat_139]"
},{
  "Name": "664 copy",
  "LayerType": "Reformat",
  "Inputs": [
  {
    "Name": "664",
    "Location": "Device",
    "Dimensions": [6,256,32,88],
    "Format/Datatype": "Channel major FP16 format where channel % 8 == 0"
  }],
  "Outputs": [
  {
    "Name": "665",
    "Location": "Device",
    "Dimensions": [6,256,32,88],
    "Format/Datatype": "Channel major FP16 format where channel % 8 == 0"
  }],
  "ParameterType": "Reformat",
  "Origin": "CONCAT",
  "TacticValue": "0x00000000000003ea",
  "StreamId": 0,
  "Metadata": "[ONNX Layer: Concat_139]"
},{
  "Name": "Conv_140 + Relu_141",
  "LayerType": "CaskGemmConvolution",
  "Inputs": [
  {
    "Name": "665",
    "Location": "Device",
    "Dimensions": [6,768,32,88],
    "Format/Datatype": "Channel major FP16 format where channel % 8 == 0"
  }],
  "Outputs": [
  {
    "Name": "667",
    "Location": "Device",
    "Dimensions": [6,256,32,88],
    "Format/Datatype": "Channel major FP16 format where channel % 8 == 0"
  }],
  "ParameterType": "Convolution",
  "Kernel": [1,1],
  "PaddingMode": "kEXPLICIT_ROUND_DOWN",
  "PrePadding": [0,0],
  "PostPadding": [0,0],
  "Stride": [1,1],
  "Dilation": [1,1],
  "OutMaps": 256,
  "Groups": 1,
  "Weights": {"Type": "Half", "Count": 196608},
  "Bias": {"Type": "Half", "Count": 256},
  "HasBias": 1,
  "HasReLU": 1,
  "HasSparseWeights": 0,
  "HasDynamicFilter": 0,
  "HasDynamicBias": 0,
  "HasResidual": 0,
  "ConvXAsActInputIdx": -1,
  "BiasAsActInputIdx": -1,
  "ResAsActInputIdx": -1,
  "Activation": "RELU",
  "TacticName": "ampere_h16816gemm_128x128_ldg8_relu_stages_32x5_nn_v1",
  "TacticValue": "0x0000000000020112",
  "StreamId": 0,
  "Metadata": "[ONNX Layer: Conv_140]\u001e[ONNX Layer: Relu_141]"
},{
  "Name": "Conv_142 + Relu_143",
  "LayerType": "CaskConvolution",
  "Inputs": [
  {
    "Name": "667",
    "Location": "Device",
    "Dimensions": [6,256,32,88],
    "Format/Datatype": "Channel major FP16 format where channel % 8 == 0"
  }],
  "Outputs": [
  {
    "Name": "708",
    "Location": "Device",
    "Dimensions": [6,256,32,88],
    "Format/Datatype": "Channel major FP16 format where channel % 8 == 0"
  }],
  "ParameterType": "Convolution",
  "Kernel": [3,3],
  "PaddingMode": "kEXPLICIT_ROUND_DOWN",
  "PrePadding": [1,1],
  "PostPadding": [1,1],
  "Stride": [1,1],
  "Dilation": [1,1],
  "OutMaps": 256,
  "Groups": 1,
  "Weights": {"Type": "Half", "Count": 589824},
  "Bias": {"Type": "Half", "Count": 256},
  "HasBias": 1,
  "HasReLU": 1,
  "HasSparseWeights": 0,
  "HasDynamicFilter": 0,
  "HasDynamicBias": 0,
  "HasResidual": 0,
  "ConvXAsActInputIdx": -1,
  "BiasAsActInputIdx": -1,
  "ResAsActInputIdx": -1,
  "Activation": "RELU",
  "TacticName": "sm80_xmma_fprop_implicit_gemm_f16f16_f16f16_f16_nhwckrsc_nhwc_tilesize128x128x32_stage4_warpsize2x2x1_g1_tensor16x8x16_t1r3s3",
  "TacticValue": "0x60c3421152ef8e10",
  "StreamId": 0,
  "Metadata": "[ONNX Layer: Conv_142]\u001e[ONNX Layer: Relu_143]"
},{
  "Name": "Conv_155 + Relu_156",
  "LayerType": "CaskConvolution",
  "Inputs": [
  {
    "Name": "708",
    "Location": "Device",
    "Dimensions": [6,320,32,88],
    "Format/Datatype": "Channel major FP16 format where channel % 8 == 0"
  }],
  "Outputs": [
  {
    "Name": "710",
    "Location": "Device",
    "Dimensions": [6,256,32,88],
    "Format/Datatype": "Channel major FP16 format where channel % 8 == 0"
  }],
  "ParameterType": "Convolution",
  "Kernel": [3,3],
  "PaddingMode": "kEXPLICIT_ROUND_DOWN",
  "PrePadding": [1,1],
  "PostPadding": [1,1],
  "Stride": [1,1],
  "Dilation": [1,1],
  "OutMaps": 256,
  "Groups": 1,
  "Weights": {"Type": "Half", "Count": 737280},
  "Bias": {"Type": "Half", "Count": 256},
  "HasBias": 1,
  "HasReLU": 1,
  "HasSparseWeights": 0,
  "HasDynamicFilter": 0,
  "HasDynamicBias": 0,
  "HasResidual": 0,
  "ConvXAsActInputIdx": -1,
  "BiasAsActInputIdx": -1,
  "ResAsActInputIdx": -1,
  "Activation": "RELU",
  "TacticName": "sm80_xmma_fprop_implicit_gemm_f16f16_f16f16_f16_nhwckrsc_nhwc_tilesize128x128x32_stage4_warpsize2x2x1_g1_tensor16x8x16_t1r3s3_aACCESS",
  "TacticValue": "0x245530c34bd6090f",
  "StreamId": 0,
  "Metadata": "[ONNX Layer: Conv_155]\u001e[ONNX Layer: Relu_156]"
},{
  "Name": "Conv_157 + Relu_158",
  "LayerType": "CaskConvolution",
  "Inputs": [
  {
    "Name": "710",
    "Location": "Device",
    "Dimensions": [6,256,32,88],
    "Format/Datatype": "Channel major FP16 format where channel % 8 == 0"
  }],
  "Outputs": [
  {
    "Name": "712",
    "Location": "Device",
    "Dimensions": [6,256,32,88],
    "Format/Datatype": "Channel major FP16 format where channel % 8 == 0"
  }],
  "ParameterType": "Convolution",
  "Kernel": [3,3],
  "PaddingMode": "kEXPLICIT_ROUND_DOWN",
  "PrePadding": [1,1],
  "PostPadding": [1,1],
  "Stride": [1,1],
  "Dilation": [1,1],
  "OutMaps": 256,
  "Groups": 1,
  "Weights": {"Type": "Half", "Count": 589824},
  "Bias": {"Type": "Half", "Count": 256},
  "HasBias": 1,
  "HasReLU": 1,
  "HasSparseWeights": 0,
  "HasDynamicFilter": 0,
  "HasDynamicBias": 0,
  "HasResidual": 0,
  "ConvXAsActInputIdx": -1,
  "BiasAsActInputIdx": -1,
  "ResAsActInputIdx": -1,
  "Activation": "RELU",
  "TacticName": "sm80_xmma_fprop_implicit_gemm_f16f16_f16f16_f16_nhwckrsc_nhwc_tilesize128x128x32_stage4_warpsize2x2x1_g1_tensor16x8x16_t1r3s3",
  "TacticValue": "0x60c3421152ef8e10",
  "StreamId": 0,
  "Metadata": "[ONNX Layer: Conv_157]\u001e[ONNX Layer: Relu_158]"
},{
  "Name": "Conv_159",
  "LayerType": "CaskGemmConvolution",
  "Inputs": [
  {
    "Name": "712",
    "Location": "Device",
    "Dimensions": [6,256,32,88],
    "Format/Datatype": "Channel major FP16 format where channel % 8 == 0"
  }],
  "Outputs": [
  {
    "Name": "713",
    "Location": "Device",
    "Dimensions": [6,198,32,88],
    "Format/Datatype": "Channel major FP16 format where channel % 8 == 0"
  }],
  "ParameterType": "Convolution",
  "Kernel": [1,1],
  "PaddingMode": "kEXPLICIT_ROUND_DOWN",
  "PrePadding": [0,0],
  "PostPadding": [0,0],
  "Stride": [1,1],
  "Dilation": [1,1],
  "OutMaps": 198,
  "Groups": 1,
  "Weights": {"Type": "Half", "Count": 50688},
  "Bias": {"Type": "Half", "Count": 198},
  "HasBias": 1,
  "HasReLU": 0,
  "HasSparseWeights": 0,
  "HasDynamicFilter": 0,
  "HasDynamicBias": 0,
  "HasResidual": 0,
  "ConvXAsActInputIdx": -1,
  "BiasAsActInputIdx": -1,
  "ResAsActInputIdx": -1,
  "Activation": "NONE",
  "TacticName": "sm80_xmma_gemm_f16f16_f16f16_f16_tn_n_tilesize128x128x32_stage4_warpsize2x2x1_tensor16x8x16",
  "TacticValue": "0x0000000000020244",
  "StreamId": 0,
  "Metadata": "[ONNX Layer: Conv_159]"
},{
  "Name": "Slice_164",
  "LayerType": "Reformat",
  "Inputs": [
  {
    "Name": "713",
    "Location": "Device",
    "Dimensions": [6,118,32,88],
    "Format/Datatype": "Channel major FP16 format where channel % 8 == 0"
  }],
  "Outputs": [
  {
    "Name": "718",
    "Location": "Device",
    "Dimensions": [6,118,32,88],
    "Format/Datatype": "Row major linear FP16 format"
  }],
  "ParameterType": "Reformat",
  "Origin": "SLICE",
  "TacticValue": "0x00000000000003ea",
  "StreamId": 0,
  "Metadata": "[ONNX Layer: Slice_164]"
},{
  "Name": "Softmax_165",
  "LayerType": "CaskSoftMaxV2",
  "Inputs": [
  {
    "Name": "718",
    "Location": "Device",
    "Dimensions": [6,118,32,88],
    "Format/Datatype": "Row major linear FP16 format"
  }],
  "Outputs": [
  {
    "Name": "camera_depth_weights",
    "Location": "Device",
    "Dimensions": [6,118,32,88],
    "Format/Datatype": "Row major linear FP16 format"
  }],
  "ParameterType": "SoftMax",
  "Axes": 2,
  "HasLog": 0,
  "TacticValue": "0xd49ab000cdcd2713",
  "StreamId": 0,
  "Metadata": "[ONNX Layer: Softmax_165]"
},{
  "Name": "Reformatting CopyNode for Input Tensor 0 to Transpose_171",
  "LayerType": "Reformat",
  "Inputs": [
  {
    "Name": "713",
    "Location": "Device",
    "Dimensions": [6,80,32,88],
    "Format/Datatype": "Channel major FP16 format where channel % 8 == 0"
  }],
  "Outputs": [
  {
    "Name": "Reformatted Input Tensor 0 to Transpose_171",
    "Location": "Device",
    "Dimensions": [6,80,32,88],
    "Format/Datatype": "Row major linear FP16 format"
  }],
  "ParameterType": "Reformat",
  "Origin": "REFORMAT",
  "TacticValue": "0x00000000000003ea",
  "StreamId": 0,
  "Metadata": ""
},{
  "Name": "Transpose_171",
  "LayerType": "Shuffle",
  "Inputs": [
  {
    "Name": "Reformatted Input Tensor 0 to Transpose_171",
    "Location": "Device",
    "Dimensions": [6,80,32,88],
    "Format/Datatype": "Row major linear FP16 format"
  }],
  "Outputs": [
  {
    "Name": "camera_feature",
    "Location": "Device",
    "Dimensions": [6,32,88,80],
    "Format/Datatype": "Row major linear FP16 format"
  }],
  "ParameterType": "Shuffle",
  "FirstTranspose": [0,2,3,1],
  "Reshape": "nbDims=-1",
  "SecondTranspose": [0,1,2,3],
  "ZeroIsPlaceholder": 1,
  "TacticValue": "0x0000000000000001",
  "StreamId": 0,
  "Metadata": "[ONNX Layer: Transpose_171]"
}],
"Bindings": ["img"
,"depth"
,"camera_feature"
,"camera_depth_weights"
]}
