{"Layers": [{
  "Name": "camera copy",
  "LayerType": "Reformat",
  "Inputs": [
  {
    "Name": "camera",
    "Location": "Device",
    "Dimensions": [1,80,180,180],
    "Format/Datatype": "Row major linear FP16 format"
  }],
  "Outputs": [
  {
    "Name": "504",
    "Location": "Device",
    "Dimensions": [1,80,180,180],
    "Format/Datatype": "Channel major FP16 format where channel % 8 == 0"
  }],
  "ParameterType": "Reformat",
  "Origin": "CONCAT",
  "TacticValue": "0x00000000000003ea",
  "StreamId": 0,
  "Metadata": "[ONNX Layer: Concat_0]"
},{
  "Name": "lidar copy",
  "LayerType": "Reformat",
  "Inputs": [
  {
    "Name": "lidar",
    "Location": "Device",
    "Dimensions": [1,256,180,180],
    "Format/Datatype": "Row major linear FP16 format"
  }],
  "Outputs": [
  {
    "Name": "504",
    "Location": "Device",
    "Dimensions": [1,256,180,180],
    "Format/Datatype": "Channel major FP16 format where channel % 8 == 0"
  }],
  "ParameterType": "Reformat",
  "Origin": "CONCAT",
  "TacticValue": "0x00000000000003ea",
  "StreamId": 0,
  "Metadata": "[ONNX Layer: Concat_0]"
},{
  "Name": "Conv_1 + Relu_2",
  "LayerType": "CaskConvolution",
  "Inputs": [
  {
    "Name": "504",
    "Location": "Device",
    "Dimensions": [1,336,180,180],
    "Format/Datatype": "Channel major FP16 format where channel % 8 == 0"
  }],
  "Outputs": [
  {
    "Name": "506",
    "Location": "Device",
    "Dimensions": [1,256,180,180],
    "Format/Datatype": "Channel major FP16 format where channel % 8 == 0"
  }],
  "ParameterType": "Convolution",
  "Kernel": [3,3],
  "PaddingMode": "kEXPLICIT_ROUND_DOWN",
  "PrePadding": [1,1],
  "PostPadding": [1,1],
  "Stride": [1,1],
  "Dilation": [1,1],
  "OutMaps": 256,
  "Groups": 1,
  "Weights": {"Type": "Half", "Count": 774144},
  "Bias": {"Type": "Half", "Count": 256},
  "HasBias": 1,
  "HasReLU": 1,
  "HasSparseWeights": 0,
  "HasDynamicFilter": 0,
  "HasDynamicBias": 0,
  "HasResidual": 0,
  "ConvXAsActInputIdx": -1,
  "BiasAsActInputIdx": -1,
  "ResAsActInputIdx": -1,
  "Activation": "RELU",
  "TacticName": "sm80_xmma_fprop_implicit_gemm_f16f16_f16f16_f16_nhwckrsc_nhwc_tilesize256x128x32_stage3_warpsize4x2x1_g1_tensor16x8x16",
  "TacticValue": "0x60da8c7151d91e47",
  "StreamId": 0,
  "Metadata": "[ONNX Layer: Conv_1]\u001e[ONNX Layer: Relu_2]"
},{
  "Name": "Conv_3 + Relu_4",
  "LayerType": "CaskConvolution",
  "Inputs": [
  {
    "Name": "506",
    "Location": "Device",
    "Dimensions": [1,256,180,180],
    "Format/Datatype": "Channel major FP16 format where channel % 8 == 0"
  }],
  "Outputs": [
  {
    "Name": "508",
    "Location": "Device",
    "Dimensions": [1,128,180,180],
    "Format/Datatype": "Channel major FP16 format where channel % 8 == 0"
  }],
  "ParameterType": "Convolution",
  "Kernel": [3,3],
  "PaddingMode": "kEXPLICIT_ROUND_DOWN",
  "PrePadding": [1,1],
  "PostPadding": [1,1],
  "Stride": [1,1],
  "Dilation": [1,1],
  "OutMaps": 128,
  "Groups": 1,
  "Weights": {"Type": "Half", "Count": 294912},
  "Bias": {"Type": "Half", "Count": 128},
  "HasBias": 1,
  "HasReLU": 1,
  "HasSparseWeights": 0,
  "HasDynamicFilter": 0,
  "HasDynamicBias": 0,
  "HasResidual": 0,
  "ConvXAsActInputIdx": -1,
  "BiasAsActInputIdx": -1,
  "ResAsActInputIdx": -1,
  "Activation": "RELU",
  "TacticName": "sm80_xmma_fprop_implicit_gemm_f16f16_f16f16_f16_nhwckrsc_nhwc_tilesize128x128x32_stage4_warpsize2x2x1_g1_tensor16x8x16_t1r3s3_aACCESS",
  "TacticValue": "0x245530c34bd6090f",
  "StreamId": 0,
  "Metadata": "[ONNX Layer: Conv_3]\u001e[ONNX Layer: Relu_4]"
},{
  "Name": "Conv_5 + Relu_6",
  "LayerType": "CaskConvolution",
  "Inputs": [
  {
    "Name": "508",
    "Location": "Device",
    "Dimensions": [1,128,180,180],
    "Format/Datatype": "Channel major FP16 format where channel % 8 == 0"
  }],
  "Outputs": [
  {
    "Name": "510",
    "Location": "Device",
    "Dimensions": [1,128,180,180],
    "Format/Datatype": "Channel major FP16 format where channel % 8 == 0"
  }],
  "ParameterType": "Convolution",
  "Kernel": [3,3],
  "PaddingMode": "kEXPLICIT_ROUND_DOWN",
  "PrePadding": [1,1],
  "PostPadding": [1,1],
  "Stride": [1,1],
  "Dilation": [1,1],
  "OutMaps": 128,
  "Groups": 1,
  "Weights": {"Type": "Half", "Count": 147456},
  "Bias": {"Type": "Half", "Count": 128},
  "HasBias": 1,
  "HasReLU": 1,
  "HasSparseWeights": 0,
  "HasDynamicFilter": 0,
  "HasDynamicBias": 0,
  "HasResidual": 0,
  "ConvXAsActInputIdx": -1,
  "BiasAsActInputIdx": -1,
  "ResAsActInputIdx": -1,
  "Activation": "RELU",
  "TacticName": "sm80_xmma_fprop_implicit_gemm_f16f16_f16f16_f16_nhwckrsc_nhwc_tilesize128x128x32_stage4_warpsize2x2x1_g1_tensor16x8x16",
  "TacticValue": "0xdfa020ef435ef810",
  "StreamId": 0,
  "Metadata": "[ONNX Layer: Conv_5]\u001e[ONNX Layer: Relu_6]"
},{
  "Name": "Conv_7 + Relu_8",
  "LayerType": "CaskConvolution",
  "Inputs": [
  {
    "Name": "510",
    "Location": "Device",
    "Dimensions": [1,128,180,180],
    "Format/Datatype": "Channel major FP16 format where channel % 8 == 0"
  }],
  "Outputs": [
  {
    "Name": "512",
    "Location": "Device",
    "Dimensions": [1,128,180,180],
    "Format/Datatype": "Channel major FP16 format where channel % 8 == 0"
  }],
  "ParameterType": "Convolution",
  "Kernel": [3,3],
  "PaddingMode": "kEXPLICIT_ROUND_DOWN",
  "PrePadding": [1,1],
  "PostPadding": [1,1],
  "Stride": [1,1],
  "Dilation": [1,1],
  "OutMaps": 128,
  "Groups": 1,
  "Weights": {"Type": "Half", "Count": 147456},
  "Bias": {"Type": "Half", "Count": 128},
  "HasBias": 1,
  "HasReLU": 1,
  "HasSparseWeights": 0,
  "HasDynamicFilter": 0,
  "HasDynamicBias": 0,
  "HasResidual": 0,
  "ConvXAsActInputIdx": -1,
  "BiasAsActInputIdx": -1,
  "ResAsActInputIdx": -1,
  "Activation": "RELU",
  "TacticName": "sm80_xmma_fprop_implicit_gemm_f16f16_f16f16_f16_nhwckrsc_nhwc_tilesize128x128x32_stage4_warpsize2x2x1_g1_tensor16x8x16",
  "TacticValue": "0xdfa020ef435ef810",
  "StreamId": 0,
  "Metadata": "[ONNX Layer: Conv_7]\u001e[ONNX Layer: Relu_8]"
},{
  "Name": "Conv_9 + Relu_10",
  "LayerType": "CaskConvolution",
  "Inputs": [
  {
    "Name": "512",
    "Location": "Device",
    "Dimensions": [1,128,180,180],
    "Format/Datatype": "Channel major FP16 format where channel % 8 == 0"
  }],
  "Outputs": [
  {
    "Name": "514",
    "Location": "Device",
    "Dimensions": [1,128,180,180],
    "Format/Datatype": "Channel major FP16 format where channel % 8 == 0"
  }],
  "ParameterType": "Convolution",
  "Kernel": [3,3],
  "PaddingMode": "kEXPLICIT_ROUND_DOWN",
  "PrePadding": [1,1],
  "PostPadding": [1,1],
  "Stride": [1,1],
  "Dilation": [1,1],
  "OutMaps": 128,
  "Groups": 1,
  "Weights": {"Type": "Half", "Count": 147456},
  "Bias": {"Type": "Half", "Count": 128},
  "HasBias": 1,
  "HasReLU": 1,
  "HasSparseWeights": 0,
  "HasDynamicFilter": 0,
  "HasDynamicBias": 0,
  "HasResidual": 0,
  "ConvXAsActInputIdx": -1,
  "BiasAsActInputIdx": -1,
  "ResAsActInputIdx": -1,
  "Activation": "RELU",
  "TacticName": "sm80_xmma_fprop_implicit_gemm_f16f16_f16f16_f16_nhwckrsc_nhwc_tilesize128x128x32_stage4_warpsize2x2x1_g1_tensor16x8x16",
  "TacticValue": "0xdfa020ef435ef810",
  "StreamId": 0,
  "Metadata": "[ONNX Layer: Conv_9]\u001e[ONNX Layer: Relu_10]"
},{
  "Name": "Conv_11 + Relu_12",
  "LayerType": "CaskConvolution",
  "Inputs": [
  {
    "Name": "514",
    "Location": "Device",
    "Dimensions": [1,128,180,180],
    "Format/Datatype": "Channel major FP16 format where channel % 8 == 0"
  }],
  "Outputs": [
  {
    "Name": "516",
    "Location": "Device",
    "Dimensions": [1,128,180,180],
    "Format/Datatype": "Channel major FP16 format where channel % 8 == 0"
  }],
  "ParameterType": "Convolution",
  "Kernel": [3,3],
  "PaddingMode": "kEXPLICIT_ROUND_DOWN",
  "PrePadding": [1,1],
  "PostPadding": [1,1],
  "Stride": [1,1],
  "Dilation": [1,1],
  "OutMaps": 128,
  "Groups": 1,
  "Weights": {"Type": "Half", "Count": 147456},
  "Bias": {"Type": "Half", "Count": 128},
  "HasBias": 1,
  "HasReLU": 1,
  "HasSparseWeights": 0,
  "HasDynamicFilter": 0,
  "HasDynamicBias": 0,
  "HasResidual": 0,
  "ConvXAsActInputIdx": -1,
  "BiasAsActInputIdx": -1,
  "ResAsActInputIdx": -1,
  "Activation": "RELU",
  "TacticName": "sm80_xmma_fprop_implicit_gemm_f16f16_f16f16_f16_nhwckrsc_nhwc_tilesize128x128x32_stage4_warpsize2x2x1_g1_tensor16x8x16",
  "TacticValue": "0xdfa020ef435ef810",
  "StreamId": 0,
  "Metadata": "[ONNX Layer: Conv_11]\u001e[ONNX Layer: Relu_12]"
},{
  "Name": "Conv_13 + Relu_14",
  "LayerType": "CaskConvolution",
  "Inputs": [
  {
    "Name": "516",
    "Location": "Device",
    "Dimensions": [1,128,180,180],
    "Format/Datatype": "Channel major FP16 format where channel % 8 == 0"
  }],
  "Outputs": [
  {
    "Name": "Reformatted Output Tensor 0 to Conv_13 + Relu_14",
    "Location": "Device",
    "Dimensions": [1,128,180,180],
    "Format/Datatype": "Channel major FP16 format where channel % 8 == 0"
  }],
  "ParameterType": "Convolution",
  "Kernel": [3,3],
  "PaddingMode": "kEXPLICIT_ROUND_DOWN",
  "PrePadding": [1,1],
  "PostPadding": [1,1],
  "Stride": [1,1],
  "Dilation": [1,1],
  "OutMaps": 128,
  "Groups": 1,
  "Weights": {"Type": "Half", "Count": 147456},
  "Bias": {"Type": "Half", "Count": 128},
  "HasBias": 1,
  "HasReLU": 1,
  "HasSparseWeights": 0,
  "HasDynamicFilter": 0,
  "HasDynamicBias": 0,
  "HasResidual": 0,
  "ConvXAsActInputIdx": -1,
  "BiasAsActInputIdx": -1,
  "ResAsActInputIdx": -1,
  "Activation": "RELU",
  "TacticName": "sm80_xmma_fprop_implicit_gemm_f16f16_f16f16_f16_nhwckrsc_nhwc_tilesize128x128x32_stage4_warpsize2x2x1_g1_tensor16x8x16",
  "TacticValue": "0xdfa020ef435ef810",
  "StreamId": 0,
  "Metadata": "[ONNX Layer: Conv_13]\u001e[ONNX Layer: Relu_14]"
},{
  "Name": "Reformatting CopyNode for Output Tensor 0 to Conv_13 + Relu_14",
  "LayerType": "NoOp",
  "Inputs": [
  {
    "Name": "Reformatted Output Tensor 0 to Conv_13 + Relu_14",
    "Location": "Device",
    "Dimensions": [1,128,180,180],
    "Format/Datatype": "Channel major FP16 format where channel % 8 == 0"
  }],
  "Outputs": [
  {
    "Name": "518",
    "Location": "Device",
    "Dimensions": [1,128,180,180],
    "Format/Datatype": "Channel major FP16 format where channel % 4 == 0"
  }],
  "TacticValue": "0x0000000000000000",
  "StreamId": 0,
  "Metadata": ""
},{
  "Name": "Reformatting CopyNode for Input Tensor 0 to Conv_15 + Relu_16",
  "LayerType": "NoOp",
  "Inputs": [
  {
    "Name": "518",
    "Location": "Device",
    "Dimensions": [1,128,180,180],
    "Format/Datatype": "Channel major FP16 format where channel % 4 == 0"
  }],
  "Outputs": [
  {
    "Name": "Reformatted Input Tensor 0 to Conv_15 + Relu_16",
    "Location": "Device",
    "Dimensions": [1,128,180,180],
    "Format/Datatype": "Channel major FP16 format where channel % 8 == 0"
  }],
  "TacticValue": "0x0000000000000000",
  "StreamId": 0,
  "Metadata": ""
},{
  "Name": "Conv_15 + Relu_16",
  "LayerType": "CaskConvolution",
  "Inputs": [
  {
    "Name": "Reformatted Input Tensor 0 to Conv_15 + Relu_16",
    "Location": "Device",
    "Dimensions": [1,128,180,180],
    "Format/Datatype": "Channel major FP16 format where channel % 8 == 0"
  }],
  "Outputs": [
  {
    "Name": "520",
    "Location": "Device",
    "Dimensions": [1,256,90,90],
    "Format/Datatype": "Channel major FP16 format where channel % 8 == 0"
  }],
  "ParameterType": "Convolution",
  "Kernel": [3,3],
  "PaddingMode": "kEXPLICIT_ROUND_DOWN",
  "PrePadding": [1,1],
  "PostPadding": [1,1],
  "Stride": [2,2],
  "Dilation": [1,1],
  "OutMaps": 256,
  "Groups": 1,
  "Weights": {"Type": "Half", "Count": 294912},
  "Bias": {"Type": "Half", "Count": 256},
  "HasBias": 1,
  "HasReLU": 1,
  "HasSparseWeights": 0,
  "HasDynamicFilter": 0,
  "HasDynamicBias": 0,
  "HasResidual": 0,
  "ConvXAsActInputIdx": -1,
  "BiasAsActInputIdx": -1,
  "ResAsActInputIdx": -1,
  "Activation": "RELU",
  "TacticName": "sm80_xmma_fprop_implicit_gemm_f16f16_f16f16_f16_nhwckrsc_nhwc_tilesize128x128x32_stage4_warpsize2x2x1_g1_tensor16x8x16",
  "TacticValue": "0xdfa020ef435ef810",
  "StreamId": 0,
  "Metadata": "[ONNX Layer: Conv_15]\u001e[ONNX Layer: Relu_16]"
},{
  "Name": "Conv_17 + Relu_18",
  "LayerType": "CaskConvolution",
  "Inputs": [
  {
    "Name": "520",
    "Location": "Device",
    "Dimensions": [1,256,90,90],
    "Format/Datatype": "Channel major FP16 format where channel % 8 == 0"
  }],
  "Outputs": [
  {
    "Name": "522",
    "Location": "Device",
    "Dimensions": [1,256,90,90],
    "Format/Datatype": "Channel major FP16 format where channel % 8 == 0"
  }],
  "ParameterType": "Convolution",
  "Kernel": [3,3],
  "PaddingMode": "kEXPLICIT_ROUND_DOWN",
  "PrePadding": [1,1],
  "PostPadding": [1,1],
  "Stride": [1,1],
  "Dilation": [1,1],
  "OutMaps": 256,
  "Groups": 1,
  "Weights": {"Type": "Half", "Count": 589824},
  "Bias": {"Type": "Half", "Count": 256},
  "HasBias": 1,
  "HasReLU": 1,
  "HasSparseWeights": 0,
  "HasDynamicFilter": 0,
  "HasDynamicBias": 0,
  "HasResidual": 0,
  "ConvXAsActInputIdx": -1,
  "BiasAsActInputIdx": -1,
  "ResAsActInputIdx": -1,
  "Activation": "RELU",
  "TacticName": "sm80_xmma_fprop_implicit_gemm_f16f16_f16f16_f16_nhwckrsc_nhwc_tilesize128x128x32_stage4_warpsize2x2x1_g1_tensor16x8x16",
  "TacticValue": "0xdfa020ef435ef810",
  "StreamId": 0,
  "Metadata": "[ONNX Layer: Conv_17]\u001e[ONNX Layer: Relu_18]"
},{
  "Name": "Conv_19 + Relu_20",
  "LayerType": "CaskConvolution",
  "Inputs": [
  {
    "Name": "522",
    "Location": "Device",
    "Dimensions": [1,256,90,90],
    "Format/Datatype": "Channel major FP16 format where channel % 8 == 0"
  }],
  "Outputs": [
  {
    "Name": "524",
    "Location": "Device",
    "Dimensions": [1,256,90,90],
    "Format/Datatype": "Channel major FP16 format where channel % 8 == 0"
  }],
  "ParameterType": "Convolution",
  "Kernel": [3,3],
  "PaddingMode": "kEXPLICIT_ROUND_DOWN",
  "PrePadding": [1,1],
  "PostPadding": [1,1],
  "Stride": [1,1],
  "Dilation": [1,1],
  "OutMaps": 256,
  "Groups": 1,
  "Weights": {"Type": "Half", "Count": 589824},
  "Bias": {"Type": "Half", "Count": 256},
  "HasBias": 1,
  "HasReLU": 1,
  "HasSparseWeights": 0,
  "HasDynamicFilter": 0,
  "HasDynamicBias": 0,
  "HasResidual": 0,
  "ConvXAsActInputIdx": -1,
  "BiasAsActInputIdx": -1,
  "ResAsActInputIdx": -1,
  "Activation": "RELU",
  "TacticName": "sm80_xmma_fprop_implicit_gemm_f16f16_f16f16_f16_nhwckrsc_nhwc_tilesize128x128x32_stage4_warpsize2x2x1_g1_tensor16x8x16",
  "TacticValue": "0xdfa020ef435ef810",
  "StreamId": 0,
  "Metadata": "[ONNX Layer: Conv_19]\u001e[ONNX Layer: Relu_20]"
},{
  "Name": "Conv_21 + Relu_22",
  "LayerType": "CaskConvolution",
  "Inputs": [
  {
    "Name": "524",
    "Location": "Device",
    "Dimensions": [1,256,90,90],
    "Format/Datatype": "Channel major FP16 format where channel % 8 == 0"
  }],
  "Outputs": [
  {
    "Name": "526",
    "Location": "Device",
    "Dimensions": [1,256,90,90],
    "Format/Datatype": "Channel major FP16 format where channel % 8 == 0"
  }],
  "ParameterType": "Convolution",
  "Kernel": [3,3],
  "PaddingMode": "kEXPLICIT_ROUND_DOWN",
  "PrePadding": [1,1],
  "PostPadding": [1,1],
  "Stride": [1,1],
  "Dilation": [1,1],
  "OutMaps": 256,
  "Groups": 1,
  "Weights": {"Type": "Half", "Count": 589824},
  "Bias": {"Type": "Half", "Count": 256},
  "HasBias": 1,
  "HasReLU": 1,
  "HasSparseWeights": 0,
  "HasDynamicFilter": 0,
  "HasDynamicBias": 0,
  "HasResidual": 0,
  "ConvXAsActInputIdx": -1,
  "BiasAsActInputIdx": -1,
  "ResAsActInputIdx": -1,
  "Activation": "RELU",
  "TacticName": "sm80_xmma_fprop_implicit_gemm_f16f16_f16f16_f16_nhwckrsc_nhwc_tilesize128x128x32_stage4_warpsize2x2x1_g1_tensor16x8x16",
  "TacticValue": "0xdfa020ef435ef810",
  "StreamId": 0,
  "Metadata": "[ONNX Layer: Conv_21]\u001e[ONNX Layer: Relu_22]"
},{
  "Name": "Conv_23 + Relu_24",
  "LayerType": "CaskConvolution",
  "Inputs": [
  {
    "Name": "526",
    "Location": "Device",
    "Dimensions": [1,256,90,90],
    "Format/Datatype": "Channel major FP16 format where channel % 8 == 0"
  }],
  "Outputs": [
  {
    "Name": "528",
    "Location": "Device",
    "Dimensions": [1,256,90,90],
    "Format/Datatype": "Channel major FP16 format where channel % 8 == 0"
  }],
  "ParameterType": "Convolution",
  "Kernel": [3,3],
  "PaddingMode": "kEXPLICIT_ROUND_DOWN",
  "PrePadding": [1,1],
  "PostPadding": [1,1],
  "Stride": [1,1],
  "Dilation": [1,1],
  "OutMaps": 256,
  "Groups": 1,
  "Weights": {"Type": "Half", "Count": 589824},
  "Bias": {"Type": "Half", "Count": 256},
  "HasBias": 1,
  "HasReLU": 1,
  "HasSparseWeights": 0,
  "HasDynamicFilter": 0,
  "HasDynamicBias": 0,
  "HasResidual": 0,
  "ConvXAsActInputIdx": -1,
  "BiasAsActInputIdx": -1,
  "ResAsActInputIdx": -1,
  "Activation": "RELU",
  "TacticName": "sm80_xmma_fprop_implicit_gemm_f16f16_f16f16_f16_nhwckrsc_nhwc_tilesize128x128x32_stage4_warpsize2x2x1_g1_tensor16x8x16",
  "TacticValue": "0xdfa020ef435ef810",
  "StreamId": 0,
  "Metadata": "[ONNX Layer: Conv_23]\u001e[ONNX Layer: Relu_24]"
},{
  "Name": "Conv_25 + Relu_26",
  "LayerType": "CaskConvolution",
  "Inputs": [
  {
    "Name": "528",
    "Location": "Device",
    "Dimensions": [1,256,90,90],
    "Format/Datatype": "Channel major FP16 format where channel % 8 == 0"
  }],
  "Outputs": [
  {
    "Name": "530",
    "Location": "Device",
    "Dimensions": [1,256,90,90],
    "Format/Datatype": "Channel major FP16 format where channel % 8 == 0"
  }],
  "ParameterType": "Convolution",
  "Kernel": [3,3],
  "PaddingMode": "kEXPLICIT_ROUND_DOWN",
  "PrePadding": [1,1],
  "PostPadding": [1,1],
  "Stride": [1,1],
  "Dilation": [1,1],
  "OutMaps": 256,
  "Groups": 1,
  "Weights": {"Type": "Half", "Count": 589824},
  "Bias": {"Type": "Half", "Count": 256},
  "HasBias": 1,
  "HasReLU": 1,
  "HasSparseWeights": 0,
  "HasDynamicFilter": 0,
  "HasDynamicBias": 0,
  "HasResidual": 0,
  "ConvXAsActInputIdx": -1,
  "BiasAsActInputIdx": -1,
  "ResAsActInputIdx": -1,
  "Activation": "RELU",
  "TacticName": "sm80_xmma_fprop_implicit_gemm_f16f16_f16f16_f16_nhwckrsc_nhwc_tilesize128x128x32_stage4_warpsize2x2x1_g1_tensor16x8x16",
  "TacticValue": "0xdfa020ef435ef810",
  "StreamId": 0,
  "Metadata": "[ONNX Layer: Conv_25]\u001e[ONNX Layer: Relu_26]"
},{
  "Name": "Reformatting CopyNode for Input Tensor 0 to Conv_27 + Relu_28",
  "LayerType": "Reformat",
  "Inputs": [
  {
    "Name": "518",
    "Location": "Device",
    "Dimensions": [1,128,180,180],
    "Format/Datatype": "Channel major FP16 format where channel % 4 == 0"
  }],
  "Outputs": [
  {
    "Name": "Reformatted Input Tensor 0 to Conv_27 + Relu_28",
    "Location": "Device",
    "Dimensions": [1,128,180,180],
    "Format/Datatype": "Channel major FP32 format where channel % 4 == 0"
  }],
  "ParameterType": "Reformat",
  "Origin": "REFORMAT",
  "TacticValue": "0x00000000000003ea",
  "StreamId": 0,
  "Metadata": ""
},{
  "Name": "Conv_27 + Relu_28",
  "LayerType": "CaskConvolution",
  "Inputs": [
  {
    "Name": "Reformatted Input Tensor 0 to Conv_27 + Relu_28",
    "Location": "Device",
    "Dimensions": [1,128,180,180],
    "Format/Datatype": "Channel major FP32 format where channel % 4 == 0"
  }],
  "Outputs": [
  {
    "Name": "Reformatted Output Tensor 0 to Conv_27 + Relu_28",
    "Location": "Device",
    "Dimensions": [1,256,180,180],
    "Format/Datatype": "Row major linear FP32"
  }],
  "ParameterType": "Convolution",
  "Kernel": [1,1],
  "PaddingMode": "kEXPLICIT_ROUND_DOWN",
  "PrePadding": [0,0],
  "PostPadding": [0,0],
  "Stride": [1,1],
  "Dilation": [1,1],
  "OutMaps": 256,
  "Groups": 1,
  "Weights": {"Type": "Float", "Count": 32768},
  "Bias": {"Type": "Float", "Count": 256},
  "HasBias": 1,
  "HasReLU": 1,
  "HasSparseWeights": 0,
  "HasDynamicFilter": 0,
  "HasDynamicBias": 0,
  "HasResidual": 0,
  "ConvXAsActInputIdx": -1,
  "BiasAsActInputIdx": -1,
  "ResAsActInputIdx": -1,
  "Activation": "RELU",
  "TacticName": "sm80_xmma_fprop_implicit_gemm_indexed_f32f32_tf32f32_f32_nhwckrsc_nchw_tilesize128x256x32_stage3_warpsize2x4x1_g1_tensor16x8x8",
  "TacticValue": "0xcd6c525a3239bae9",
  "StreamId": 0,
  "Metadata": "[ONNX Layer: Conv_27]\u001e[ONNX Layer: Relu_28]"
},{
  "Name": "Reformatting CopyNode for Output Tensor 0 to Conv_27 + Relu_28",
  "LayerType": "Reformat",
  "Inputs": [
  {
    "Name": "Reformatted Output Tensor 0 to Conv_27 + Relu_28",
    "Location": "Device",
    "Dimensions": [1,256,180,180],
    "Format/Datatype": "Row major linear FP32"
  }],
  "Outputs": [
  {
    "Name": "middle",
    "Location": "Device",
    "Dimensions": [1,256,180,180],
    "Format/Datatype": "Row major linear FP16 format"
  }],
  "ParameterType": "Reformat",
  "Origin": "REFORMAT",
  "TacticValue": "0x0000000000000000",
  "StreamId": 0,
  "Metadata": ""
},{
  "Name": "ConvTranspose_29 + BatchNormalization_30 + Relu_31",
  "LayerType": "CaskDeconvolutionV2",
  "Inputs": [
  {
    "Name": "530",
    "Location": "Device",
    "Dimensions": [1,256,90,90],
    "Format/Datatype": "Channel major FP16 format where channel % 8 == 0"
  }],
  "Outputs": [
  {
    "Name": "Reformatted Output Tensor 0 to ConvTranspose_29 + BatchNormalization_30 + Relu_31",
    "Location": "Device",
    "Dimensions": [1,256,180,180],
    "Format/Datatype": "Channel major FP16 format where channel % 8 == 0"
  }],
  "ParameterType": "Convolution",
  "Kernel": [2,2],
  "PaddingMode": "kEXPLICIT_ROUND_DOWN",
  "PrePadding": [0,0],
  "PostPadding": [0,0],
  "Stride": [2,2],
  "Dilation": [1,1],
  "OutMaps": 256,
  "Groups": 1,
  "Weights": {"Type": "Half", "Count": 262144},
  "Bias": {"Type": "Half", "Count": 256},
  "HasBias": 1,
  "HasReLU": 1,
  "HasSparseWeights": 0,
  "HasDynamicFilter": 0,
  "HasDynamicBias": 0,
  "HasResidual": 0,
  "ConvXAsActInputIdx": -1,
  "BiasAsActInputIdx": -1,
  "ResAsActInputIdx": -1,
  "Activation": "RELU",
  "TacticName": "sm80_xmma_deconv_implicit_gemm_indexed_f16f16_f16f16_f16_nhwckrsc_nhwc_tilesize256x128x32_stage3_warpsize4x2x1_g1_tensor16x8x16_strided",
  "TacticValue": "0xdec24e75875e331b",
  "StreamId": 0,
  "Metadata": "[ONNX Layer: ConvTranspose_29]\u001e[ONNX Layer: BatchNormalization_30]\u001e[ONNX Layer: Relu_31]"
},{
  "Name": "Reformatting CopyNode for Output Tensor 0 to ConvTranspose_29 + BatchNormalization_30 + Relu_31",
  "LayerType": "Reformat",
  "Inputs": [
  {
    "Name": "Reformatted Output Tensor 0 to ConvTranspose_29 + BatchNormalization_30 + Relu_31",
    "Location": "Device",
    "Dimensions": [1,256,180,180],
    "Format/Datatype": "Channel major FP16 format where channel % 8 == 0"
  }],
  "Outputs": [
  {
    "Name": "middle",
    "Location": "Device",
    "Dimensions": [1,256,180,180],
    "Format/Datatype": "Row major linear FP16 format"
  }],
  "ParameterType": "Reformat",
  "Origin": "REFORMAT",
  "TacticValue": "0x00000000000003ea",
  "StreamId": 0,
  "Metadata": ""
}],
"Bindings": ["camera"
,"lidar"
,"middle"
]}
