{"Layers": [{
  "Name": "Reformatting CopyNode for Input Tensor 0 to Conv_0",
  "LayerType": "Reformat",
  "Inputs": [
  {
    "Name": "middle",
    "Location": "Device",
    "Dimensions": [1,512,180,180],
    "Format/Datatype": "Row major linear FP16 format"
  }],
  "Outputs": [
  {
    "Name": "Reformatted Input Tensor 0 to Conv_0",
    "Location": "Device",
    "Dimensions": [1,512,180,180],
    "Format/Datatype": "Channel major FP16 format where channel % 8 == 0"
  }],
  "ParameterType": "Reformat",
  "Origin": "REFORMAT",
  "TacticValue": "0x00000000000003ea",
  "StreamId": 0,
  "Metadata": ""
},{
  "Name": "Conv_0",
  "LayerType": "CaskConvolution",
  "Inputs": [
  {
    "Name": "Reformatted Input Tensor 0 to Conv_0",
    "Location": "Device",
    "Dimensions": [1,512,180,180],
    "Format/Datatype": "Channel major FP16 format where channel % 8 == 0"
  }],
  "Outputs": [
  {
    "Name": "510",
    "Location": "Device",
    "Dimensions": [1,128,180,180],
    "Format/Datatype": "Channel major FP16 format where channel % 8 == 0"
  }],
  "ParameterType": "Convolution",
  "Kernel": [3,3],
  "PaddingMode": "kEXPLICIT_ROUND_DOWN",
  "PrePadding": [1,1],
  "PostPadding": [1,1],
  "Stride": [1,1],
  "Dilation": [1,1],
  "OutMaps": 128,
  "Groups": 1,
  "Weights": {"Type": "Half", "Count": 589824},
  "Bias": {"Type": "Half", "Count": 128},
  "HasBias": 1,
  "HasReLU": 0,
  "HasSparseWeights": 0,
  "HasDynamicFilter": 0,
  "HasDynamicBias": 0,
  "HasResidual": 0,
  "ConvXAsActInputIdx": -1,
  "BiasAsActInputIdx": -1,
  "ResAsActInputIdx": -1,
  "Activation": "NONE",
  "TacticName": "sm80_xmma_fprop_implicit_gemm_f16f16_f16f16_f16_nhwckrsc_nhwc_tilesize256x128x64_stage3_warpsize4x2x1_g1_tensor16x8x16",
  "TacticValue": "0x5a55274960724ba8",
  "StreamId": 0,
  "Metadata": "[ONNX Layer: Conv_0]"
},{
  "Name": "Conv_4 + Relu_5",
  "LayerType": "CaskConvolution",
  "Inputs": [
  {
    "Name": "510",
    "Location": "Device",
    "Dimensions": [1,128,180,180],
    "Format/Datatype": "Channel major FP16 format where channel % 8 == 0"
  }],
  "Outputs": [
  {
    "Name": "515",
    "Location": "Device",
    "Dimensions": [1,128,180,180],
    "Format/Datatype": "Channel major FP16 format where channel % 8 == 0"
  }],
  "ParameterType": "Convolution",
  "Kernel": [3,3],
  "PaddingMode": "kEXPLICIT_ROUND_DOWN",
  "PrePadding": [1,1],
  "PostPadding": [1,1],
  "Stride": [1,1],
  "Dilation": [1,1],
  "OutMaps": 128,
  "Groups": 1,
  "Weights": {"Type": "Half", "Count": 147456},
  "Bias": {"Type": "Half", "Count": 128},
  "HasBias": 1,
  "HasReLU": 1,
  "HasSparseWeights": 0,
  "HasDynamicFilter": 0,
  "HasDynamicBias": 0,
  "HasResidual": 0,
  "ConvXAsActInputIdx": -1,
  "BiasAsActInputIdx": -1,
  "ResAsActInputIdx": -1,
  "Activation": "RELU",
  "TacticName": "sm80_xmma_fprop_implicit_gemm_f16f16_f16f16_f16_nhwckrsc_nhwc_tilesize128x128x32_stage4_warpsize2x2x1_g1_tensor16x8x16_t1r3s3_aACCESS",
  "TacticValue": "0x245530c34bd6090f",
  "StreamId": 0,
  "Metadata": "[ONNX Layer: Conv_4]\u001e[ONNX Layer: Relu_5]"
},{
  "Name": "Conv_6 + PWN(Sigmoid_7)",
  "LayerType": "CaskConvolution",
  "Inputs": [
  {
    "Name": "515",
    "Location": "Device",
    "Dimensions": [1,128,180,180],
    "Format/Datatype": "Channel major FP16 format where channel % 8 == 0"
  }],
  "Outputs": [
  {
    "Name": "Reformatted Output Tensor 0 to Conv_6 + PWN(Sigmoid_7)",
    "Location": "Device",
    "Dimensions": [1,10,180,180],
    "Format/Datatype": "Channel major FP16 format where channel % 8 == 0"
  }],
  "ParameterType": "Convolution",
  "Kernel": [3,3],
  "PaddingMode": "kEXPLICIT_ROUND_DOWN",
  "PrePadding": [1,1],
  "PostPadding": [1,1],
  "Stride": [1,1],
  "Dilation": [1,1],
  "OutMaps": 10,
  "Groups": 1,
  "Weights": {"Type": "Half", "Count": 11520},
  "Bias": {"Type": "Half", "Count": 10},
  "HasBias": 1,
  "HasReLU": 0,
  "HasSparseWeights": 0,
  "HasDynamicFilter": 0,
  "HasDynamicBias": 0,
  "HasResidual": 0,
  "ConvXAsActInputIdx": -1,
  "BiasAsActInputIdx": -1,
  "ResAsActInputIdx": -1,
  "Activation": "GENERIC",
  "ParameterSubType": "PointWiseExpression",
  "NbPointWiseExpressionInputArgs": 1,
  "PointWiseExpressionInputArgs": ["arg0"],
  "NbPointWiseExpressionOutputVars": 1,
  "PointWiseExpressionOutputVars": ["var3"],
  "NbPointWiseExpressionParams": 0,
  "PointWiseExpressionParams": [],
  "NbPointWiseExpressionLiterals": 5,
  "PointWiseExpressionLiterals": ["0.000000e+00f", "1.000000e+00f", "0.000000e+00f", "0.000000e+00f", "5.000000e-01f"],
  "NbPointWiseExpressionOperations": 4,
  "PointWiseExpressionOperations": ["auto const var0 = pwgen::iMul(literal4, arg0);", "auto const var1 = pwgen::iTanh(var0);", "auto const var2 = pwgen::iMul(var1, literal4);", "auto const var3 = pwgen::iPlus(var2, literal4);"],
  "TacticName": "sm80_xmma_fprop_implicit_gemm_f16f16_f16f16_f16_nhwckrsc_nhwc_tilesize128x32x32_stage4_warpsize4x1x1_g1_tensor16x8x16_linkable",
  "TacticValue": "0x92650053128339fe",
  "StreamId": 0,
  "Metadata": "[ONNX Layer: Conv_6]\u001e[ONNX Layer: Sigmoid_7]"
},{
  "Name": "Reformatting CopyNode for Output Tensor 0 to Conv_6 + PWN(Sigmoid_7)",
  "LayerType": "Reformat",
  "Inputs": [
  {
    "Name": "Reformatted Output Tensor 0 to Conv_6 + PWN(Sigmoid_7)",
    "Location": "Device",
    "Dimensions": [1,10,180,180],
    "Format/Datatype": "Channel major FP16 format where channel % 8 == 0"
  }],
  "Outputs": [
  {
    "Name": "517",
    "Location": "Device",
    "Dimensions": [1,10,180,180],
    "Format/Datatype": "Row major linear FP32"
  }],
  "ParameterType": "Reformat",
  "Origin": "REFORMAT",
  "TacticValue": "0x0000000000000000",
  "StreamId": 0,
  "Metadata": ""
},{
  "Name": "MaxPool_10",
  "LayerType": "CaskPooling",
  "Inputs": [
  {
    "Name": "517",
    "Location": "Device",
    "Dimensions": [1,10,180,180],
    "Format/Datatype": "Row major linear FP32"
  }],
  "Outputs": [
  {
    "Name": "520",
    "Location": "Device",
    "Dimensions": [1,10,178,178],
    "Format/Datatype": "Row major linear FP32"
  }],
  "ParameterType": "Pooling",
  "PoolingType": "MAX",
  "WindowSize": [3,3],
  "PaddingMode": "kEXPLICIT_ROUND_DOWN",
  "PrePadding": [0,0],
  "PostPadding": [0,0],
  "Stride": [1,1],
  "BlendFactor": 0,
  "AverageCountExcludesPadding": 1,
  "TacticName": "sm50_xmma_pooling_tiled_FP32NCHW_kMAX_custom_tP4_tQ32_tRS3_tUV1",
  "TacticValue": "0x6193a97a80c05353",
  "StreamId": 0,
  "Metadata": "[ONNX Layer: MaxPool_10]"
},{
  "Name": "Reformatting CopyNode for Input Tensor 0 to {ForeignNode[736 + ONNXTRT_Broadcast_482...ONNXTRT_unsqueezeTensor]}",
  "LayerType": "Reformat",
  "Inputs": [
  {
    "Name": "520",
    "Location": "Device",
    "Dimensions": [1,10,178,178],
    "Format/Datatype": "Row major linear FP32"
  }],
  "Outputs": [
  {
    "Name": "Reformatted Input Tensor 0 to {ForeignNode[736 + ONNXTRT_Broadcast_482...ONNXTRT_unsqueezeTensor]}",
    "Location": "Device",
    "Dimensions": [1,10,178,178],
    "Format/Datatype": "Row major linear FP16 format"
  }],
  "ParameterType": "Reformat",
  "Origin": "REFORMAT",
  "TacticValue": "0x00000000000003e8",
  "StreamId": 0,
  "Metadata": ""
},{
  "Name": "Reformatting CopyNode for Input Tensor 1 to {ForeignNode[736 + ONNXTRT_Broadcast_482...ONNXTRT_unsqueezeTensor]}",
  "LayerType": "Reformat",
  "Inputs": [
  {
    "Name": "517",
    "Location": "Device",
    "Dimensions": [1,10,180,180],
    "Format/Datatype": "Row major linear FP32"
  }],
  "Outputs": [
  {
    "Name": "Reformatted Input Tensor 1 to {ForeignNode[736 + ONNXTRT_Broadcast_482...ONNXTRT_unsqueezeTensor]}",
    "Location": "Device",
    "Dimensions": [1,10,180,180],
    "Format/Datatype": "Row major linear FP16 format"
  }],
  "ParameterType": "Reformat",
  "Origin": "REFORMAT",
  "TacticValue": "0x00000000000003e8",
  "StreamId": 0,
  "Metadata": ""
},{
  "Name": "dummy_shape_call__mye32528_0_myl8_0",
  "LayerType": "shape_call",
  "Inputs": [],
  "Outputs": [],
  "TacticName": "",
  "StreamId": 0,
  "Metadata": ""
},{
  "Name": "__myl_Rep_myl8_1",
  "LayerType": "kgen",
  "Inputs": [],
  "Outputs": [
  {
    "Name": "717'.1",
    "Dimensions": [1,10,180,180],
    "Format/Datatype": "Half"
  }],
  "TacticName": "__myl_Rep_0x024ba44434359555506916c5d14963a3",
  "StreamId": 0,
  "Metadata": ""
},{
  "Name": "__myl_IotCasResRepResIotCasResRepResIotCasSliResRepResResRepResConCasResConCasConCas_myl8_2",
  "LayerType": "kgen",
  "Inputs": [],
  "Outputs": [
  {
    "Name": "__myln_k_arg__bb1_6",
    "Dimensions": [1,1,2],
    "Format/Datatype": "Int32"
  },
  {
    "Name": "__myln_k_arg__bb1_5",
    "Dimensions": [1,1,2],
    "Format/Datatype": "Int32"
  },
  {
    "Name": "__myln_k_arg__bb1_4",
    "Dimensions": [1,10,178,178,4],
    "Format/Datatype": "Int32"
  }],
  "TacticName": "__myl_IotCasResRepResIotCasResRepResIotCasSliResRepResResRepResConCasResConCasConCas_0xb035be21114408b86a36b220b7f53e5d",
  "StreamId": 0,
  "Metadata": "[ONNX Layer: Range_29]\u001f[ONNX Layer: Unsqueeze_141]\u001f[ONNX Layer: Range_36]\u001f[ONNX Layer: Range_43]\u001f[ONNX Layer: Slice_48]\u001f[ONNX Layer: Reshape_66]\u001f[ONNX Layer: Expand_86]\u001f[ONNX Layer: Unsqueeze_88]\u001f[ONNX Layer: Expand_77]\u001f[ONNX Layer: Unsqueeze_79]\u001f[ONNX Layer: Concat_107]\u001f[ONNX Layer: Unsqueeze_106]\u001f[ONNX Layer: Expand_104]\u001f[ONNX Layer: Unsqueeze_97]\u001f[ONNX Layer: Expand_95]\u001f[ONNX Layer: Reshape_64]\u001f[ONNX Layer: Reshape_62]\u001f[ONNX Layer: Concat_195]\u001f[ONNX Layer: Concat_151]"
},{
  "Name": "__myl_Sca_myl8_3",
  "LayerType": "kgen",
  "Inputs": [
  {
    "Name": "717'.1",
    "Dimensions": [1,10,180,180],
    "Format/Datatype": "Half"
  },
  {
    "Name": "__myln_k_arg__bb1_4",
    "Dimensions": [1,10,178,178,4],
    "Format/Datatype": "Int32"
  },
  {
    "Name": "Reformatted Input Tensor 0 to {ForeignNode[736 + ONNXTRT_Broadcast_482...ONNXTRT_unsqueezeTensor]}",
    "Dimensions": [1,10,178,178],
    "Format/Datatype": "Half"
  }],
  "Outputs": [
  {
    "Name": "717'.1",
    "Dimensions": [1,10,180,180],
    "Format/Datatype": "Half"
  }],
  "TacticName": "__myl_Sca_0x80b7eedb1d50c62025b5f731ae3808d8",
  "StreamId": 0,
  "Metadata": "[ONNX Layer: ScatterND_115]"
},{
  "Name": "__myl_Sli_myl8_4",
  "LayerType": "kgen",
  "Inputs": [
  {
    "Name": "Reformatted Input Tensor 1 to {ForeignNode[736 + ONNXTRT_Broadcast_482...ONNXTRT_unsqueezeTensor]}",
    "Dimensions": [1,10,180,180],
    "Format/Datatype": "Half"
  }],
  "Outputs": [
  {
    "Name": "__myln_k_arg__bb1_8",
    "Dimensions": [1,1,180,180],
    "Format/Datatype": "Half"
  }],
  "TacticName": "__myl_Sli_0xffde635fe2b1c6d58477b82d9a3391f3",
  "StreamId": 0,
  "Metadata": "[ONNX Layer: Gather_117]"
},{
  "Name": "__myl_Sca_myl8_5",
  "LayerType": "kgen",
  "Inputs": [
  {
    "Name": "717'.1",
    "Dimensions": [1,10,180,180],
    "Format/Datatype": "Half"
  },
  {
    "Name": "__myln_k_arg__bb1_6",
    "Dimensions": [1,1,2],
    "Format/Datatype": "Int32"
  },
  {
    "Name": "__myln_k_arg__bb1_8",
    "Dimensions": [1,1,180,180],
    "Format/Datatype": "Half"
  }],
  "Outputs": [
  {
    "Name": "717'.1",
    "Dimensions": [1,10,180,180],
    "Format/Datatype": "Half"
  }],
  "TacticName": "__myl_Sca_0x8df4630237f277bb71c2decfc6829579",
  "StreamId": 0,
  "Metadata": "[ONNX Layer: ScatterND_159]"
},{
  "Name": "__myl_Sli_myl8_6",
  "LayerType": "kgen",
  "Inputs": [
  {
    "Name": "Reformatted Input Tensor 1 to {ForeignNode[736 + ONNXTRT_Broadcast_482...ONNXTRT_unsqueezeTensor]}",
    "Dimensions": [1,10,180,180],
    "Format/Datatype": "Half"
  }],
  "Outputs": [
  {
    "Name": "__myln_k_arg__bb1_10",
    "Dimensions": [1,1,180,180],
    "Format/Datatype": "Half"
  }],
  "TacticName": "__myl_Sli_0x838b390931666b9e7f936649775b8f68",
  "StreamId": 0,
  "Metadata": "[ONNX Layer: Gather_161]"
},{
  "Name": "__myl_Sca_myl8_7",
  "LayerType": "kgen",
  "Inputs": [
  {
    "Name": "717'.1",
    "Dimensions": [1,10,180,180],
    "Format/Datatype": "Half"
  },
  {
    "Name": "__myln_k_arg__bb1_5",
    "Dimensions": [1,1,2],
    "Format/Datatype": "Int32"
  },
  {
    "Name": "__myln_k_arg__bb1_10",
    "Dimensions": [1,1,180,180],
    "Format/Datatype": "Half"
  }],
  "Outputs": [
  {
    "Name": "717'.1",
    "Dimensions": [1,10,180,180],
    "Format/Datatype": "Half"
  }],
  "TacticName": "__myl_Sca_0x8e9e2e605c082b334870637701a0d7c7",
  "StreamId": 0,
  "Metadata": "[ONNX Layer: ScatterND_203]"
},{
  "Name": "__myl_EqlCasMul_myl8_8",
  "LayerType": "kgen",
  "Inputs": [
  {
    "Name": "Reformatted Input Tensor 1 to {ForeignNode[736 + ONNXTRT_Broadcast_482...ONNXTRT_unsqueezeTensor]}",
    "Dimensions": [1,10,180,180],
    "Format/Datatype": "Half"
  },
  {
    "Name": "Reformatted Input Tensor 1 to {ForeignNode[736 + ONNXTRT_Broadcast_482...ONNXTRT_unsqueezeTensor]}",
    "Dimensions": [1,10,180,180],
    "Format/Datatype": "Half"
  },
  {
    "Name": "717'.1",
    "Dimensions": [1,10,180,180],
    "Format/Datatype": "Half"
  }],
  "Outputs": [
  {
    "Name": "722",
    "Dimensions": [1,10,180,180],
    "Format/Datatype": "Half"
  }],
  "TacticName": "__myl_EqlCasMul_0xbd104f7deaa478358b2092c8642ed276",
  "StreamId": 0,
  "Metadata": "[ONNX Layer: Equal_204]\u001f[ONNX Layer: Cast_205]\u001f[ONNX Layer: Mul_206]"
},{
  "Name": "__myl_ResTop_myl8_9",
  "LayerType": "kgen",
  "Inputs": [
  {
    "Name": "722",
    "Dimensions": [1,10,32400],
    "Format/Datatype": "Half"
  }],
  "Outputs": [
  {
    "Name": "728'.1",
    "Dimensions": [1,200],
    "Format/Datatype": "Half"
  },
  {
    "Name": "__myln_k_arg__bb1_14",
    "Dimensions": [1,200],
    "Format/Datatype": "Int32"
  }],
  "TacticName": "__myl_ResTop_0x69f9902874da5b01a9051907b9afb7f9",
  "StreamId": 0,
  "Metadata": "[ONNX Layer: Reshape_210]\u001f[ONNX Layer: TopK_211]"
},{
  "Name": "__myl_CasDivMulSubResCasRepResCasGatTraGatResTraRes_myl8_10",
  "LayerType": "kgen",
  "Inputs": [
  {
    "Name": "513_constantHalf",
    "Dimensions": [1,32400,2],
    "Format/Datatype": "Half"
  },
  {
    "Name": "classes_eye_constantHalf",
    "Dimensions": [10,10],
    "Format/Datatype": "Half"
  },
  {
    "Name": "__myln_k_arg__bb1_14",
    "Dimensions": [1,200],
    "Format/Datatype": "Int32"
  }],
  "Outputs": [
  {
    "Name": "(Unnamed Layer* 615) [Shuffle]_output",
    "Dimensions": [1,2,200],
    "Format/Datatype": "Half"
  },
  {
    "Name": "783",
    "Dimensions": [1,200,2],
    "Format/Datatype": "Half"
  },
  {
    "Name": "(Unnamed Layer* 588) [Shuffle]_output",
    "Dimensions": [1,10,200,1],
    "Format/Datatype": "Half"
  },
  {
    "Name": "768",
    "Dimensions": [1,10,200],
    "Format/Datatype": "Half"
  },
  {
    "Name": "738",
    "Dimensions": [1,200],
    "Format/Datatype": "Int64"
  }],
  "TacticName": "__myl_CasDivMulSubResCasRepResCasGatTraGatResTraRes_0xef3cf7c24e87011bb64e273a55192005",
  "StreamId": 0,
  "Metadata": "[ONNX Layer: Div_217]\u001f[ONNX Layer: Sub_220]\u001f[ONNX Layer: Mul_219]\u001f[ONNX Layer: Gather_241]\u001f[ONNX Layer: Unsqueeze_243]\u001e[ONNX Layer: Transpose_244]\u001f[ONNX Layer: Reshape_240]\u001f[ONNX Layer: GatherElements_258]\u001f[ONNX Layer: Transpose_259]\u001f[ONNX Layer: Unsqueeze_248]\u001e[ONNX Layer: Transpose_249]"
},{
  "Name": "790 + ONNXTRT_unsqueezeTensor_531",
  "LayerType": "Constant",
  "Inputs": [],
  "Outputs": [
  {
    "Name": "(Unnamed Layer* 624) [Shuffle]_output",
    "Location": "Device",
    "Dimensions": [1,2,32400,1],
    "Format/Datatype": "Row major linear FP32"
  }],
  "ParameterType": "Constant",
  "weights": {"Type": "Float", "Count": 64800},
  "dimensions": [1,2,32400,1],
  "TacticValue": "0x0000000000000000",
  "StreamId": 0,
  "Metadata": ""
},{
  "Name": "shuffle_between_ONNXTRT_unsqueezeTensor_531_output_and_Conv_265 + BatchNormalization_266 + Relu_267",
  "LayerType": "Shuffle",
  "Inputs": [
  {
    "Name": "(Unnamed Layer* 624) [Shuffle]_output",
    "Location": "Device",
    "Dimensions": [1,2,32400,1],
    "Format/Datatype": "Row major linear FP32"
  }],
  "Outputs": [
  {
    "Name": "shuffle_between_ONNXTRT_unsqueezeTensor_531_output_and_Conv_265 + BatchNormalization_266 + Relu_267_out_region",
    "Location": "Device",
    "Dimensions": [1,2,1,32400],
    "Format/Datatype": "Row major linear FP32"
  }],
  "ParameterType": "Shuffle",
  "FirstTranspose": [0,1,2,3],
  "Reshape": [1,2,1,32400],
  "SecondTranspose": [0,1,2,3],
  "ZeroIsPlaceholder": 0,
  "TacticValue": "0x0000000000000000",
  "StreamId": 0,
  "Metadata": "[ONNX Layer: Conv_265]\u001e[ONNX Layer: BatchNormalization_266]\u001e[ONNX Layer: Relu_267]"
},{
  "Name": "Reformatting CopyNode for Input Tensor 0 to Conv_265 + BatchNormalization_266 + Relu_267",
  "LayerType": "Reformat",
  "Inputs": [
  {
    "Name": "shuffle_between_ONNXTRT_unsqueezeTensor_531_output_and_Conv_265 + BatchNormalization_266 + Relu_267_out_region",
    "Location": "Device",
    "Dimensions": [1,2,1,32400],
    "Format/Datatype": "Row major linear FP32"
  }],
  "Outputs": [
  {
    "Name": "Reformatted Input Tensor 0 to Conv_265 + BatchNormalization_266 + Relu_267",
    "Location": "Device",
    "Dimensions": [1,2,1,32400],
    "Format/Datatype": "Channel major FP16 format where channel % 8 == 0"
  }],
  "ParameterType": "Reformat",
  "Origin": "REFORMAT",
  "TacticValue": "0x0000000000000000",
  "StreamId": 0,
  "Metadata": ""
},{
  "Name": "Conv_265 + BatchNormalization_266 + Relu_267",
  "LayerType": "CaskGemmConvolution",
  "Inputs": [
  {
    "Name": "Reformatted Input Tensor 0 to Conv_265 + BatchNormalization_266 + Relu_267",
    "Location": "Device",
    "Dimensions": [1,2,1,32400],
    "Format/Datatype": "Channel major FP16 format where channel % 8 == 0"
  }],
  "Outputs": [
  {
    "Name": "Conv_265 + BatchNormalization_266 + Relu_267_new_out_region",
    "Location": "Device",
    "Dimensions": [1,128,1,32400],
    "Format/Datatype": "Channel major FP16 format where channel % 8 == 0"
  }],
  "ParameterType": "Convolution",
  "Kernel": [1,1],
  "PaddingMode": "kEXPLICIT_ROUND_DOWN",
  "PrePadding": [0,0],
  "PostPadding": [0,0],
  "Stride": [1,1],
  "Dilation": [1,1],
  "OutMaps": 128,
  "Groups": 1,
  "Weights": {"Type": "Half", "Count": 256},
  "Bias": {"Type": "Half", "Count": 128},
  "HasBias": 1,
  "HasReLU": 1,
  "HasSparseWeights": 0,
  "HasDynamicFilter": 0,
  "HasDynamicBias": 0,
  "HasResidual": 0,
  "ConvXAsActInputIdx": -1,
  "BiasAsActInputIdx": -1,
  "ResAsActInputIdx": -1,
  "Activation": "RELU",
  "TacticName": "sm80_xmma_gemm_f16f16_f16f16_f16_nn_n_tilesize256x64x32_stage3_warpsize4x1x1_tensor16x8x16",
  "TacticValue": "0x0000000000020501",
  "StreamId": 0,
  "Metadata": "[ONNX Layer: Conv_265]\u001e[ONNX Layer: BatchNormalization_266]\u001e[ONNX Layer: Relu_267]"
},{
  "Name": "shuffle_after_Relu_267_out_tensor",
  "LayerType": "NoOp",
  "Inputs": [
  {
    "Name": "Conv_265 + BatchNormalization_266 + Relu_267_new_out_region",
    "Location": "Device",
    "Dimensions": [1,128,1,32400],
    "Format/Datatype": "Channel major FP16 format where channel % 8 == 0"
  }],
  "Outputs": [
  {
    "Name": "Relu_267_out_tensor",
    "Location": "Device",
    "Dimensions": [1,128,32400,1],
    "Format/Datatype": "Channel major FP16 format where channel % 8 == 0"
  }],
  "TacticValue": "0x0000000000000000",
  "StreamId": 0,
  "Metadata": "[ONNX Layer: Conv_265]\u001e[ONNX Layer: BatchNormalization_266]\u001e[ONNX Layer: Relu_267]"
},{
  "Name": "shuffle_between_Relu_267_out_tensor_and_Conv_268",
  "LayerType": "NoOp",
  "Inputs": [
  {
    "Name": "Relu_267_out_tensor",
    "Location": "Device",
    "Dimensions": [1,128,32400,1],
    "Format/Datatype": "Channel major FP16 format where channel % 8 == 0"
  }],
  "Outputs": [
  {
    "Name": "shuffle_between_Relu_267_out_tensor_and_Conv_268_out_region",
    "Location": "Device",
    "Dimensions": [1,128,1,32400],
    "Format/Datatype": "Channel major FP16 format where channel % 8 == 0"
  }],
  "TacticValue": "0x0000000000000000",
  "StreamId": 0,
  "Metadata": "[ONNX Layer: Conv_268]"
},{
  "Name": "Conv_268",
  "LayerType": "CaskConvolution",
  "Inputs": [
  {
    "Name": "shuffle_between_Relu_267_out_tensor_and_Conv_268_out_region",
    "Location": "Device",
    "Dimensions": [1,128,1,32400],
    "Format/Datatype": "Channel major FP16 format where channel % 8 == 0"
  }],
  "Outputs": [
  {
    "Name": "Conv_268_new_out_region",
    "Location": "Device",
    "Dimensions": [1,128,1,32400],
    "Format/Datatype": "Channel major FP16 format where channel % 8 == 0"
  }],
  "ParameterType": "Convolution",
  "Kernel": [1,1],
  "PaddingMode": "kEXPLICIT_ROUND_DOWN",
  "PrePadding": [0,0],
  "PostPadding": [0,0],
  "Stride": [1,1],
  "Dilation": [1,1],
  "OutMaps": 128,
  "Groups": 1,
  "Weights": {"Type": "Half", "Count": 16384},
  "Bias": {"Type": "Half", "Count": 128},
  "HasBias": 1,
  "HasReLU": 0,
  "HasSparseWeights": 0,
  "HasDynamicFilter": 0,
  "HasDynamicBias": 0,
  "HasResidual": 0,
  "ConvXAsActInputIdx": -1,
  "BiasAsActInputIdx": -1,
  "ResAsActInputIdx": -1,
  "Activation": "NONE",
  "TacticName": "sm80_xmma_fprop_implicit_gemm_indexed_f16f16_f16f16_f16_nhwckrsc_nhwc_tilesize128x128x32_stage4_warpsize2x2x1_g1_tensor16x8x16",
  "TacticValue": "0x0e07ff4f4f7c1ac9",
  "StreamId": 0,
  "Metadata": "[ONNX Layer: Conv_268]"
},{
  "Name": "shuffle_after_Conv_268_output",
  "LayerType": "NoOp",
  "Inputs": [
  {
    "Name": "Conv_268_new_out_region",
    "Location": "Device",
    "Dimensions": [1,128,1,32400],
    "Format/Datatype": "Channel major FP16 format where channel % 8 == 0"
  }],
  "Outputs": [
  {
    "Name": "(Unnamed Layer* 632) [Convolution]_output",
    "Location": "Device",
    "Dimensions": [1,128,32400,1],
    "Format/Datatype": "Channel major FP16 format where channel % 8 == 0"
  }],
  "TacticValue": "0x0000000000000000",
  "StreamId": 0,
  "Metadata": "[ONNX Layer: Conv_268]"
},{
  "Name": "Reformatting CopyNode for Input Tensor 0 to shuffle_between_ONNXTRT_unsqueezeTensor_output_and_Conv_245",
  "LayerType": "Reformat",
  "Inputs": [
  {
    "Name": "(Unnamed Layer* 588) [Shuffle]_output",
    "Location": "Device",
    "Dimensions": [1,10,200,1],
    "Format/Datatype": "Row major linear FP16 format"
  }],
  "Outputs": [
  {
    "Name": "Reformatted Input Tensor 0 to shuffle_between_ONNXTRT_unsqueezeTensor_output_and_Conv_245",
    "Location": "Device",
    "Dimensions": [1,10,200,1],
    "Format/Datatype": "Channel major FP16 format where channel % 8 == 0"
  }],
  "ParameterType": "Reformat",
  "Origin": "REFORMAT",
  "TacticValue": "0x0000000000000000",
  "StreamId": 0,
  "Metadata": ""
},{
  "Name": "shuffle_between_ONNXTRT_unsqueezeTensor_output_and_Conv_245",
  "LayerType": "NoOp",
  "Inputs": [
  {
    "Name": "Reformatted Input Tensor 0 to shuffle_between_ONNXTRT_unsqueezeTensor_output_and_Conv_245",
    "Location": "Device",
    "Dimensions": [1,10,200,1],
    "Format/Datatype": "Channel major FP16 format where channel % 8 == 0"
  }],
  "Outputs": [
  {
    "Name": "shuffle_between_ONNXTRT_unsqueezeTensor_output_and_Conv_245_out_region",
    "Location": "Device",
    "Dimensions": [1,10,1,200],
    "Format/Datatype": "Channel major FP16 format where channel % 8 == 0"
  }],
  "TacticValue": "0x0000000000000000",
  "StreamId": 0,
  "Metadata": "[ONNX Layer: Conv_245]"
},{
  "Name": "Conv_245",
  "LayerType": "CaskConvolution",
  "Inputs": [
  {
    "Name": "shuffle_between_ONNXTRT_unsqueezeTensor_output_and_Conv_245_out_region",
    "Location": "Device",
    "Dimensions": [1,10,1,200],
    "Format/Datatype": "Channel major FP16 format where channel % 8 == 0"
  }],
  "Outputs": [
  {
    "Name": "Conv_245_new_out_region",
    "Location": "Device",
    "Dimensions": [1,128,1,200],
    "Format/Datatype": "Channel major FP16 format where channel % 8 == 0"
  }],
  "ParameterType": "Convolution",
  "Kernel": [1,1],
  "PaddingMode": "kEXPLICIT_ROUND_DOWN",
  "PrePadding": [0,0],
  "PostPadding": [0,0],
  "Stride": [1,1],
  "Dilation": [1,1],
  "OutMaps": 128,
  "Groups": 1,
  "Weights": {"Type": "Half", "Count": 1280},
  "Bias": {"Type": "Half", "Count": 128},
  "HasBias": 1,
  "HasReLU": 0,
  "HasSparseWeights": 0,
  "HasDynamicFilter": 0,
  "HasDynamicBias": 0,
  "HasResidual": 0,
  "ConvXAsActInputIdx": -1,
  "BiasAsActInputIdx": -1,
  "ResAsActInputIdx": -1,
  "Activation": "NONE",
  "TacticName": "sm80_xmma_fprop_implicit_gemm_indexed_wo_smem_f16f16_f16f16_f16_nhwckrsc_nhwc_tilesize128x16x32_stage1_warpsize4x1x1_g1_tensor16x8x16_alignc8",
  "TacticValue": "0xfbf5ea2d8a6293cd",
  "StreamId": 0,
  "Metadata": "[ONNX Layer: Conv_245]"
},{
  "Name": "Reformatting CopyNode for Input Tensor 0 to shuffle_after_Conv_245_output",
  "LayerType": "Reformat",
  "Inputs": [
  {
    "Name": "Conv_245_new_out_region",
    "Location": "Device",
    "Dimensions": [1,128,1,200],
    "Format/Datatype": "Channel major FP16 format where channel % 8 == 0"
  }],
  "Outputs": [
  {
    "Name": "Reformatted Input Tensor 0 to shuffle_after_Conv_245_output",
    "Location": "Device",
    "Dimensions": [1,128,1,200],
    "Format/Datatype": "Row major linear FP16 format"
  }],
  "ParameterType": "Reformat",
  "Origin": "REFORMAT",
  "TacticValue": "0x0000000000000000",
  "StreamId": 0,
  "Metadata": ""
},{
  "Name": "shuffle_after_Conv_245_output",
  "LayerType": "NoOp",
  "Inputs": [
  {
    "Name": "Reformatted Input Tensor 0 to shuffle_after_Conv_245_output",
    "Location": "Device",
    "Dimensions": [1,128,1,200],
    "Format/Datatype": "Row major linear FP16 format"
  }],
  "Outputs": [
  {
    "Name": "(Unnamed Layer* 589) [Convolution]_output",
    "Location": "Device",
    "Dimensions": [1,128,200,1],
    "Format/Datatype": "Row major linear FP16 format"
  }],
  "TacticValue": "0x0000000000000000",
  "StreamId": 0,
  "Metadata": "[ONNX Layer: Conv_245]"
},{
  "Name": "Reformatting CopyNode for Input Tensor 0 to shuffle_between_ONNXTRT_unsqueezeTensor_523_output_and_Conv_260 + Relu_261",
  "LayerType": "Reformat",
  "Inputs": [
  {
    "Name": "(Unnamed Layer* 615) [Shuffle]_output",
    "Location": "Device",
    "Dimensions": [1,2,200,1],
    "Format/Datatype": "Row major linear FP16 format"
  }],
  "Outputs": [
  {
    "Name": "Reformatted Input Tensor 0 to shuffle_between_ONNXTRT_unsqueezeTensor_523_output_and_Conv_260 + Relu_261",
    "Location": "Device",
    "Dimensions": [1,2,200,1],
    "Format/Datatype": "Channel major FP16 format where channel % 8 == 0"
  }],
  "ParameterType": "Reformat",
  "Origin": "REFORMAT",
  "TacticValue": "0x0000000000000000",
  "StreamId": 0,
  "Metadata": ""
},{
  "Name": "shuffle_between_ONNXTRT_unsqueezeTensor_523_output_and_Conv_260 + Relu_261",
  "LayerType": "NoOp",
  "Inputs": [
  {
    "Name": "Reformatted Input Tensor 0 to shuffle_between_ONNXTRT_unsqueezeTensor_523_output_and_Conv_260 + Relu_261",
    "Location": "Device",
    "Dimensions": [1,2,200,1],
    "Format/Datatype": "Channel major FP16 format where channel % 8 == 0"
  }],
  "Outputs": [
  {
    "Name": "shuffle_between_ONNXTRT_unsqueezeTensor_523_output_and_Conv_260 + Relu_261_out_region",
    "Location": "Device",
    "Dimensions": [1,2,1,200],
    "Format/Datatype": "Channel major FP16 format where channel % 8 == 0"
  }],
  "TacticValue": "0x0000000000000000",
  "StreamId": 0,
  "Metadata": "[ONNX Layer: Conv_260]\u001e[ONNX Layer: Relu_261]"
},{
  "Name": "Conv_260 + Relu_261",
  "LayerType": "CaskConvolution",
  "Inputs": [
  {
    "Name": "shuffle_between_ONNXTRT_unsqueezeTensor_523_output_and_Conv_260 + Relu_261_out_region",
    "Location": "Device",
    "Dimensions": [1,2,1,200],
    "Format/Datatype": "Channel major FP16 format where channel % 8 == 0"
  }],
  "Outputs": [
  {
    "Name": "Conv_260 + Relu_261_new_out_region",
    "Location": "Device",
    "Dimensions": [1,128,1,200],
    "Format/Datatype": "Channel major FP16 format where channel % 8 == 0"
  }],
  "ParameterType": "Convolution",
  "Kernel": [1,1],
  "PaddingMode": "kEXPLICIT_ROUND_DOWN",
  "PrePadding": [0,0],
  "PostPadding": [0,0],
  "Stride": [1,1],
  "Dilation": [1,1],
  "OutMaps": 128,
  "Groups": 1,
  "Weights": {"Type": "Half", "Count": 256},
  "Bias": {"Type": "Half", "Count": 128},
  "HasBias": 1,
  "HasReLU": 1,
  "HasSparseWeights": 0,
  "HasDynamicFilter": 0,
  "HasDynamicBias": 0,
  "HasResidual": 0,
  "ConvXAsActInputIdx": -1,
  "BiasAsActInputIdx": -1,
  "ResAsActInputIdx": -1,
  "Activation": "RELU",
  "TacticName": "sm80_xmma_fprop_implicit_gemm_indexed_wo_smem_f16f16_f16f16_f16_nhwckrsc_nhwc_tilesize128x16x32_stage1_warpsize4x1x1_g1_tensor16x8x16_alignc8",
  "TacticValue": "0xfbf5ea2d8a6293cd",
  "StreamId": 0,
  "Metadata": "[ONNX Layer: Conv_260]\u001e[ONNX Layer: Relu_261]"
},{
  "Name": "shuffle_after_Relu_261_out_tensor",
  "LayerType": "NoOp",
  "Inputs": [
  {
    "Name": "Conv_260 + Relu_261_new_out_region",
    "Location": "Device",
    "Dimensions": [1,128,1,200],
    "Format/Datatype": "Channel major FP16 format where channel % 8 == 0"
  }],
  "Outputs": [
  {
    "Name": "Relu_261_out_tensor",
    "Location": "Device",
    "Dimensions": [1,128,200,1],
    "Format/Datatype": "Channel major FP16 format where channel % 8 == 0"
  }],
  "TacticValue": "0x0000000000000000",
  "StreamId": 0,
  "Metadata": "[ONNX Layer: Conv_260]\u001e[ONNX Layer: Relu_261]"
},{
  "Name": "shuffle_between_Relu_261_out_tensor_and_Conv_262",
  "LayerType": "NoOp",
  "Inputs": [
  {
    "Name": "Relu_261_out_tensor",
    "Location": "Device",
    "Dimensions": [1,128,200,1],
    "Format/Datatype": "Channel major FP16 format where channel % 8 == 0"
  }],
  "Outputs": [
  {
    "Name": "shuffle_between_Relu_261_out_tensor_and_Conv_262_out_region",
    "Location": "Device",
    "Dimensions": [1,128,1,200],
    "Format/Datatype": "Channel major FP16 format where channel % 8 == 0"
  }],
  "TacticValue": "0x0000000000000000",
  "StreamId": 0,
  "Metadata": "[ONNX Layer: Conv_262]"
},{
  "Name": "Conv_262",
  "LayerType": "CaskConvolution",
  "Inputs": [
  {
    "Name": "shuffle_between_Relu_261_out_tensor_and_Conv_262_out_region",
    "Location": "Device",
    "Dimensions": [1,128,1,200],
    "Format/Datatype": "Channel major FP16 format where channel % 8 == 0"
  }],
  "Outputs": [
  {
    "Name": "Conv_262_new_out_region",
    "Location": "Device",
    "Dimensions": [1,128,1,200],
    "Format/Datatype": "Channel major FP16 format where channel % 8 == 0"
  }],
  "ParameterType": "Convolution",
  "Kernel": [1,1],
  "PaddingMode": "kEXPLICIT_ROUND_DOWN",
  "PrePadding": [0,0],
  "PostPadding": [0,0],
  "Stride": [1,1],
  "Dilation": [1,1],
  "OutMaps": 128,
  "Groups": 1,
  "Weights": {"Type": "Half", "Count": 16384},
  "Bias": {"Type": "Half", "Count": 128},
  "HasBias": 1,
  "HasReLU": 0,
  "HasSparseWeights": 0,
  "HasDynamicFilter": 0,
  "HasDynamicBias": 0,
  "HasResidual": 0,
  "ConvXAsActInputIdx": -1,
  "BiasAsActInputIdx": -1,
  "ResAsActInputIdx": -1,
  "Activation": "NONE",
  "TacticName": "sm80_xmma_fprop_implicit_gemm_f16f16_f16f16_f16_nhwckrsc_nhwc_tilesize64x32x64_stage5_warpsize2x2x1_g1_tensor16x8x16",
  "TacticValue": "0x5820b3dda403c4d0",
  "StreamId": 0,
  "Metadata": "[ONNX Layer: Conv_262]"
},{
  "Name": "Reformatting CopyNode for Input Tensor 0 to shuffle_after_Conv_262_output",
  "LayerType": "Reformat",
  "Inputs": [
  {
    "Name": "Conv_262_new_out_region",
    "Location": "Device",
    "Dimensions": [1,128,1,200],
    "Format/Datatype": "Channel major FP16 format where channel % 8 == 0"
  }],
  "Outputs": [
  {
    "Name": "Reformatted Input Tensor 0 to shuffle_after_Conv_262_output",
    "Location": "Device",
    "Dimensions": [1,128,1,200],
    "Format/Datatype": "Row major linear FP16 format"
  }],
  "ParameterType": "Reformat",
  "Origin": "REFORMAT",
  "TacticValue": "0x0000000000000000",
  "StreamId": 0,
  "Metadata": ""
},{
  "Name": "shuffle_after_Conv_262_output",
  "LayerType": "NoOp",
  "Inputs": [
  {
    "Name": "Reformatted Input Tensor 0 to shuffle_after_Conv_262_output",
    "Location": "Device",
    "Dimensions": [1,128,1,200],
    "Format/Datatype": "Row major linear FP16 format"
  }],
  "Outputs": [
  {
    "Name": "(Unnamed Layer* 620) [Convolution]_output",
    "Location": "Device",
    "Dimensions": [1,128,200,1],
    "Format/Datatype": "Row major linear FP16 format"
  }],
  "TacticValue": "0x0000000000000000",
  "StreamId": 0,
  "Metadata": "[ONNX Layer: Conv_262]"
},{
  "Name": "Reformatting CopyNode for Input Tensor 0 to {ForeignNode[Reshape_2...ONNXTRT_unsqueezeTensor_929]}",
  "LayerType": "Reformat",
  "Inputs": [
  {
    "Name": "510",
    "Location": "Device",
    "Dimensions": [1,128,180,180],
    "Format/Datatype": "Channel major FP16 format where channel % 8 == 0"
  }],
  "Outputs": [
  {
    "Name": "Reformatted Input Tensor 0 to {ForeignNode[Reshape_2...ONNXTRT_unsqueezeTensor_929]}",
    "Location": "Device",
    "Dimensions": [1,128,180,180],
    "Format/Datatype": "Row major linear FP16 format"
  }],
  "ParameterType": "Reformat",
  "Origin": "REFORMAT",
  "TacticValue": "0x0000000000000000",
  "StreamId": 0,
  "Metadata": ""
},{
  "Name": "Reformatting CopyNode for Input Tensor 1 to {ForeignNode[Reshape_2...ONNXTRT_unsqueezeTensor_929]}",
  "LayerType": "Reformat",
  "Inputs": [
  {
    "Name": "(Unnamed Layer* 632) [Convolution]_output",
    "Location": "Device",
    "Dimensions": [1,128,32400,1],
    "Format/Datatype": "Channel major FP16 format where channel % 8 == 0"
  }],
  "Outputs": [
  {
    "Name": "Reformatted Input Tensor 1 to {ForeignNode[Reshape_2...ONNXTRT_unsqueezeTensor_929]}",
    "Location": "Device",
    "Dimensions": [1,128,32400,1],
    "Format/Datatype": "Row major linear FP16 format"
  }],
  "ParameterType": "Reformat",
  "Origin": "REFORMAT",
  "TacticValue": "0x0000000000000000",
  "StreamId": 0,
  "Metadata": ""
},{
  "Name": "dummy_shape_call__mye28873_0_myl32_0",
  "LayerType": "shape_call",
  "Inputs": [],
  "Outputs": [],
  "TacticName": "",
  "StreamId": 0,
  "Metadata": ""
},{
  "Name": "entry^bb^signal^1_myl32_1",
  "LayerType": "signal",
  "Inputs": [],
  "Outputs": [],
  "TacticName": "",
  "StreamId": 0,
  "Metadata": ""
},{
  "Name": "entry^bb^wait^1_myl32_2",
  "LayerType": "wait",
  "Inputs": [],
  "Outputs": [],
  "TacticName": "",
  "StreamId": 1,
  "Metadata": ""
},{
  "Name": "__myl_TraTraAdd_myl32_3",
  "LayerType": "kgen",
  "Inputs": [
  {
    "Name": "Reformatted Input Tensor 0 to {ForeignNode[Reshape_2...ONNXTRT_unsqueezeTensor_929]}",
    "Dimensions": [1,128,32400],
    "Format/Datatype": "Half"
  },
  {
    "Name": "Reformatted Input Tensor 1 to {ForeignNode[Reshape_2...ONNXTRT_unsqueezeTensor_929]}",
    "Dimensions": [1,128,32400],
    "Format/Datatype": "Half"
  }],
  "Outputs": [
  {
    "Name": "897'.1",
    "Dimensions": [32400,1,128],
    "Format/Datatype": "Half"
  }],
  "TacticName": "__myl_TraTraAdd_0xa2e3a7dbf34d34b8147354814a53d629",
  "StreamId": 0,
  "Metadata": "[ONNX Layer: Transpose_269]\u001f[ONNX Layer: Add_363]\u001f[ONNX Layer: Transpose_271]"
},{
  "Name": "__mye28059+__mye28047_myl32_4",
  "LayerType": "gemm",
  "Inputs": [
  {
    "Name": "897'.1",
    "Dimensions": [32400,128],
    "Format/Datatype": "Half"
  },
  {
    "Name": "__mye28539_dconst",
    "Dimensions": [2,128,128],
    "Format/Datatype": "Half"
  },
  {
    "Name": "__mye28061__mye28059_alpha",
    "Dimensions": [1],
    "Format/Datatype": "Float"
  },
  {
    "Name": "__mye28062__mye28059_beta",
    "Dimensions": [1],
    "Format/Datatype": "Float"
  },
  {
    "Name": "__mye28544_dconst",
    "Dimensions": [2,1,128],
    "Format/Datatype": "Half"
  }],
  "Outputs": [
  {
    "Name": "__mye28496",
    "Dimensions": [2,32400,128],
    "Format/Datatype": "Half"
  }],
  "TacticName": "sm80_xmma_gemm_f16f16_f16f16_f16_nn_n_tilesize128x128x32_stage4_warpsize2x2x1_tensor16x8x16",
  "StreamId": 0,
  "Metadata": "[ONNX Layer: MatMul_397]\u001f[ONNX Layer: Add_398]"
},{
  "Name": "__myl_CasRepGatRepGatAddTraTraAdd_myl32_5",
  "LayerType": "kgen",
  "Inputs": [
  {
    "Name": "Reformatted Input Tensor 0 to {ForeignNode[Reshape_2...ONNXTRT_unsqueezeTensor_929]}",
    "Dimensions": [1,128,32400],
    "Format/Datatype": "Half"
  },
  {
    "Name": "(Unnamed Layer* 589) [Convolution]_output",
    "Dimensions": [1,128,200],
    "Format/Datatype": "Half"
  },
  {
    "Name": "(Unnamed Layer* 620) [Convolution]_output",
    "Dimensions": [1,128,200],
    "Format/Datatype": "Half"
  },
  {
    "Name": "722",
    "Dimensions": [1,10,32400],
    "Format/Datatype": "Half"
  },
  {
    "Name": "738",
    "Dimensions": [1,1,200],
    "Format/Datatype": "Int64"
  }],
  "Outputs": [
  {
    "Name": "__myln_k_arg__bb1_12",
    "Dimensions": [200,1,128],
    "Format/Datatype": "Half"
  },
  {
    "Name": "798'.1",
    "Dimensions": [200,1,128],
    "Format/Datatype": "Half"
  },
  {
    "Name": "__myln_k_arg__bb1_11",
    "Dimensions": [200,1,128],
    "Format/Datatype": "Half"
  },
  {
    "Name": "1092",
    "Dimensions": [1,10,200],
    "Format/Datatype": "Half"
  }],
  "TacticName": "__myl_CasRepGatRepGatAddTraTraAdd_0x22dcc38daf6614786b953f092fb4c1db",
  "StreamId": 1,
  "Metadata": "[ONNX Layer: GatherElements_518]\u001f[ONNX Layer: Transpose_263]\u001f[ONNX Layer: Add_272]\u001f[ONNX Layer: Add_246]\u001f[ONNX Layer: Transpose_270]\u001f[ONNX Layer: GatherElements_238]"
},{
  "Name": "__mye28137+__mye28125+__mye28113_myl32_6",
  "LayerType": "gemm",
  "Inputs": [
  {
    "Name": "798'.1",
    "Dimensions": [200,128],
    "Format/Datatype": "Half"
  },
  {
    "Name": "__mye28549_dconst",
    "Dimensions": [3,128,128],
    "Format/Datatype": "Half"
  },
  {
    "Name": "__mye28139__mye28137_alpha",
    "Dimensions": [1],
    "Format/Datatype": "Float"
  },
  {
    "Name": "__mye28140__mye28137_beta",
    "Dimensions": [1],
    "Format/Datatype": "Float"
  },
  {
    "Name": "__mye28554_dconst",
    "Dimensions": [3,1,128],
    "Format/Datatype": "Half"
  }],
  "Outputs": [
  {
    "Name": "__mye28471",
    "Dimensions": [3,200,128],
    "Format/Datatype": "Half"
  }],
  "TacticName": "sm80_xmma_gemm_f16f16_f16f16_f16_nn_n_tilesize64x128x32_stage5_warpsize2x2x1_tensor16x8x16",
  "StreamId": 1,
  "Metadata": "[ONNX Layer: MatMul_286]\u001f[ONNX Layer: Add_287]"
},{
  "Name": "_gemm_mha_v2_myl32_7",
  "LayerType": "kgen",
  "Inputs": [
  {
    "Name": "__mye28471",
    "Dimensions": [8,200,16],
    "Format/Datatype": "Half"
  },
  {
    "Name": "__mye28471",
    "Dimensions": [8,16,200],
    "Format/Datatype": "Half"
  },
  {
    "Name": "__mye28471",
    "Dimensions": [8,200,16],
    "Format/Datatype": "Half"
  }],
  "Outputs": [
  {
    "Name": "__myln_k_arg__bb1_14",
    "Dimensions": [8,200,16],
    "Format/Datatype": "Half"
  }],
  "TacticName": "_gemm_mha_v2_0xb5d2229bc0a31794fd26dcd097d8ce45",
  "StreamId": 1,
  "Metadata": "[ONNX Layer: Softmax_337]\u001f[ONNX Layer: MatMul_338]\u001f[ONNX Layer: MatMul_336]\u001f[ONNX Layer: Mul_306]"
},{
  "Name": "__myl_Tra_myl32_8",
  "LayerType": "kgen",
  "Inputs": [
  {
    "Name": "__myln_k_arg__bb1_14",
    "Dimensions": [8,200,16],
    "Format/Datatype": "Half"
  }],
  "Outputs": [
  {
    "Name": "Transpose_339 _ Reshape_347_first_transpose_output.1",
    "Dimensions": [200,8,16],
    "Format/Datatype": "Half"
  }],
  "TacticName": "__myl_Tra_0x8fa47ab942866004b1c2d4bc8af6caf4",
  "StreamId": 1,
  "Metadata": "[ONNX Layer: Transpose_339]\u001e[ONNX Layer: Reshape_347]"
},{
  "Name": "MatMul_348_myl32_9",
  "LayerType": "gemm",
  "Inputs": [
  {
    "Name": "Transpose_339 _ Reshape_347_first_transpose_output.1",
    "Dimensions": [200,128],
    "Format/Datatype": "Half"
  },
  {
    "Name": "__mye27921_dconst",
    "Dimensions": [128,128],
    "Format/Datatype": "Half"
  },
  {
    "Name": "__mye27788MatMul_348_alpha",
    "Dimensions": [1],
    "Format/Datatype": "Float"
  },
  {
    "Name": "__mye27789MatMul_348_beta",
    "Dimensions": [1],
    "Format/Datatype": "Float"
  },
  {
    "Name": "__mye28410_reshape",
    "Dimensions": [1,128],
    "Format/Datatype": "Half"
  }],
  "Outputs": [
  {
    "Name": "__myln_k_arg__bb1_16",
    "Dimensions": [200,128],
    "Format/Datatype": "Half"
  }],
  "TacticName": "sm80_xmma_gemm_f16f16_f16f16_f16_nn_n_tilesize64x32x64_stage5_warpsize2x2x1_tensor16x8x16",
  "StreamId": 1,
  "Metadata": "[ONNX Layer: MatMul_348]\u001f[ONNX Layer: Add_349]"
},{
  "Name": "__myl_ResAddMeaSubMulMeaAddSqrDivMulMulAddResAdd_myl32_10",
  "LayerType": "kgen",
  "Inputs": [
  {
    "Name": "__mye28384_reshape",
    "Dimensions": [1,128],
    "Format/Datatype": "Half"
  },
  {
    "Name": "__mye28378_reshape",
    "Dimensions": [1,128],
    "Format/Datatype": "Half"
  },
  {
    "Name": "__myln_k_arg__bb1_11",
    "Dimensions": [200,1,128],
    "Format/Datatype": "Half"
  },
  {
    "Name": "__myln_k_arg__bb1_16",
    "Dimensions": [200,128],
    "Format/Datatype": "Half"
  },
  {
    "Name": "__myln_k_arg__bb1_12",
    "Dimensions": [200,1,128],
    "Format/Datatype": "Half"
  }],
  "Outputs": [
  {
    "Name": "__myln_k_arg__bb1_18",
    "Dimensions": [200,128],
    "Format/Datatype": "Half"
  },
  {
    "Name": "__myln_k_arg__bb1_17",
    "Dimensions": [200,128],
    "Format/Datatype": "Half"
  }],
  "TacticName": "__myl_ResAddMeaSubMulMeaAddSqrDivMulMulAddResAdd_0x60b965a302dc52850a5d0e67d7a3a444",
  "StreamId": 1,
  "Metadata": "[ONNX Layer: Add_350]\u001f[ONNX Layer: ReduceMean_355]\u001f[ONNX Layer: Sub_352]\u001f[ONNX Layer: Pow_354]\u001f[ONNX Layer: ReduceMean_351]\u001f[ONNX Layer: Div_359]\u001f[ONNX Layer: Add_362]\u001f[ONNX Layer: Add_361]\u001f[ONNX Layer: Mul_360]\u001f[ONNX Layer: Sqrt_358]\u001f[ONNX Layer: Add_357]"
},{
  "Name": "MatMul_386_myl32_11",
  "LayerType": "gemm",
  "Inputs": [
  {
    "Name": "__myln_k_arg__bb1_17",
    "Dimensions": [200,128],
    "Format/Datatype": "Half"
  },
  {
    "Name": "__mye28623dconst",
    "Dimensions": [128,128],
    "Format/Datatype": "Half"
  },
  {
    "Name": "__mye27809MatMul_386_alpha",
    "Dimensions": [1],
    "Format/Datatype": "Float"
  },
  {
    "Name": "__mye27810MatMul_386_beta",
    "Dimensions": [1],
    "Format/Datatype": "Float"
  },
  {
    "Name": "__mye28363_reshape",
    "Dimensions": [1,128],
    "Format/Datatype": "Half"
  }],
  "Outputs": [
  {
    "Name": "933'.1",
    "Dimensions": [200,128],
    "Format/Datatype": "Half"
  }],
  "TacticName": "sm80_xmma_gemm_f16f16_f16f16_f16_nn_n_tilesize64x32x64_stage5_warpsize2x2x1_tensor16x8x16",
  "StreamId": 1,
  "Metadata": "[ONNX Layer: MatMul_386]\u001f[ONNX Layer: Add_387]"
},{
  "Name": "__mye28735_myl32_12",
  "LayerType": "signal",
  "Inputs": [],
  "Outputs": [],
  "TacticName": "",
  "StreamId": 1,
  "Metadata": ""
},{
  "Name": "__mye28737_myl32_13",
  "LayerType": "wait",
  "Inputs": [],
  "Outputs": [],
  "TacticName": "",
  "StreamId": 0,
  "Metadata": ""
},{
  "Name": "_gemm_mha_v2_myl32_14",
  "LayerType": "kgen",
  "Inputs": [
  {
    "Name": "933'.1",
    "Dimensions": [8,200,16],
    "Format/Datatype": "Half"
  },
  {
    "Name": "__mye28496",
    "Dimensions": [8,16,32400],
    "Format/Datatype": "Half"
  },
  {
    "Name": "__mye28496",
    "Dimensions": [8,32400,16],
    "Format/Datatype": "Half"
  }],
  "Outputs": [
  {
    "Name": "__myln_k_arg__bb1_20",
    "Dimensions": [8,200,16],
    "Format/Datatype": "Half"
  }],
  "TacticName": "_gemm_mha_v2_0xab6a9b17092922e8cae23690d66fc1b8",
  "StreamId": 0,
  "Metadata": "[ONNX Layer: MatMul_446]\u001f[ONNX Layer: Softmax_445]\u001f[ONNX Layer: MatMul_444]\u001f[ONNX Layer: Mul_414]"
},{
  "Name": "__myl_Tra_myl32_15",
  "LayerType": "kgen",
  "Inputs": [
  {
    "Name": "__myln_k_arg__bb1_20",
    "Dimensions": [8,200,16],
    "Format/Datatype": "Half"
  }],
  "Outputs": [
  {
    "Name": "Transpose_447 _ Reshape_455_first_transpose_output.1",
    "Dimensions": [200,8,16],
    "Format/Datatype": "Half"
  }],
  "TacticName": "__myl_Tra_0x8fa47ab942866004b1c2d4bc8af6caf4",
  "StreamId": 0,
  "Metadata": "[ONNX Layer: Transpose_447]\u001e[ONNX Layer: Reshape_455]"
},{
  "Name": "MatMul_456_myl32_16",
  "LayerType": "gemm",
  "Inputs": [
  {
    "Name": "Transpose_447 _ Reshape_455_first_transpose_output.1",
    "Dimensions": [200,128],
    "Format/Datatype": "Half"
  },
  {
    "Name": "__mye27938_dconst",
    "Dimensions": [128,128],
    "Format/Datatype": "Half"
  },
  {
    "Name": "__mye27852MatMul_456_alpha",
    "Dimensions": [1],
    "Format/Datatype": "Float"
  },
  {
    "Name": "__mye27853MatMul_456_beta",
    "Dimensions": [1],
    "Format/Datatype": "Float"
  },
  {
    "Name": "__mye28348_reshape",
    "Dimensions": [1,128],
    "Format/Datatype": "Half"
  }],
  "Outputs": [
  {
    "Name": "__myln_k_arg__bb1_22",
    "Dimensions": [200,128],
    "Format/Datatype": "Half"
  }],
  "TacticName": "sm80_xmma_gemm_f16f16_f16f16_f16_nn_n_tilesize64x32x64_stage5_warpsize2x2x1_tensor16x8x16",
  "StreamId": 0,
  "Metadata": "[ONNX Layer: MatMul_456]\u001f[ONNX Layer: Add_457]"
},{
  "Name": "__myl_AddMeaSubMulMeaAddSqrDivMulMulAdd_myl32_17",
  "LayerType": "kgen",
  "Inputs": [
  {
    "Name": "__mye28326_reshape",
    "Dimensions": [1,128],
    "Format/Datatype": "Half"
  },
  {
    "Name": "__mye28316_reshape",
    "Dimensions": [1,128],
    "Format/Datatype": "Half"
  },
  {
    "Name": "__myln_k_arg__bb1_18",
    "Dimensions": [200,128],
    "Format/Datatype": "Half"
  },
  {
    "Name": "__myln_k_arg__bb1_22",
    "Dimensions": [200,128],
    "Format/Datatype": "Half"
  }],
  "Outputs": [
  {
    "Name": "1038'.1_23",
    "Dimensions": [200,128],
    "Format/Datatype": "Half"
  }],
  "TacticName": "__myl_AddMeaSubMulMeaAddSqrDivMulMulAdd_0xd306e85ccf19b1918a1613bccdbb700b",
  "StreamId": 0,
  "Metadata": "[ONNX Layer: Add_458]\u001f[ONNX Layer: ReduceMean_459]\u001f[ONNX Layer: Pow_462]\u001f[ONNX Layer: Sub_460]\u001f[ONNX Layer: ReduceMean_463]\u001f[ONNX Layer: Div_467]\u001f[ONNX Layer: Add_469]\u001f[ONNX Layer: Mul_468]\u001f[ONNX Layer: Sqrt_466]\u001f[ONNX Layer: Add_465]"
},{
  "Name": "MatMul_470_myl32_18",
  "LayerType": "gemm",
  "Inputs": [
  {
    "Name": "1038'.1_23",
    "Dimensions": [200,128],
    "Format/Datatype": "Half"
  },
  {
    "Name": "__mye27951_dconst",
    "Dimensions": [128,256],
    "Format/Datatype": "Half"
  },
  {
    "Name": "__mye27873MatMul_470_alpha",
    "Dimensions": [1],
    "Format/Datatype": "Float"
  },
  {
    "Name": "__mye27874MatMul_470_beta",
    "Dimensions": [1],
    "Format/Datatype": "Float"
  },
  {
    "Name": "__mye28310_reshape",
    "Dimensions": [1,256],
    "Format/Datatype": "Half"
  }],
  "Outputs": [
  {
    "Name": "1041'.1_24",
    "Dimensions": [200,256],
    "Format/Datatype": "Half"
  }],
  "TacticName": "sm80_xmma_gemm_f16f16_f16f16_f16_nn_n_tilesize64x64x64_stage4_warpsize2x2x1_tensor16x8x16",
  "StreamId": 0,
  "Metadata": "[ONNX Layer: MatMul_470]\u001f[ONNX Layer: Relu_472]\u001f[ONNX Layer: Add_471]"
},{
  "Name": "MatMul_473_myl32_19",
  "LayerType": "gemm",
  "Inputs": [
  {
    "Name": "1041'.1_24",
    "Dimensions": [200,256],
    "Format/Datatype": "Half"
  },
  {
    "Name": "__mye27956_dconst",
    "Dimensions": [256,128],
    "Format/Datatype": "Half"
  },
  {
    "Name": "__mye27894MatMul_473_alpha",
    "Dimensions": [1],
    "Format/Datatype": "Float"
  },
  {
    "Name": "__mye27895MatMul_473_beta",
    "Dimensions": [1],
    "Format/Datatype": "Float"
  },
  {
    "Name": "__mye28299_reshape",
    "Dimensions": [1,128],
    "Format/Datatype": "Half"
  }],
  "Outputs": [
  {
    "Name": "__myln_k_arg__bb1_25",
    "Dimensions": [200,128],
    "Format/Datatype": "Half"
  }],
  "TacticName": "sm80_xmma_gemm_f16f16_f16f16_f16_nn_n_tilesize64x32x64_stage5_warpsize2x2x1_tensor16x8x16",
  "StreamId": 0,
  "Metadata": "[ONNX Layer: MatMul_473]\u001f[ONNX Layer: Add_474]"
},{
  "Name": "__myl_AddMeaSubMulMea_myl32_20",
  "LayerType": "kgen",
  "Inputs": [
  {
    "Name": "1038'.1_23",
    "Dimensions": [200,128],
    "Format/Datatype": "Half"
  },
  {
    "Name": "__myln_k_arg__bb1_25",
    "Dimensions": [200,128],
    "Format/Datatype": "Half"
  }],
  "Outputs": [
  {
    "Name": "__myln_k_arg__bb1_27",
    "Dimensions": [200,1],
    "Format/Datatype": "Half"
  },
  {
    "Name": "__myln_k_arg__bb1_26",
    "Dimensions": [200,128],
    "Format/Datatype": "Half"
  }],
  "TacticName": "__myl_AddMeaSubMulMea_0xe2c4676e49432ac119f9bbc2bd87f5a2",
  "StreamId": 0,
  "Metadata": "[ONNX Layer: Add_475]\u001f[ONNX Layer: ReduceMean_476]\u001f[ONNX Layer: Pow_479]\u001f[ONNX Layer: Sub_477]\u001f[ONNX Layer: ReduceMean_480]"
},{
  "Name": "__myl_AddSqrDivMulMulAddResTraResMovMovMovMovMov_myl32_21",
  "LayerType": "kgen",
  "Inputs": [
  {
    "Name": "__mye28267_reshape",
    "Dimensions": [1,128],
    "Format/Datatype": "Half"
  },
  {
    "Name": "__mye28277_reshape",
    "Dimensions": [1,128],
    "Format/Datatype": "Half"
  },
  {
    "Name": "__myln_k_arg__bb1_26",
    "Dimensions": [200,128],
    "Format/Datatype": "Half"
  },
  {
    "Name": "__myln_k_arg__bb1_27",
    "Dimensions": [200,1],
    "Format/Datatype": "Half"
  }],
  "Outputs": [
  {
    "Name": "(Unnamed Layer* 1105) [Shuffle]_output",
    "Dimensions": [1,128,200,1],
    "Format/Datatype": "Half"
  },
  {
    "Name": "(Unnamed Layer* 1112) [Shuffle]_output",
    "Dimensions": [1,128,200,1],
    "Format/Datatype": "Half"
  },
  {
    "Name": "(Unnamed Layer* 1119) [Shuffle]_output",
    "Dimensions": [1,128,200,1],
    "Format/Datatype": "Half"
  },
  {
    "Name": "(Unnamed Layer* 1126) [Shuffle]_output",
    "Dimensions": [1,128,200,1],
    "Format/Datatype": "Half"
  },
  {
    "Name": "(Unnamed Layer* 1133) [Shuffle]_output",
    "Dimensions": [1,128,200,1],
    "Format/Datatype": "Half"
  },
  {
    "Name": "(Unnamed Layer* 1140) [Shuffle]_output",
    "Dimensions": [1,128,200,1],
    "Format/Datatype": "Half"
  }],
  "TacticName": "__myl_AddSqrDivMulMulAddResTraResMovMovMovMovMov_0x437eb89ffa1d948152d929dd71d13b2a",
  "StreamId": 0,
  "Metadata": "[ONNX Layer: Add_482]\u001f[ONNX Layer: Sqrt_483]\u001f[ONNX Layer: Div_484]\u001f[ONNX Layer: Mul_485]\u001f[ONNX Layer: Add_486]\u001f[ONNX Layer: Transpose_487]"
},{
  "Name": "Reformatting CopyNode for Input Tensor 0 to shuffle_between_ONNXTRT_unsqueezeTensor_929_output_and_Conv_488 + Relu_489",
  "LayerType": "Reformat",
  "Inputs": [
  {
    "Name": "(Unnamed Layer* 1105) [Shuffle]_output",
    "Location": "Device",
    "Dimensions": [1,128,200,1],
    "Format/Datatype": "Row major linear FP16 format"
  }],
  "Outputs": [
  {
    "Name": "Reformatted Input Tensor 0 to shuffle_between_ONNXTRT_unsqueezeTensor_929_output_and_Conv_488 + Relu_489",
    "Location": "Device",
    "Dimensions": [1,128,200,1],
    "Format/Datatype": "Channel major FP16 format where channel % 8 == 0"
  }],
  "ParameterType": "Reformat",
  "Origin": "REFORMAT",
  "TacticValue": "0x0000000000000000",
  "StreamId": 0,
  "Metadata": ""
},{
  "Name": "shuffle_between_ONNXTRT_unsqueezeTensor_929_output_and_Conv_488 + Relu_489",
  "LayerType": "NoOp",
  "Inputs": [
  {
    "Name": "Reformatted Input Tensor 0 to shuffle_between_ONNXTRT_unsqueezeTensor_929_output_and_Conv_488 + Relu_489",
    "Location": "Device",
    "Dimensions": [1,128,200,1],
    "Format/Datatype": "Channel major FP16 format where channel % 8 == 0"
  }],
  "Outputs": [
  {
    "Name": "shuffle_between_ONNXTRT_unsqueezeTensor_929_output_and_Conv_488 + Relu_489_out_region",
    "Location": "Device",
    "Dimensions": [1,128,1,200],
    "Format/Datatype": "Channel major FP16 format where channel % 8 == 0"
  }],
  "TacticValue": "0x0000000000000000",
  "StreamId": 0,
  "Metadata": "[ONNX Layer: Conv_488]\u001e[ONNX Layer: Relu_489]"
},{
  "Name": "Conv_488 + Relu_489",
  "LayerType": "CaskGemmConvolution",
  "Inputs": [
  {
    "Name": "shuffle_between_ONNXTRT_unsqueezeTensor_929_output_and_Conv_488 + Relu_489_out_region",
    "Location": "Device",
    "Dimensions": [1,128,1,200],
    "Format/Datatype": "Channel major FP16 format where channel % 8 == 0"
  }],
  "Outputs": [
  {
    "Name": "Conv_488 + Relu_489_new_out_region",
    "Location": "Device",
    "Dimensions": [1,64,1,200],
    "Format/Datatype": "Channel major FP16 format where channel % 8 == 0"
  }],
  "ParameterType": "Convolution",
  "Kernel": [1,1],
  "PaddingMode": "kEXPLICIT_ROUND_DOWN",
  "PrePadding": [0,0],
  "PostPadding": [0,0],
  "Stride": [1,1],
  "Dilation": [1,1],
  "OutMaps": 64,
  "Groups": 1,
  "Weights": {"Type": "Half", "Count": 8192},
  "Bias": {"Type": "Half", "Count": 64},
  "HasBias": 1,
  "HasReLU": 1,
  "HasSparseWeights": 0,
  "HasDynamicFilter": 0,
  "HasDynamicBias": 0,
  "HasResidual": 0,
  "ConvXAsActInputIdx": -1,
  "BiasAsActInputIdx": -1,
  "ResAsActInputIdx": -1,
  "Activation": "RELU",
  "TacticName": "sm80_xmma_gemm_f16f16_f16f16_f16_tn_n_tilesize32x32x64_stage6_warpsize2x2x1_tensor16x8x16",
  "TacticValue": "0x00000000000204af",
  "StreamId": 0,
  "Metadata": "[ONNX Layer: Conv_488]\u001e[ONNX Layer: Relu_489]"
},{
  "Name": "shuffle_after_Relu_489_out_tensor",
  "LayerType": "NoOp",
  "Inputs": [
  {
    "Name": "Conv_488 + Relu_489_new_out_region",
    "Location": "Device",
    "Dimensions": [1,64,1,200],
    "Format/Datatype": "Channel major FP16 format where channel % 8 == 0"
  }],
  "Outputs": [
  {
    "Name": "Relu_489_out_tensor",
    "Location": "Device",
    "Dimensions": [1,64,200,1],
    "Format/Datatype": "Channel major FP16 format where channel % 8 == 0"
  }],
  "TacticValue": "0x0000000000000000",
  "StreamId": 0,
  "Metadata": "[ONNX Layer: Conv_488]\u001e[ONNX Layer: Relu_489]"
},{
  "Name": "Reformatting CopyNode for Input Tensor 0 to shuffle_between_ONNXTRT_unsqueezeTensor_937_output_and_Conv_491 + Relu_492",
  "LayerType": "Reformat",
  "Inputs": [
  {
    "Name": "(Unnamed Layer* 1112) [Shuffle]_output",
    "Location": "Device",
    "Dimensions": [1,128,200,1],
    "Format/Datatype": "Row major linear FP16 format"
  }],
  "Outputs": [
  {
    "Name": "Reformatted Input Tensor 0 to shuffle_between_ONNXTRT_unsqueezeTensor_937_output_and_Conv_491 + Relu_492",
    "Location": "Device",
    "Dimensions": [1,128,200,1],
    "Format/Datatype": "Channel major FP16 format where channel % 8 == 0"
  }],
  "ParameterType": "Reformat",
  "Origin": "REFORMAT",
  "TacticValue": "0x0000000000000000",
  "StreamId": 0,
  "Metadata": ""
},{
  "Name": "shuffle_between_ONNXTRT_unsqueezeTensor_937_output_and_Conv_491 + Relu_492",
  "LayerType": "NoOp",
  "Inputs": [
  {
    "Name": "Reformatted Input Tensor 0 to shuffle_between_ONNXTRT_unsqueezeTensor_937_output_and_Conv_491 + Relu_492",
    "Location": "Device",
    "Dimensions": [1,128,200,1],
    "Format/Datatype": "Channel major FP16 format where channel % 8 == 0"
  }],
  "Outputs": [
  {
    "Name": "shuffle_between_ONNXTRT_unsqueezeTensor_937_output_and_Conv_491 + Relu_492_out_region",
    "Location": "Device",
    "Dimensions": [1,128,1,200],
    "Format/Datatype": "Channel major FP16 format where channel % 8 == 0"
  }],
  "TacticValue": "0x0000000000000000",
  "StreamId": 0,
  "Metadata": "[ONNX Layer: Conv_491]\u001e[ONNX Layer: Relu_492]"
},{
  "Name": "Conv_491 + Relu_492",
  "LayerType": "CaskGemmConvolution",
  "Inputs": [
  {
    "Name": "shuffle_between_ONNXTRT_unsqueezeTensor_937_output_and_Conv_491 + Relu_492_out_region",
    "Location": "Device",
    "Dimensions": [1,128,1,200],
    "Format/Datatype": "Channel major FP16 format where channel % 8 == 0"
  }],
  "Outputs": [
  {
    "Name": "Conv_491 + Relu_492_new_out_region",
    "Location": "Device",
    "Dimensions": [1,64,1,200],
    "Format/Datatype": "Channel major FP16 format where channel % 8 == 0"
  }],
  "ParameterType": "Convolution",
  "Kernel": [1,1],
  "PaddingMode": "kEXPLICIT_ROUND_DOWN",
  "PrePadding": [0,0],
  "PostPadding": [0,0],
  "Stride": [1,1],
  "Dilation": [1,1],
  "OutMaps": 64,
  "Groups": 1,
  "Weights": {"Type": "Half", "Count": 8192},
  "Bias": {"Type": "Half", "Count": 64},
  "HasBias": 1,
  "HasReLU": 1,
  "HasSparseWeights": 0,
  "HasDynamicFilter": 0,
  "HasDynamicBias": 0,
  "HasResidual": 0,
  "ConvXAsActInputIdx": -1,
  "BiasAsActInputIdx": -1,
  "ResAsActInputIdx": -1,
  "Activation": "RELU",
  "TacticName": "sm80_xmma_gemm_f16f16_f16f16_f16_tn_n_tilesize32x32x64_stage6_warpsize2x2x1_tensor16x8x16",
  "TacticValue": "0x00000000000204af",
  "StreamId": 0,
  "Metadata": "[ONNX Layer: Conv_491]\u001e[ONNX Layer: Relu_492]"
},{
  "Name": "shuffle_after_Relu_492_out_tensor",
  "LayerType": "NoOp",
  "Inputs": [
  {
    "Name": "Conv_491 + Relu_492_new_out_region",
    "Location": "Device",
    "Dimensions": [1,64,1,200],
    "Format/Datatype": "Channel major FP16 format where channel % 8 == 0"
  }],
  "Outputs": [
  {
    "Name": "Relu_492_out_tensor",
    "Location": "Device",
    "Dimensions": [1,64,200,1],
    "Format/Datatype": "Channel major FP16 format where channel % 8 == 0"
  }],
  "TacticValue": "0x0000000000000000",
  "StreamId": 0,
  "Metadata": "[ONNX Layer: Conv_491]\u001e[ONNX Layer: Relu_492]"
},{
  "Name": "Reformatting CopyNode for Input Tensor 0 to shuffle_between_ONNXTRT_unsqueezeTensor_945_output_and_Conv_494 + Relu_495",
  "LayerType": "Reformat",
  "Inputs": [
  {
    "Name": "(Unnamed Layer* 1119) [Shuffle]_output",
    "Location": "Device",
    "Dimensions": [1,128,200,1],
    "Format/Datatype": "Row major linear FP16 format"
  }],
  "Outputs": [
  {
    "Name": "Reformatted Input Tensor 0 to shuffle_between_ONNXTRT_unsqueezeTensor_945_output_and_Conv_494 + Relu_495",
    "Location": "Device",
    "Dimensions": [1,128,200,1],
    "Format/Datatype": "Channel major FP16 format where channel % 8 == 0"
  }],
  "ParameterType": "Reformat",
  "Origin": "REFORMAT",
  "TacticValue": "0x0000000000000000",
  "StreamId": 0,
  "Metadata": ""
},{
  "Name": "shuffle_between_ONNXTRT_unsqueezeTensor_945_output_and_Conv_494 + Relu_495",
  "LayerType": "NoOp",
  "Inputs": [
  {
    "Name": "Reformatted Input Tensor 0 to shuffle_between_ONNXTRT_unsqueezeTensor_945_output_and_Conv_494 + Relu_495",
    "Location": "Device",
    "Dimensions": [1,128,200,1],
    "Format/Datatype": "Channel major FP16 format where channel % 8 == 0"
  }],
  "Outputs": [
  {
    "Name": "shuffle_between_ONNXTRT_unsqueezeTensor_945_output_and_Conv_494 + Relu_495_out_region",
    "Location": "Device",
    "Dimensions": [1,128,1,200],
    "Format/Datatype": "Channel major FP16 format where channel % 8 == 0"
  }],
  "TacticValue": "0x0000000000000000",
  "StreamId": 0,
  "Metadata": "[ONNX Layer: Conv_494]\u001e[ONNX Layer: Relu_495]"
},{
  "Name": "Conv_494 + Relu_495",
  "LayerType": "CaskGemmConvolution",
  "Inputs": [
  {
    "Name": "shuffle_between_ONNXTRT_unsqueezeTensor_945_output_and_Conv_494 + Relu_495_out_region",
    "Location": "Device",
    "Dimensions": [1,128,1,200],
    "Format/Datatype": "Channel major FP16 format where channel % 8 == 0"
  }],
  "Outputs": [
  {
    "Name": "Conv_494 + Relu_495_new_out_region",
    "Location": "Device",
    "Dimensions": [1,64,1,200],
    "Format/Datatype": "Channel major FP16 format where channel % 8 == 0"
  }],
  "ParameterType": "Convolution",
  "Kernel": [1,1],
  "PaddingMode": "kEXPLICIT_ROUND_DOWN",
  "PrePadding": [0,0],
  "PostPadding": [0,0],
  "Stride": [1,1],
  "Dilation": [1,1],
  "OutMaps": 64,
  "Groups": 1,
  "Weights": {"Type": "Half", "Count": 8192},
  "Bias": {"Type": "Half", "Count": 64},
  "HasBias": 1,
  "HasReLU": 1,
  "HasSparseWeights": 0,
  "HasDynamicFilter": 0,
  "HasDynamicBias": 0,
  "HasResidual": 0,
  "ConvXAsActInputIdx": -1,
  "BiasAsActInputIdx": -1,
  "ResAsActInputIdx": -1,
  "Activation": "RELU",
  "TacticName": "sm80_xmma_gemm_f16f16_f16f16_f16_tn_n_tilesize32x32x64_stage6_warpsize2x2x1_tensor16x8x16",
  "TacticValue": "0x00000000000204af",
  "StreamId": 0,
  "Metadata": "[ONNX Layer: Conv_494]\u001e[ONNX Layer: Relu_495]"
},{
  "Name": "shuffle_after_Relu_495_out_tensor",
  "LayerType": "NoOp",
  "Inputs": [
  {
    "Name": "Conv_494 + Relu_495_new_out_region",
    "Location": "Device",
    "Dimensions": [1,64,1,200],
    "Format/Datatype": "Channel major FP16 format where channel % 8 == 0"
  }],
  "Outputs": [
  {
    "Name": "Relu_495_out_tensor",
    "Location": "Device",
    "Dimensions": [1,64,200,1],
    "Format/Datatype": "Channel major FP16 format where channel % 8 == 0"
  }],
  "TacticValue": "0x0000000000000000",
  "StreamId": 0,
  "Metadata": "[ONNX Layer: Conv_494]\u001e[ONNX Layer: Relu_495]"
},{
  "Name": "Reformatting CopyNode for Input Tensor 0 to shuffle_between_ONNXTRT_unsqueezeTensor_953_output_and_Conv_497 + Relu_498",
  "LayerType": "Reformat",
  "Inputs": [
  {
    "Name": "(Unnamed Layer* 1126) [Shuffle]_output",
    "Location": "Device",
    "Dimensions": [1,128,200,1],
    "Format/Datatype": "Row major linear FP16 format"
  }],
  "Outputs": [
  {
    "Name": "Reformatted Input Tensor 0 to shuffle_between_ONNXTRT_unsqueezeTensor_953_output_and_Conv_497 + Relu_498",
    "Location": "Device",
    "Dimensions": [1,128,200,1],
    "Format/Datatype": "Channel major FP16 format where channel % 8 == 0"
  }],
  "ParameterType": "Reformat",
  "Origin": "REFORMAT",
  "TacticValue": "0x0000000000000000",
  "StreamId": 0,
  "Metadata": ""
},{
  "Name": "shuffle_between_ONNXTRT_unsqueezeTensor_953_output_and_Conv_497 + Relu_498",
  "LayerType": "NoOp",
  "Inputs": [
  {
    "Name": "Reformatted Input Tensor 0 to shuffle_between_ONNXTRT_unsqueezeTensor_953_output_and_Conv_497 + Relu_498",
    "Location": "Device",
    "Dimensions": [1,128,200,1],
    "Format/Datatype": "Channel major FP16 format where channel % 8 == 0"
  }],
  "Outputs": [
  {
    "Name": "shuffle_between_ONNXTRT_unsqueezeTensor_953_output_and_Conv_497 + Relu_498_out_region",
    "Location": "Device",
    "Dimensions": [1,128,1,200],
    "Format/Datatype": "Channel major FP16 format where channel % 8 == 0"
  }],
  "TacticValue": "0x0000000000000000",
  "StreamId": 0,
  "Metadata": "[ONNX Layer: Conv_497]\u001e[ONNX Layer: Relu_498]"
},{
  "Name": "Conv_497 + Relu_498",
  "LayerType": "CaskGemmConvolution",
  "Inputs": [
  {
    "Name": "shuffle_between_ONNXTRT_unsqueezeTensor_953_output_and_Conv_497 + Relu_498_out_region",
    "Location": "Device",
    "Dimensions": [1,128,1,200],
    "Format/Datatype": "Channel major FP16 format where channel % 8 == 0"
  }],
  "Outputs": [
  {
    "Name": "Conv_497 + Relu_498_new_out_region",
    "Location": "Device",
    "Dimensions": [1,64,1,200],
    "Format/Datatype": "Channel major FP16 format where channel % 8 == 0"
  }],
  "ParameterType": "Convolution",
  "Kernel": [1,1],
  "PaddingMode": "kEXPLICIT_ROUND_DOWN",
  "PrePadding": [0,0],
  "PostPadding": [0,0],
  "Stride": [1,1],
  "Dilation": [1,1],
  "OutMaps": 64,
  "Groups": 1,
  "Weights": {"Type": "Half", "Count": 8192},
  "Bias": {"Type": "Half", "Count": 64},
  "HasBias": 1,
  "HasReLU": 1,
  "HasSparseWeights": 0,
  "HasDynamicFilter": 0,
  "HasDynamicBias": 0,
  "HasResidual": 0,
  "ConvXAsActInputIdx": -1,
  "BiasAsActInputIdx": -1,
  "ResAsActInputIdx": -1,
  "Activation": "RELU",
  "TacticName": "sm80_xmma_gemm_f16f16_f16f16_f16_tn_n_tilesize32x32x64_stage6_warpsize2x2x1_tensor16x8x16",
  "TacticValue": "0x00000000000204af",
  "StreamId": 0,
  "Metadata": "[ONNX Layer: Conv_497]\u001e[ONNX Layer: Relu_498]"
},{
  "Name": "shuffle_after_Relu_498_out_tensor",
  "LayerType": "NoOp",
  "Inputs": [
  {
    "Name": "Conv_497 + Relu_498_new_out_region",
    "Location": "Device",
    "Dimensions": [1,64,1,200],
    "Format/Datatype": "Channel major FP16 format where channel % 8 == 0"
  }],
  "Outputs": [
  {
    "Name": "Relu_498_out_tensor",
    "Location": "Device",
    "Dimensions": [1,64,200,1],
    "Format/Datatype": "Channel major FP16 format where channel % 8 == 0"
  }],
  "TacticValue": "0x0000000000000000",
  "StreamId": 0,
  "Metadata": "[ONNX Layer: Conv_497]\u001e[ONNX Layer: Relu_498]"
},{
  "Name": "Reformatting CopyNode for Input Tensor 0 to shuffle_between_ONNXTRT_unsqueezeTensor_961_output_and_Conv_500 + Relu_501",
  "LayerType": "Reformat",
  "Inputs": [
  {
    "Name": "(Unnamed Layer* 1133) [Shuffle]_output",
    "Location": "Device",
    "Dimensions": [1,128,200,1],
    "Format/Datatype": "Row major linear FP16 format"
  }],
  "Outputs": [
  {
    "Name": "Reformatted Input Tensor 0 to shuffle_between_ONNXTRT_unsqueezeTensor_961_output_and_Conv_500 + Relu_501",
    "Location": "Device",
    "Dimensions": [1,128,200,1],
    "Format/Datatype": "Channel major FP16 format where channel % 8 == 0"
  }],
  "ParameterType": "Reformat",
  "Origin": "REFORMAT",
  "TacticValue": "0x0000000000000000",
  "StreamId": 0,
  "Metadata": ""
},{
  "Name": "shuffle_between_ONNXTRT_unsqueezeTensor_961_output_and_Conv_500 + Relu_501",
  "LayerType": "NoOp",
  "Inputs": [
  {
    "Name": "Reformatted Input Tensor 0 to shuffle_between_ONNXTRT_unsqueezeTensor_961_output_and_Conv_500 + Relu_501",
    "Location": "Device",
    "Dimensions": [1,128,200,1],
    "Format/Datatype": "Channel major FP16 format where channel % 8 == 0"
  }],
  "Outputs": [
  {
    "Name": "shuffle_between_ONNXTRT_unsqueezeTensor_961_output_and_Conv_500 + Relu_501_out_region",
    "Location": "Device",
    "Dimensions": [1,128,1,200],
    "Format/Datatype": "Channel major FP16 format where channel % 8 == 0"
  }],
  "TacticValue": "0x0000000000000000",
  "StreamId": 0,
  "Metadata": "[ONNX Layer: Conv_500]\u001e[ONNX Layer: Relu_501]"
},{
  "Name": "Conv_500 + Relu_501",
  "LayerType": "CaskGemmConvolution",
  "Inputs": [
  {
    "Name": "shuffle_between_ONNXTRT_unsqueezeTensor_961_output_and_Conv_500 + Relu_501_out_region",
    "Location": "Device",
    "Dimensions": [1,128,1,200],
    "Format/Datatype": "Channel major FP16 format where channel % 8 == 0"
  }],
  "Outputs": [
  {
    "Name": "Conv_500 + Relu_501_new_out_region",
    "Location": "Device",
    "Dimensions": [1,64,1,200],
    "Format/Datatype": "Channel major FP16 format where channel % 8 == 0"
  }],
  "ParameterType": "Convolution",
  "Kernel": [1,1],
  "PaddingMode": "kEXPLICIT_ROUND_DOWN",
  "PrePadding": [0,0],
  "PostPadding": [0,0],
  "Stride": [1,1],
  "Dilation": [1,1],
  "OutMaps": 64,
  "Groups": 1,
  "Weights": {"Type": "Half", "Count": 8192},
  "Bias": {"Type": "Half", "Count": 64},
  "HasBias": 1,
  "HasReLU": 1,
  "HasSparseWeights": 0,
  "HasDynamicFilter": 0,
  "HasDynamicBias": 0,
  "HasResidual": 0,
  "ConvXAsActInputIdx": -1,
  "BiasAsActInputIdx": -1,
  "ResAsActInputIdx": -1,
  "Activation": "RELU",
  "TacticName": "sm80_xmma_gemm_f16f16_f16f16_f16_tn_n_tilesize32x32x64_stage6_warpsize2x2x1_tensor16x8x16",
  "TacticValue": "0x00000000000204af",
  "StreamId": 0,
  "Metadata": "[ONNX Layer: Conv_500]\u001e[ONNX Layer: Relu_501]"
},{
  "Name": "shuffle_after_Relu_501_out_tensor",
  "LayerType": "NoOp",
  "Inputs": [
  {
    "Name": "Conv_500 + Relu_501_new_out_region",
    "Location": "Device",
    "Dimensions": [1,64,1,200],
    "Format/Datatype": "Channel major FP16 format where channel % 8 == 0"
  }],
  "Outputs": [
  {
    "Name": "Relu_501_out_tensor",
    "Location": "Device",
    "Dimensions": [1,64,200,1],
    "Format/Datatype": "Channel major FP16 format where channel % 8 == 0"
  }],
  "TacticValue": "0x0000000000000000",
  "StreamId": 0,
  "Metadata": "[ONNX Layer: Conv_500]\u001e[ONNX Layer: Relu_501]"
},{
  "Name": "Reformatting CopyNode for Input Tensor 0 to shuffle_between_ONNXTRT_unsqueezeTensor_969_output_and_Conv_503 + Relu_504",
  "LayerType": "Reformat",
  "Inputs": [
  {
    "Name": "(Unnamed Layer* 1140) [Shuffle]_output",
    "Location": "Device",
    "Dimensions": [1,128,200,1],
    "Format/Datatype": "Row major linear FP16 format"
  }],
  "Outputs": [
  {
    "Name": "Reformatted Input Tensor 0 to shuffle_between_ONNXTRT_unsqueezeTensor_969_output_and_Conv_503 + Relu_504",
    "Location": "Device",
    "Dimensions": [1,128,200,1],
    "Format/Datatype": "Channel major FP32 format"
  }],
  "ParameterType": "Reformat",
  "Origin": "REFORMAT",
  "TacticValue": "0x0000000000000000",
  "StreamId": 0,
  "Metadata": ""
},{
  "Name": "shuffle_between_ONNXTRT_unsqueezeTensor_969_output_and_Conv_503 + Relu_504",
  "LayerType": "NoOp",
  "Inputs": [
  {
    "Name": "Reformatted Input Tensor 0 to shuffle_between_ONNXTRT_unsqueezeTensor_969_output_and_Conv_503 + Relu_504",
    "Location": "Device",
    "Dimensions": [1,128,200,1],
    "Format/Datatype": "Channel major FP32 format"
  }],
  "Outputs": [
  {
    "Name": "shuffle_between_ONNXTRT_unsqueezeTensor_969_output_and_Conv_503 + Relu_504_out_region",
    "Location": "Device",
    "Dimensions": [1,128,1,200],
    "Format/Datatype": "Channel major FP32 format"
  }],
  "TacticValue": "0x0000000000000000",
  "StreamId": 0,
  "Metadata": "[ONNX Layer: Conv_503]\u001e[ONNX Layer: Relu_504]"
},{
  "Name": "Reformatting CopyNode for Input Tensor 0 to Conv_503 + Relu_504",
  "LayerType": "NoOp",
  "Inputs": [
  {
    "Name": "shuffle_between_ONNXTRT_unsqueezeTensor_969_output_and_Conv_503 + Relu_504_out_region",
    "Location": "Device",
    "Dimensions": [1,128,1,200],
    "Format/Datatype": "Channel major FP32 format"
  }],
  "Outputs": [
  {
    "Name": "Reformatted Input Tensor 0 to Conv_503 + Relu_504",
    "Location": "Device",
    "Dimensions": [1,128,1,200],
    "Format/Datatype": "Channel major FP32 format where channel % 4 == 0"
  }],
  "TacticValue": "0x0000000000000000",
  "StreamId": 0,
  "Metadata": ""
},{
  "Name": "Conv_503 + Relu_504",
  "LayerType": "CaskGemmConvolution",
  "Inputs": [
  {
    "Name": "Reformatted Input Tensor 0 to Conv_503 + Relu_504",
    "Location": "Device",
    "Dimensions": [1,128,1,200],
    "Format/Datatype": "Channel major FP32 format where channel % 4 == 0"
  }],
  "Outputs": [
  {
    "Name": "Conv_503 + Relu_504_new_out_region",
    "Location": "Device",
    "Dimensions": [1,64,1,200],
    "Format/Datatype": "Channel major FP32 format where channel % 4 == 0"
  }],
  "ParameterType": "Convolution",
  "Kernel": [1,1],
  "PaddingMode": "kEXPLICIT_ROUND_DOWN",
  "PrePadding": [0,0],
  "PostPadding": [0,0],
  "Stride": [1,1],
  "Dilation": [1,1],
  "OutMaps": 64,
  "Groups": 1,
  "Weights": {"Type": "Float", "Count": 8192},
  "Bias": {"Type": "Float", "Count": 64},
  "HasBias": 1,
  "HasReLU": 1,
  "HasSparseWeights": 0,
  "HasDynamicFilter": 0,
  "HasDynamicBias": 0,
  "HasResidual": 0,
  "ConvXAsActInputIdx": -1,
  "BiasAsActInputIdx": -1,
  "ResAsActInputIdx": -1,
  "Activation": "RELU",
  "TacticName": "sm80_xmma_gemm_f32f32_tf32f32_f32_tn_n_tilesize32x32x64_stage3_warpsize2x1x2_tensor16x8x8",
  "TacticValue": "0x00000000000206a4",
  "StreamId": 0,
  "Metadata": "[ONNX Layer: Conv_503]\u001e[ONNX Layer: Relu_504]"
},{
  "Name": "shuffle_after_Relu_504_out_tensor",
  "LayerType": "NoOp",
  "Inputs": [
  {
    "Name": "Conv_503 + Relu_504_new_out_region",
    "Location": "Device",
    "Dimensions": [1,64,1,200],
    "Format/Datatype": "Channel major FP32 format where channel % 4 == 0"
  }],
  "Outputs": [
  {
    "Name": "Relu_504_out_tensor",
    "Location": "Device",
    "Dimensions": [1,64,200,1],
    "Format/Datatype": "Channel major FP32 format where channel % 4 == 0"
  }],
  "TacticValue": "0x0000000000000000",
  "StreamId": 0,
  "Metadata": "[ONNX Layer: Conv_503]\u001e[ONNX Layer: Relu_504]"
},{
  "Name": "shuffle_between_Relu_504_out_tensor_and_Conv_505",
  "LayerType": "NoOp",
  "Inputs": [
  {
    "Name": "Relu_504_out_tensor",
    "Location": "Device",
    "Dimensions": [1,64,200,1],
    "Format/Datatype": "Channel major FP32 format where channel % 4 == 0"
  }],
  "Outputs": [
  {
    "Name": "shuffle_between_Relu_504_out_tensor_and_Conv_505_out_region",
    "Location": "Device",
    "Dimensions": [1,64,1,200],
    "Format/Datatype": "Channel major FP32 format where channel % 4 == 0"
  }],
  "TacticValue": "0x0000000000000000",
  "StreamId": 0,
  "Metadata": "[ONNX Layer: Conv_505]"
},{
  "Name": "Conv_505",
  "LayerType": "CaskConvolution",
  "Inputs": [
  {
    "Name": "shuffle_between_Relu_504_out_tensor_and_Conv_505_out_region",
    "Location": "Device",
    "Dimensions": [1,64,1,200],
    "Format/Datatype": "Channel major FP32 format where channel % 4 == 0"
  }],
  "Outputs": [
  {
    "Name": "Conv_505_new_out_region",
    "Location": "Device",
    "Dimensions": [1,10,1,200],
    "Format/Datatype": "Row major linear FP32"
  }],
  "ParameterType": "Convolution",
  "Kernel": [1,1],
  "PaddingMode": "kEXPLICIT_ROUND_DOWN",
  "PrePadding": [0,0],
  "PostPadding": [0,0],
  "Stride": [1,1],
  "Dilation": [1,1],
  "OutMaps": 10,
  "Groups": 1,
  "Weights": {"Type": "Float", "Count": 640},
  "Bias": {"Type": "Float", "Count": 10},
  "HasBias": 1,
  "HasReLU": 0,
  "HasSparseWeights": 0,
  "HasDynamicFilter": 0,
  "HasDynamicBias": 0,
  "HasResidual": 0,
  "ConvXAsActInputIdx": -1,
  "BiasAsActInputIdx": -1,
  "ResAsActInputIdx": -1,
  "Activation": "NONE",
  "TacticName": "sm80_xmma_fprop_implicit_gemm_indexed_f32f32_tf32f32_f32_nhwckrsc_nchw_tilesize64x32x64_stage5_warpsize2x2x1_g1_tensor16x8x8",
  "TacticValue": "0x2a70e740f46257d6",
  "StreamId": 0,
  "Metadata": "[ONNX Layer: Conv_505]"
},{
  "Name": "Reformatting CopyNode for Input Tensor 0 to shuffle_after_Conv_505_output",
  "LayerType": "Reformat",
  "Inputs": [
  {
    "Name": "Conv_505_new_out_region",
    "Location": "Device",
    "Dimensions": [1,10,1,200],
    "Format/Datatype": "Row major linear FP32"
  }],
  "Outputs": [
  {
    "Name": "Reformatted Input Tensor 0 to shuffle_after_Conv_505_output",
    "Location": "Device",
    "Dimensions": [1,10,1,200],
    "Format/Datatype": "Row major linear FP16 format"
  }],
  "ParameterType": "Reformat",
  "Origin": "REFORMAT",
  "TacticValue": "0x00000000000003e8",
  "StreamId": 0,
  "Metadata": ""
},{
  "Name": "shuffle_after_Conv_505_output",
  "LayerType": "NoOp",
  "Inputs": [
  {
    "Name": "Reformatted Input Tensor 0 to shuffle_after_Conv_505_output",
    "Location": "Device",
    "Dimensions": [1,10,1,200],
    "Format/Datatype": "Row major linear FP16 format"
  }],
  "Outputs": [
  {
    "Name": "(Unnamed Layer* 1145) [Convolution]_output",
    "Location": "Device",
    "Dimensions": [1,10,200,1],
    "Format/Datatype": "Row major linear FP16 format"
  }],
  "TacticValue": "0x0000000000000000",
  "StreamId": 0,
  "Metadata": "[ONNX Layer: Conv_505]"
},{
  "Name": "ONNXTRT_squeezeTensor_975",
  "LayerType": "NoOp",
  "Inputs": [
  {
    "Name": "(Unnamed Layer* 1145) [Convolution]_output",
    "Location": "Device",
    "Dimensions": [1,10,200,1],
    "Format/Datatype": "Row major linear FP16 format"
  }],
  "Outputs": [
  {
    "Name": "1098",
    "Location": "Device",
    "Dimensions": [1,10,200],
    "Format/Datatype": "Row major linear FP16 format"
  }],
  "TacticValue": "0x0000000000000000",
  "StreamId": 0,
  "Metadata": ""
},{
  "Name": "PWN(PWN(PWN(Sigmoid_525), PWN(Mul_526)), PWN(Mul_527))",
  "LayerType": "PointWiseV2",
  "Inputs": [
  {
    "Name": "1098",
    "Location": "Device",
    "Dimensions": [1,10,200],
    "Format/Datatype": "Row major linear FP16 format"
  },
  {
    "Name": "1092",
    "Location": "Device",
    "Dimensions": [1,10,200],
    "Format/Datatype": "Row major linear FP16 format"
  },
  {
    "Name": "768",
    "Location": "Device",
    "Dimensions": [1,10,200],
    "Format/Datatype": "Row major linear FP16 format"
  }],
  "Outputs": [
  {
    "Name": "score",
    "Location": "Device",
    "Dimensions": [1,10,200],
    "Format/Datatype": "Row major linear FP16 format"
  }],
  "ParameterType": "PointWise",
  "ParameterSubType": "PointWiseExpression",
  "NbInputArgs": 3,
  "InputArgs": ["arg0", "arg1", "arg2"],
  "NbOutputVars": 1,
  "OutputVars": ["var5"],
  "NbParams": 0,
  "Params": [],
  "NbLiterals": 5,
  "Literals": ["0.000000e+00f", "1.000000e+00f", "0.000000e+00f", "0.000000e+00f", "5.000000e-01f"],
  "NbOperations": 6,
  "Operations": ["auto const var0 = pwgen::iMul(literal4, arg0);", "auto const var1 = pwgen::iTanh(var0);", "auto const var2 = pwgen::iMul(var1, literal4);", "auto const var3 = pwgen::iPlus(var2, literal4);", "auto const var4 = pwgen::iMul(var3, arg1);", "auto const var5 = pwgen::iMul(var4, arg2);"],
  "TacticValue": "0x0000000000000000",
  "StreamId": 0,
  "Metadata": "[ONNX Layer: Sigmoid_525]\u001e[ONNX Layer: Mul_526]\u001e[ONNX Layer: Mul_527]"
},{
  "Name": "shuffle_between_Relu_501_out_tensor_and_Conv_502",
  "LayerType": "NoOp",
  "Inputs": [
  {
    "Name": "Relu_501_out_tensor",
    "Location": "Device",
    "Dimensions": [1,64,200,1],
    "Format/Datatype": "Channel major FP16 format where channel % 8 == 0"
  }],
  "Outputs": [
  {
    "Name": "shuffle_between_Relu_501_out_tensor_and_Conv_502_out_region",
    "Location": "Device",
    "Dimensions": [1,64,1,200],
    "Format/Datatype": "Channel major FP16 format where channel % 8 == 0"
  }],
  "TacticValue": "0x0000000000000000",
  "StreamId": 0,
  "Metadata": "[ONNX Layer: Conv_502]"
},{
  "Name": "Conv_502",
  "LayerType": "CaskGemmConvolution",
  "Inputs": [
  {
    "Name": "shuffle_between_Relu_501_out_tensor_and_Conv_502_out_region",
    "Location": "Device",
    "Dimensions": [1,64,1,200],
    "Format/Datatype": "Channel major FP16 format where channel % 8 == 0"
  }],
  "Outputs": [
  {
    "Name": "Conv_502_new_out_region",
    "Location": "Device",
    "Dimensions": [1,2,1,200],
    "Format/Datatype": "Channel major FP16 format where channel % 8 == 0"
  }],
  "ParameterType": "Convolution",
  "Kernel": [1,1],
  "PaddingMode": "kEXPLICIT_ROUND_DOWN",
  "PrePadding": [0,0],
  "PostPadding": [0,0],
  "Stride": [1,1],
  "Dilation": [1,1],
  "OutMaps": 2,
  "Groups": 1,
  "Weights": {"Type": "Half", "Count": 128},
  "Bias": {"Type": "Half", "Count": 2},
  "HasBias": 1,
  "HasReLU": 0,
  "HasSparseWeights": 0,
  "HasDynamicFilter": 0,
  "HasDynamicBias": 0,
  "HasResidual": 0,
  "ConvXAsActInputIdx": -1,
  "BiasAsActInputIdx": -1,
  "ResAsActInputIdx": -1,
  "Activation": "NONE",
  "TacticName": "sm80_xmma_gemm_f16f16_f16f16_f16_tn_n_tilesize32x32x64_stage6_warpsize2x2x1_tensor16x8x16",
  "TacticValue": "0x00000000000204af",
  "StreamId": 0,
  "Metadata": "[ONNX Layer: Conv_502]"
},{
  "Name": "Reformatting CopyNode for Input Tensor 0 to shuffle_after_Conv_502_output",
  "LayerType": "Reformat",
  "Inputs": [
  {
    "Name": "Conv_502_new_out_region",
    "Location": "Device",
    "Dimensions": [1,2,1,200],
    "Format/Datatype": "Channel major FP16 format where channel % 8 == 0"
  }],
  "Outputs": [
  {
    "Name": "Reformatted Input Tensor 0 to shuffle_after_Conv_502_output",
    "Location": "Device",
    "Dimensions": [1,2,1,200],
    "Format/Datatype": "Row major linear FP16 format"
  }],
  "ParameterType": "Reformat",
  "Origin": "REFORMAT",
  "TacticValue": "0x0000000000000000",
  "StreamId": 0,
  "Metadata": ""
},{
  "Name": "shuffle_after_Conv_502_output",
  "LayerType": "NoOp",
  "Inputs": [
  {
    "Name": "Reformatted Input Tensor 0 to shuffle_after_Conv_502_output",
    "Location": "Device",
    "Dimensions": [1,2,1,200],
    "Format/Datatype": "Row major linear FP16 format"
  }],
  "Outputs": [
  {
    "Name": "(Unnamed Layer* 1138) [Convolution]_output",
    "Location": "Device",
    "Dimensions": [1,2,200,1],
    "Format/Datatype": "Row major linear FP16 format"
  }],
  "TacticValue": "0x0000000000000000",
  "StreamId": 0,
  "Metadata": "[ONNX Layer: Conv_502]"
},{
  "Name": "ONNXTRT_squeezeTensor_967",
  "LayerType": "NoOp",
  "Inputs": [
  {
    "Name": "(Unnamed Layer* 1138) [Convolution]_output",
    "Location": "Device",
    "Dimensions": [1,2,200,1],
    "Format/Datatype": "Row major linear FP16 format"
  }],
  "Outputs": [
  {
    "Name": "vel",
    "Location": "Device",
    "Dimensions": [1,2,200],
    "Format/Datatype": "Row major linear FP16 format"
  }],
  "TacticValue": "0x0000000000000000",
  "StreamId": 0,
  "Metadata": ""
},{
  "Name": "shuffle_between_Relu_498_out_tensor_and_Conv_499",
  "LayerType": "NoOp",
  "Inputs": [
  {
    "Name": "Relu_498_out_tensor",
    "Location": "Device",
    "Dimensions": [1,64,200,1],
    "Format/Datatype": "Channel major FP16 format where channel % 8 == 0"
  }],
  "Outputs": [
  {
    "Name": "shuffle_between_Relu_498_out_tensor_and_Conv_499_out_region",
    "Location": "Device",
    "Dimensions": [1,64,1,200],
    "Format/Datatype": "Channel major FP16 format where channel % 8 == 0"
  }],
  "TacticValue": "0x0000000000000000",
  "StreamId": 0,
  "Metadata": "[ONNX Layer: Conv_499]"
},{
  "Name": "Conv_499",
  "LayerType": "CaskGemmConvolution",
  "Inputs": [
  {
    "Name": "shuffle_between_Relu_498_out_tensor_and_Conv_499_out_region",
    "Location": "Device",
    "Dimensions": [1,64,1,200],
    "Format/Datatype": "Channel major FP16 format where channel % 8 == 0"
  }],
  "Outputs": [
  {
    "Name": "Conv_499_new_out_region",
    "Location": "Device",
    "Dimensions": [1,2,1,200],
    "Format/Datatype": "Channel major FP16 format where channel % 8 == 0"
  }],
  "ParameterType": "Convolution",
  "Kernel": [1,1],
  "PaddingMode": "kEXPLICIT_ROUND_DOWN",
  "PrePadding": [0,0],
  "PostPadding": [0,0],
  "Stride": [1,1],
  "Dilation": [1,1],
  "OutMaps": 2,
  "Groups": 1,
  "Weights": {"Type": "Half", "Count": 128},
  "Bias": {"Type": "Half", "Count": 2},
  "HasBias": 1,
  "HasReLU": 0,
  "HasSparseWeights": 0,
  "HasDynamicFilter": 0,
  "HasDynamicBias": 0,
  "HasResidual": 0,
  "ConvXAsActInputIdx": -1,
  "BiasAsActInputIdx": -1,
  "ResAsActInputIdx": -1,
  "Activation": "NONE",
  "TacticName": "sm80_xmma_gemm_f16f16_f16f16_f16_tn_n_tilesize32x32x64_stage6_warpsize2x2x1_tensor16x8x16",
  "TacticValue": "0x00000000000204af",
  "StreamId": 0,
  "Metadata": "[ONNX Layer: Conv_499]"
},{
  "Name": "Reformatting CopyNode for Input Tensor 0 to shuffle_after_Conv_499_output",
  "LayerType": "Reformat",
  "Inputs": [
  {
    "Name": "Conv_499_new_out_region",
    "Location": "Device",
    "Dimensions": [1,2,1,200],
    "Format/Datatype": "Channel major FP16 format where channel % 8 == 0"
  }],
  "Outputs": [
  {
    "Name": "Reformatted Input Tensor 0 to shuffle_after_Conv_499_output",
    "Location": "Device",
    "Dimensions": [1,2,1,200],
    "Format/Datatype": "Row major linear FP16 format"
  }],
  "ParameterType": "Reformat",
  "Origin": "REFORMAT",
  "TacticValue": "0x0000000000000000",
  "StreamId": 0,
  "Metadata": ""
},{
  "Name": "shuffle_after_Conv_499_output",
  "LayerType": "NoOp",
  "Inputs": [
  {
    "Name": "Reformatted Input Tensor 0 to shuffle_after_Conv_499_output",
    "Location": "Device",
    "Dimensions": [1,2,1,200],
    "Format/Datatype": "Row major linear FP16 format"
  }],
  "Outputs": [
  {
    "Name": "(Unnamed Layer* 1131) [Convolution]_output",
    "Location": "Device",
    "Dimensions": [1,2,200,1],
    "Format/Datatype": "Row major linear FP16 format"
  }],
  "TacticValue": "0x0000000000000000",
  "StreamId": 0,
  "Metadata": "[ONNX Layer: Conv_499]"
},{
  "Name": "ONNXTRT_squeezeTensor_959",
  "LayerType": "NoOp",
  "Inputs": [
  {
    "Name": "(Unnamed Layer* 1131) [Convolution]_output",
    "Location": "Device",
    "Dimensions": [1,2,200,1],
    "Format/Datatype": "Row major linear FP16 format"
  }],
  "Outputs": [
  {
    "Name": "rot",
    "Location": "Device",
    "Dimensions": [1,2,200],
    "Format/Datatype": "Row major linear FP16 format"
  }],
  "TacticValue": "0x0000000000000000",
  "StreamId": 0,
  "Metadata": ""
},{
  "Name": "shuffle_between_Relu_495_out_tensor_and_Conv_496",
  "LayerType": "NoOp",
  "Inputs": [
  {
    "Name": "Relu_495_out_tensor",
    "Location": "Device",
    "Dimensions": [1,64,200,1],
    "Format/Datatype": "Channel major FP16 format where channel % 8 == 0"
  }],
  "Outputs": [
  {
    "Name": "shuffle_between_Relu_495_out_tensor_and_Conv_496_out_region",
    "Location": "Device",
    "Dimensions": [1,64,1,200],
    "Format/Datatype": "Channel major FP16 format where channel % 8 == 0"
  }],
  "TacticValue": "0x0000000000000000",
  "StreamId": 0,
  "Metadata": "[ONNX Layer: Conv_496]"
},{
  "Name": "Conv_496",
  "LayerType": "CaskGemmConvolution",
  "Inputs": [
  {
    "Name": "shuffle_between_Relu_495_out_tensor_and_Conv_496_out_region",
    "Location": "Device",
    "Dimensions": [1,64,1,200],
    "Format/Datatype": "Channel major FP16 format where channel % 8 == 0"
  }],
  "Outputs": [
  {
    "Name": "Conv_496_new_out_region",
    "Location": "Device",
    "Dimensions": [1,3,1,200],
    "Format/Datatype": "Channel major FP16 format where channel % 8 == 0"
  }],
  "ParameterType": "Convolution",
  "Kernel": [1,1],
  "PaddingMode": "kEXPLICIT_ROUND_DOWN",
  "PrePadding": [0,0],
  "PostPadding": [0,0],
  "Stride": [1,1],
  "Dilation": [1,1],
  "OutMaps": 3,
  "Groups": 1,
  "Weights": {"Type": "Half", "Count": 192},
  "Bias": {"Type": "Half", "Count": 3},
  "HasBias": 1,
  "HasReLU": 0,
  "HasSparseWeights": 0,
  "HasDynamicFilter": 0,
  "HasDynamicBias": 0,
  "HasResidual": 0,
  "ConvXAsActInputIdx": -1,
  "BiasAsActInputIdx": -1,
  "ResAsActInputIdx": -1,
  "Activation": "NONE",
  "TacticName": "sm80_xmma_gemm_f16f16_f16f16_f16_tn_n_tilesize32x32x64_stage6_warpsize2x2x1_tensor16x8x16",
  "TacticValue": "0x00000000000204af",
  "StreamId": 0,
  "Metadata": "[ONNX Layer: Conv_496]"
},{
  "Name": "shuffle_after_Conv_496_output",
  "LayerType": "NoOp",
  "Inputs": [
  {
    "Name": "Conv_496_new_out_region",
    "Location": "Device",
    "Dimensions": [1,3,1,200],
    "Format/Datatype": "Channel major FP16 format where channel % 8 == 0"
  }],
  "Outputs": [
  {
    "Name": "(Unnamed Layer* 1124) [Convolution]_output",
    "Location": "Device",
    "Dimensions": [1,3,200,1],
    "Format/Datatype": "Channel major FP16 format where channel % 8 == 0"
  }],
  "TacticValue": "0x0000000000000000",
  "StreamId": 0,
  "Metadata": "[ONNX Layer: Conv_496]"
},{
  "Name": "Reformatting CopyNode for Input Tensor 0 to ONNXTRT_squeezeTensor_951",
  "LayerType": "Reformat",
  "Inputs": [
  {
    "Name": "(Unnamed Layer* 1124) [Convolution]_output",
    "Location": "Device",
    "Dimensions": [1,3,200,1],
    "Format/Datatype": "Channel major FP16 format where channel % 8 == 0"
  }],
  "Outputs": [
  {
    "Name": "Reformatted Input Tensor 0 to ONNXTRT_squeezeTensor_951",
    "Location": "Device",
    "Dimensions": [1,3,200,1],
    "Format/Datatype": "Row major linear FP16 format"
  }],
  "ParameterType": "Reformat",
  "Origin": "REFORMAT",
  "TacticValue": "0x0000000000000000",
  "StreamId": 0,
  "Metadata": ""
},{
  "Name": "ONNXTRT_squeezeTensor_951",
  "LayerType": "NoOp",
  "Inputs": [
  {
    "Name": "Reformatted Input Tensor 0 to ONNXTRT_squeezeTensor_951",
    "Location": "Device",
    "Dimensions": [1,3,200,1],
    "Format/Datatype": "Row major linear FP16 format"
  }],
  "Outputs": [
  {
    "Name": "dim",
    "Location": "Device",
    "Dimensions": [1,3,200],
    "Format/Datatype": "Row major linear FP16 format"
  }],
  "TacticValue": "0x0000000000000000",
  "StreamId": 0,
  "Metadata": ""
},{
  "Name": "shuffle_between_Relu_492_out_tensor_and_Conv_493",
  "LayerType": "NoOp",
  "Inputs": [
  {
    "Name": "Relu_492_out_tensor",
    "Location": "Device",
    "Dimensions": [1,64,200,1],
    "Format/Datatype": "Channel major FP16 format where channel % 8 == 0"
  }],
  "Outputs": [
  {
    "Name": "shuffle_between_Relu_492_out_tensor_and_Conv_493_out_region",
    "Location": "Device",
    "Dimensions": [1,64,1,200],
    "Format/Datatype": "Channel major FP16 format where channel % 8 == 0"
  }],
  "TacticValue": "0x0000000000000000",
  "StreamId": 0,
  "Metadata": "[ONNX Layer: Conv_493]"
},{
  "Name": "Conv_493",
  "LayerType": "CaskGemmConvolution",
  "Inputs": [
  {
    "Name": "shuffle_between_Relu_492_out_tensor_and_Conv_493_out_region",
    "Location": "Device",
    "Dimensions": [1,64,1,200],
    "Format/Datatype": "Channel major FP16 format where channel % 8 == 0"
  }],
  "Outputs": [
  {
    "Name": "Conv_493_new_out_region",
    "Location": "Device",
    "Dimensions": [1,1,1,200],
    "Format/Datatype": "Channel major FP16 format where channel % 8 == 0"
  }],
  "ParameterType": "Convolution",
  "Kernel": [1,1],
  "PaddingMode": "kEXPLICIT_ROUND_DOWN",
  "PrePadding": [0,0],
  "PostPadding": [0,0],
  "Stride": [1,1],
  "Dilation": [1,1],
  "OutMaps": 1,
  "Groups": 1,
  "Weights": {"Type": "Half", "Count": 64},
  "Bias": {"Type": "Half", "Count": 1},
  "HasBias": 1,
  "HasReLU": 0,
  "HasSparseWeights": 0,
  "HasDynamicFilter": 0,
  "HasDynamicBias": 0,
  "HasResidual": 0,
  "ConvXAsActInputIdx": -1,
  "BiasAsActInputIdx": -1,
  "ResAsActInputIdx": -1,
  "Activation": "NONE",
  "TacticName": "sm80_xmma_gemm_f16f16_f16f16_f16_tn_n_tilesize32x32x64_stage6_warpsize2x2x1_tensor16x8x16",
  "TacticValue": "0x00000000000204af",
  "StreamId": 0,
  "Metadata": "[ONNX Layer: Conv_493]"
},{
  "Name": "Reformatting CopyNode for Input Tensor 0 to shuffle_after_Conv_493_output",
  "LayerType": "Reformat",
  "Inputs": [
  {
    "Name": "Conv_493_new_out_region",
    "Location": "Device",
    "Dimensions": [1,1,1,200],
    "Format/Datatype": "Channel major FP16 format where channel % 8 == 0"
  }],
  "Outputs": [
  {
    "Name": "Reformatted Input Tensor 0 to shuffle_after_Conv_493_output",
    "Location": "Device",
    "Dimensions": [1,1,1,200],
    "Format/Datatype": "Row major linear FP16 format"
  }],
  "ParameterType": "Reformat",
  "Origin": "REFORMAT",
  "TacticValue": "0x0000000000000000",
  "StreamId": 0,
  "Metadata": ""
},{
  "Name": "shuffle_after_Conv_493_output",
  "LayerType": "NoOp",
  "Inputs": [
  {
    "Name": "Reformatted Input Tensor 0 to shuffle_after_Conv_493_output",
    "Location": "Device",
    "Dimensions": [1,1,1,200],
    "Format/Datatype": "Row major linear FP16 format"
  }],
  "Outputs": [
  {
    "Name": "(Unnamed Layer* 1117) [Convolution]_output",
    "Location": "Device",
    "Dimensions": [1,1,200,1],
    "Format/Datatype": "Row major linear FP16 format"
  }],
  "TacticValue": "0x0000000000000000",
  "StreamId": 0,
  "Metadata": "[ONNX Layer: Conv_493]"
},{
  "Name": "ONNXTRT_squeezeTensor_943",
  "LayerType": "NoOp",
  "Inputs": [
  {
    "Name": "(Unnamed Layer* 1117) [Convolution]_output",
    "Location": "Device",
    "Dimensions": [1,1,200,1],
    "Format/Datatype": "Row major linear FP16 format"
  }],
  "Outputs": [
  {
    "Name": "height",
    "Location": "Device",
    "Dimensions": [1,1,200],
    "Format/Datatype": "Row major linear FP16 format"
  }],
  "TacticValue": "0x0000000000000000",
  "StreamId": 0,
  "Metadata": ""
},{
  "Name": "shuffle_between_Relu_489_out_tensor_and_Conv_490",
  "LayerType": "NoOp",
  "Inputs": [
  {
    "Name": "Relu_489_out_tensor",
    "Location": "Device",
    "Dimensions": [1,64,200,1],
    "Format/Datatype": "Channel major FP16 format where channel % 8 == 0"
  }],
  "Outputs": [
  {
    "Name": "shuffle_between_Relu_489_out_tensor_and_Conv_490_out_region",
    "Location": "Device",
    "Dimensions": [1,64,1,200],
    "Format/Datatype": "Channel major FP16 format where channel % 8 == 0"
  }],
  "TacticValue": "0x0000000000000000",
  "StreamId": 0,
  "Metadata": "[ONNX Layer: Conv_490]"
},{
  "Name": "Conv_490",
  "LayerType": "CaskGemmConvolution",
  "Inputs": [
  {
    "Name": "shuffle_between_Relu_489_out_tensor_and_Conv_490_out_region",
    "Location": "Device",
    "Dimensions": [1,64,1,200],
    "Format/Datatype": "Channel major FP16 format where channel % 8 == 0"
  }],
  "Outputs": [
  {
    "Name": "Conv_490_new_out_region",
    "Location": "Device",
    "Dimensions": [1,2,1,200],
    "Format/Datatype": "Channel major FP16 format where channel % 8 == 0"
  }],
  "ParameterType": "Convolution",
  "Kernel": [1,1],
  "PaddingMode": "kEXPLICIT_ROUND_DOWN",
  "PrePadding": [0,0],
  "PostPadding": [0,0],
  "Stride": [1,1],
  "Dilation": [1,1],
  "OutMaps": 2,
  "Groups": 1,
  "Weights": {"Type": "Half", "Count": 128},
  "Bias": {"Type": "Half", "Count": 2},
  "HasBias": 1,
  "HasReLU": 0,
  "HasSparseWeights": 0,
  "HasDynamicFilter": 0,
  "HasDynamicBias": 0,
  "HasResidual": 0,
  "ConvXAsActInputIdx": -1,
  "BiasAsActInputIdx": -1,
  "ResAsActInputIdx": -1,
  "Activation": "NONE",
  "TacticName": "sm80_xmma_gemm_f16f16_f16f16_f16_tn_n_tilesize32x32x64_stage6_warpsize2x2x1_tensor16x8x16",
  "TacticValue": "0x00000000000204af",
  "StreamId": 0,
  "Metadata": "[ONNX Layer: Conv_490]"
},{
  "Name": "Reformatting CopyNode for Input Tensor 0 to shuffle_after_Conv_490_output",
  "LayerType": "Reformat",
  "Inputs": [
  {
    "Name": "Conv_490_new_out_region",
    "Location": "Device",
    "Dimensions": [1,2,1,200],
    "Format/Datatype": "Channel major FP16 format where channel % 8 == 0"
  }],
  "Outputs": [
  {
    "Name": "Reformatted Input Tensor 0 to shuffle_after_Conv_490_output",
    "Location": "Device",
    "Dimensions": [1,2,1,200],
    "Format/Datatype": "Row major linear FP16 format"
  }],
  "ParameterType": "Reformat",
  "Origin": "REFORMAT",
  "TacticValue": "0x0000000000000000",
  "StreamId": 0,
  "Metadata": ""
},{
  "Name": "shuffle_after_Conv_490_output",
  "LayerType": "NoOp",
  "Inputs": [
  {
    "Name": "Reformatted Input Tensor 0 to shuffle_after_Conv_490_output",
    "Location": "Device",
    "Dimensions": [1,2,1,200],
    "Format/Datatype": "Row major linear FP16 format"
  }],
  "Outputs": [
  {
    "Name": "(Unnamed Layer* 1110) [Convolution]_output",
    "Location": "Device",
    "Dimensions": [1,2,200,1],
    "Format/Datatype": "Row major linear FP16 format"
  }],
  "TacticValue": "0x0000000000000000",
  "StreamId": 0,
  "Metadata": "[ONNX Layer: Conv_490]"
},{
  "Name": "ONNXTRT_squeezeTensor_935",
  "LayerType": "NoOp",
  "Inputs": [
  {
    "Name": "(Unnamed Layer* 1110) [Convolution]_output",
    "Location": "Device",
    "Dimensions": [1,2,200,1],
    "Format/Datatype": "Row major linear FP16 format"
  }],
  "Outputs": [
  {
    "Name": "1058",
    "Location": "Device",
    "Dimensions": [1,2,200],
    "Format/Datatype": "Row major linear FP16 format"
  }],
  "TacticValue": "0x0000000000000000",
  "StreamId": 0,
  "Metadata": ""
},{
  "Name": "__myl_TraAdd_myl89_0",
  "LayerType": "kgen",
  "Inputs": [
  {
    "Name": "1058",
    "Dimensions": [1,2,200],
    "Format/Datatype": "Half"
  },
  {
    "Name": "783",
    "Dimensions": [1,200,2],
    "Format/Datatype": "Half"
  }],
  "Outputs": [
  {
    "Name": "reg",
    "Dimensions": [1,2,200],
    "Format/Datatype": "Half"
  }],
  "TacticName": "__myl_TraAdd_0x829b0e91328c4b984f52e2f650a10611",
  "StreamId": 0,
  "Metadata": "[ONNX Layer: Transpose_506]\u001f[ONNX Layer: Add_507]"
}],
"Bindings": ["middle"
,"score"
,"rot"
,"dim"
,"reg"
,"height"
,"vel"
]}
