{"Layers": [{
  "Name": "QuantizeLinear_28",
  "LayerType": "Reformat",
  "Inputs": [
  {
    "Name": "img",
    "Location": "Device",
    "Dimensions": [1,6,3,256,704],
    "Format/Datatype": "Row major linear FP16 format"
  }],
  "Outputs": [
  {
    "Name": "535",
    "Location": "Device",
    "Dimensions": [1,6,3,256,704],
    "Format/Datatype": "Row major Int8 format"
  }],
  "ParameterType": "Reformat",
  "Origin": "QDQ",
  "TacticValue": "0x0000000000000000",
  "StreamId": 0,
  "Metadata": "[ONNX Layer: QuantizeLinear_28]"
},{
  "Name": "QuantizeLinear_827",
  "LayerType": "Reformat",
  "Inputs": [
  {
    "Name": "depth",
    "Location": "Device",
    "Dimensions": [1,6,1,256,704],
    "Format/Datatype": "Row major linear FP16 format"
  }],
  "Outputs": [
  {
    "Name": "1469",
    "Location": "Device",
    "Dimensions": [1,6,1,256,704],
    "Format/Datatype": "Row major Int8 format"
  }],
  "ParameterType": "Reformat",
  "Origin": "QDQ",
  "TacticValue": "0x00000000000003e8",
  "StreamId": 0,
  "Metadata": "[ONNX Layer: QuantizeLinear_827]"
},{
  "Name": "Reshape_25",
  "LayerType": "NoOp",
  "Inputs": [
  {
    "Name": "535",
    "Location": "Device",
    "Dimensions": [1,6,3,256,704],
    "Format/Datatype": "Row major Int8 format"
  }],
  "Outputs": [
  {
    "Name": "538",
    "Location": "Device",
    "Dimensions": [6,3,256,704],
    "Format/Datatype": "Row major Int8 format"
  }],
  "TacticValue": "0x0000000000000000",
  "StreamId": 0,
  "Metadata": "[ONNX Layer: Reshape_25]"
},{
  "Name": "Reshape_822",
  "LayerType": "NoOp",
  "Inputs": [
  {
    "Name": "1469",
    "Location": "Device",
    "Dimensions": [1,6,1,256,704],
    "Format/Datatype": "Row major Int8 format"
  }],
  "Outputs": [
  {
    "Name": "1474",
    "Location": "Device",
    "Dimensions": [6,1,256,704],
    "Format/Datatype": "Row major Int8 format"
  }],
  "TacticValue": "0x0000000000000000",
  "StreamId": 0,
  "Metadata": "[ONNX Layer: Reshape_822]"
},{
  "Name": "Reformatting CopyNode for Input Tensor 0 to model.encoders.camera.vtransform.dtransform.0.weight + QuantizeLinear_832 + Conv_834 + Relu_835",
  "LayerType": "Reformat",
  "Inputs": [
  {
    "Name": "1474",
    "Location": "Device",
    "Dimensions": [6,1,256,704],
    "Format/Datatype": "Row major Int8 format"
  }],
  "Outputs": [
  {
    "Name": "Reformatted Input Tensor 0 to model.encoders.camera.vtransform.dtransform.0.weight + QuantizeLinear_832 + Conv_834 + Relu_835",
    "Location": "Device",
    "Dimensions": [6,1,256,704],
    "Format/Datatype": "Four wide channel vectorized row major Int8 format"
  }],
  "ParameterType": "Reformat",
  "Origin": "REFORMAT",
  "TacticValue": "0x00000000000003ea",
  "StreamId": 0,
  "Metadata": ""
},{
  "Name": "model.encoders.camera.vtransform.dtransform.0.weight + QuantizeLinear_832 + Conv_834 + Relu_835",
  "LayerType": "CaskConvolution",
  "Inputs": [
  {
    "Name": "Reformatted Input Tensor 0 to model.encoders.camera.vtransform.dtransform.0.weight + QuantizeLinear_832 + Conv_834 + Relu_835",
    "Location": "Device",
    "Dimensions": [6,1,256,704],
    "Format/Datatype": "Four wide channel vectorized row major Int8 format"
  }],
  "Outputs": [
  {
    "Name": "1487",
    "Location": "Device",
    "Dimensions": [6,8,256,704],
    "Format/Datatype": "Thirty-two wide channel vectorized row major Int8 format"
  }],
  "ParameterType": "Convolution",
  "Kernel": [1,1],
  "PaddingMode": "kEXPLICIT_ROUND_DOWN",
  "PrePadding": [0,0],
  "PostPadding": [0,0],
  "Stride": [1,1],
  "Dilation": [1,1],
  "OutMaps": 8,
  "Groups": 1,
  "Weights": {"Type": "Int8", "Count": 8},
  "Bias": {"Type": "Float", "Count": 8},
  "HasBias": 1,
  "HasReLU": 1,
  "HasSparseWeights": 0,
  "HasDynamicFilter": 0,
  "HasDynamicBias": 0,
  "HasResidual": 0,
  "ConvXAsActInputIdx": -1,
  "BiasAsActInputIdx": -1,
  "ResAsActInputIdx": -1,
  "Activation": "RELU",
  "TacticName": "sm80_xmma_fprop_first_layer_i8i8_i8i32_f32_nchw_vect_c_4kcrs_vect_c_4_nchw_vect_c_32_tilesize16x16x32x32_stage1_warpsize4x1x1_tensor16x8x16_r1s1_u1v1_aligna4_alignc8",
  "TacticValue": "0x70099a996b926afe",
  "StreamId": 0,
  "Metadata": "[ONNX Layer: QuantizeLinear_832]\u001e[ONNX Layer: Conv_834]\u001e[ONNX Layer: Relu_835]\u001e[ONNX Layer: QuantizeLinear_838]\u001e[ONNX Layer: DequantizeLinear_830]\u001e[ONNX Layer: QuantizeLinear_827]\u001e[ONNX Layer: DequantizeLinear_833]"
},{
  "Name": "model.encoders.camera.backbone.conv1.weight + QuantizeLinear_33 + Conv_35 + Relu_36 + MaxPool_37",
  "LayerType": "CaskConvActPool",
  "Inputs": [
  {
    "Name": "538",
    "Location": "Device",
    "Dimensions": [6,3,256,704],
    "Format/Datatype": "Row major Int8 format"
  }],
  "Outputs": [
  {
    "Name": "552",
    "Location": "Device",
    "Dimensions": [6,64,64,176],
    "Format/Datatype": "Thirty-two wide channel vectorized row major Int8 format"
  }],
  "ParameterType": "ConvActPool",
  "ConvParameterType": "Convolution",
  "ConvKernel": [7,7],
  "ConvPaddingMode": "kEXPLICIT_ROUND_DOWN",
  "ConvPrePadding": [3,3],
  "ConvPostPadding": [3,3],
  "ConvStride": [2,2],
  "ConvDilation": [1,1],
  "ConvOutMaps": 64,
  "ConvGroups": 1,
  "ConvWeights": {"Type": "Int8", "Count": 9408},
  "ConvBias": {"Type": "Float", "Count": 64},
  "ConvHasBias": 1,
  "ConvHasReLU": 1,
  "ConvHasSparseWeights": 0,
  "ConvHasDynamicFilter": 0,
  "ConvHasDynamicBias": 0,
  "ConvHasResidual": 0,
  "ConvConvXAsActInputIdx": -1,
  "ConvBiasAsActInputIdx": -1,
  "ConvResAsActInputIdx": -1,
  "ConvActivation": "RELU",
  "PoolingParameterType": "Pooling",
  "PoolingPoolingType": "MAX",
  "PoolingWindowSize": [3,3],
  "PoolingPaddingMode": "kEXPLICIT_ROUND_DOWN",
  "PoolingPrePadding": [1,1],
  "PoolingPostPadding": [1,1],
  "PoolingStride": [2,2],
  "PoolingBlendFactor": 0,
  "PoolingAverageCountExcludesPadding": 1,
  "TacticValue": "0x6e4d6ab7ddc1d116",
  "StreamId": 0,
  "Metadata": "[ONNX Layer: QuantizeLinear_33]\u001e[ONNX Layer: Conv_35]\u001e[ONNX Layer: Relu_36]\u001e[ONNX Layer: QuantizeLinear_40]\u001e[ONNX Layer: QuantizeLinear_72]\u001e[ONNX Layer: DequantizeLinear_31]\u001e[ONNX Layer: QuantizeLinear_28]\u001e[ONNX Layer: DequantizeLinear_34]\u001e[ONNX Layer: MaxPool_37]"
},{
  "Name": "model.encoders.camera.vtransform.dtransform.3.weight + QuantizeLinear_843 + Conv_845 + Relu_846",
  "LayerType": "CaskConvolution",
  "Inputs": [
  {
    "Name": "1487",
    "Location": "Device",
    "Dimensions": [6,8,256,704],
    "Format/Datatype": "Thirty-two wide channel vectorized row major Int8 format"
  }],
  "Outputs": [
  {
    "Name": "1500",
    "Location": "Device",
    "Dimensions": [6,32,64,176],
    "Format/Datatype": "Thirty-two wide channel vectorized row major Int8 format"
  }],
  "ParameterType": "Convolution",
  "Kernel": [5,5],
  "PaddingMode": "kEXPLICIT_ROUND_DOWN",
  "PrePadding": [2,2],
  "PostPadding": [2,2],
  "Stride": [4,4],
  "Dilation": [1,1],
  "OutMaps": 32,
  "Groups": 1,
  "Weights": {"Type": "Int8", "Count": 6400},
  "Bias": {"Type": "Float", "Count": 32},
  "HasBias": 1,
  "HasReLU": 1,
  "HasSparseWeights": 0,
  "HasDynamicFilter": 0,
  "HasDynamicBias": 0,
  "HasResidual": 0,
  "ConvXAsActInputIdx": -1,
  "BiasAsActInputIdx": -1,
  "ResAsActInputIdx": -1,
  "Activation": "RELU",
  "TacticName": "sm80_xmma_fprop_implicit_gemm_interleaved_i8i8_i8i32_f32_nchw_vect_c_32kcrs_vect_c_32_nchw_vect_c_32_tilesize96x32x64_stage4_warpsize2x1x1_g1_tensor16x8x32_t1r5s5",
  "TacticValue": "0x9f0e4a956b59d05f",
  "StreamId": 0,
  "Metadata": "[ONNX Layer: QuantizeLinear_843]\u001e[ONNX Layer: Conv_845]\u001e[ONNX Layer: Relu_846]\u001e[ONNX Layer: QuantizeLinear_849]\u001e[ONNX Layer: DequantizeLinear_841]\u001e[ONNX Layer: QuantizeLinear_838]\u001e[ONNX Layer: DequantizeLinear_844]"
},{
  "Name": "model.encoders.camera.backbone.layer1.0.conv1.weight + QuantizeLinear_45 + Conv_47 + Relu_48",
  "LayerType": "CaskConvolution",
  "Inputs": [
  {
    "Name": "552",
    "Location": "Device",
    "Dimensions": [6,64,64,176],
    "Format/Datatype": "Thirty-two wide channel vectorized row major Int8 format"
  }],
  "Outputs": [
  {
    "Name": "565",
    "Location": "Device",
    "Dimensions": [6,64,64,176],
    "Format/Datatype": "Thirty-two wide channel vectorized row major Int8 format"
  }],
  "ParameterType": "Convolution",
  "Kernel": [1,1],
  "PaddingMode": "kEXPLICIT_ROUND_DOWN",
  "PrePadding": [0,0],
  "PostPadding": [0,0],
  "Stride": [1,1],
  "Dilation": [1,1],
  "OutMaps": 64,
  "Groups": 1,
  "Weights": {"Type": "Int8", "Count": 4096},
  "Bias": {"Type": "Float", "Count": 64},
  "HasBias": 1,
  "HasReLU": 1,
  "HasSparseWeights": 0,
  "HasDynamicFilter": 0,
  "HasDynamicBias": 0,
  "HasResidual": 0,
  "ConvXAsActInputIdx": -1,
  "BiasAsActInputIdx": -1,
  "ResAsActInputIdx": -1,
  "Activation": "RELU",
  "TacticName": "sm80_xmma_fprop_implicit_gemm_interleaved_i8i8_i8i32_f32_nchw_vect_c_32kcrs_vect_c_32_nchw_vect_c_32_tilesize256x64x64_stage4_warpsize4x1x1_g1_tensor16x8x32_simple_t1r1s1",
  "TacticValue": "0x4f35593c356e2e7e",
  "StreamId": 0,
  "Metadata": "[ONNX Layer: QuantizeLinear_45]\u001e[ONNX Layer: Conv_47]\u001e[ONNX Layer: Relu_48]\u001e[ONNX Layer: QuantizeLinear_51]\u001e[ONNX Layer: DequantizeLinear_43]\u001e[ONNX Layer: QuantizeLinear_40]\u001e[ONNX Layer: DequantizeLinear_46]"
},{
  "Name": "model.encoders.camera.backbone.layer1.0.downsample.0.weight + QuantizeLinear_77 + Conv_79",
  "LayerType": "CaskConvolution",
  "Inputs": [
  {
    "Name": "552",
    "Location": "Device",
    "Dimensions": [6,64,64,176],
    "Format/Datatype": "Thirty-two wide channel vectorized row major Int8 format"
  }],
  "Outputs": [
  {
    "Name": "602",
    "Location": "Device",
    "Dimensions": [6,256,64,176],
    "Format/Datatype": "Thirty-two wide channel vectorized row major Int8 format"
  }],
  "ParameterType": "Convolution",
  "Kernel": [1,1],
  "PaddingMode": "kEXPLICIT_ROUND_DOWN",
  "PrePadding": [0,0],
  "PostPadding": [0,0],
  "Stride": [1,1],
  "Dilation": [1,1],
  "OutMaps": 256,
  "Groups": 1,
  "Weights": {"Type": "Int8", "Count": 16384},
  "Bias": {"Type": "Float", "Count": 256},
  "HasBias": 1,
  "HasReLU": 0,
  "HasSparseWeights": 0,
  "HasDynamicFilter": 0,
  "HasDynamicBias": 0,
  "HasResidual": 0,
  "ConvXAsActInputIdx": -1,
  "BiasAsActInputIdx": -1,
  "ResAsActInputIdx": -1,
  "Activation": "NONE",
  "TacticName": "sm80_xmma_fprop_implicit_gemm_interleaved_i8i8_i8i32_f32_nchw_vect_c_32kcrs_vect_c_32_nchw_vect_c_32_tilesize96x32x64_stage4_warpsize2x1x1_g1_tensor16x8x32_t1r1s1",
  "TacticValue": "0x18f10c3bd17f3940",
  "StreamId": 0,
  "Metadata": "[ONNX Layer: QuantizeLinear_77]\u001e[ONNX Layer: Conv_79]\u001e[ONNX Layer: QuantizeLinear_82]\u001e[ONNX Layer: DequantizeLinear_75]\u001e[ONNX Layer: QuantizeLinear_40]\u001e[ONNX Layer: DequantizeLinear_78]"
},{
  "Name": "model.encoders.camera.vtransform.dtransform.6.weight + QuantizeLinear_854 + Conv_856 + Relu_857",
  "LayerType": "CaskConvolution",
  "Inputs": [
  {
    "Name": "1500",
    "Location": "Device",
    "Dimensions": [6,32,64,176],
    "Format/Datatype": "Thirty-two wide channel vectorized row major Int8 format"
  }],
  "Outputs": [
  {
    "Name": "1514",
    "Location": "Device",
    "Dimensions": [6,64,32,88],
    "Format/Datatype": "Thirty-two wide channel vectorized row major Int8 format"
  }],
  "ParameterType": "Convolution",
  "Kernel": [5,5],
  "PaddingMode": "kEXPLICIT_ROUND_DOWN",
  "PrePadding": [2,2],
  "PostPadding": [2,2],
  "Stride": [2,2],
  "Dilation": [1,1],
  "OutMaps": 64,
  "Groups": 1,
  "Weights": {"Type": "Int8", "Count": 51200},
  "Bias": {"Type": "Float", "Count": 64},
  "HasBias": 1,
  "HasReLU": 1,
  "HasSparseWeights": 0,
  "HasDynamicFilter": 0,
  "HasDynamicBias": 0,
  "HasResidual": 0,
  "ConvXAsActInputIdx": -1,
  "BiasAsActInputIdx": -1,
  "ResAsActInputIdx": -1,
  "Activation": "RELU",
  "TacticName": "sm80_xmma_fprop_implicit_gemm_interleaved_i8i8_i8i32_f32_nchw_vect_c_32kcrs_vect_c_32_nchw_vect_c_32_tilesize192x64x64_stage3_warpsize4x1x1_g1_tensor16x8x32_t1r5s5",
  "TacticValue": "0xe26d490273886882",
  "StreamId": 0,
  "Metadata": "[ONNX Layer: QuantizeLinear_854]\u001e[ONNX Layer: Conv_856]\u001e[ONNX Layer: Relu_857]\u001e[ONNX Layer: QuantizeLinear_861]\u001e[ONNX Layer: DequantizeLinear_852]\u001e[ONNX Layer: QuantizeLinear_849]\u001e[ONNX Layer: DequantizeLinear_855]"
},{
  "Name": "model.encoders.camera.backbone.layer1.0.conv2.weight + QuantizeLinear_56 + Conv_58 + Relu_59",
  "LayerType": "CaskConvolution",
  "Inputs": [
  {
    "Name": "565",
    "Location": "Device",
    "Dimensions": [6,64,64,176],
    "Format/Datatype": "Thirty-two wide channel vectorized row major Int8 format"
  }],
  "Outputs": [
  {
    "Name": "578",
    "Location": "Device",
    "Dimensions": [6,64,64,176],
    "Format/Datatype": "Thirty-two wide channel vectorized row major Int8 format"
  }],
  "ParameterType": "Convolution",
  "Kernel": [3,3],
  "PaddingMode": "kEXPLICIT_ROUND_DOWN",
  "PrePadding": [1,1],
  "PostPadding": [1,1],
  "Stride": [1,1],
  "Dilation": [1,1],
  "OutMaps": 64,
  "Groups": 1,
  "Weights": {"Type": "Int8", "Count": 36864},
  "Bias": {"Type": "Float", "Count": 64},
  "HasBias": 1,
  "HasReLU": 1,
  "HasSparseWeights": 0,
  "HasDynamicFilter": 0,
  "HasDynamicBias": 0,
  "HasResidual": 0,
  "ConvXAsActInputIdx": -1,
  "BiasAsActInputIdx": -1,
  "ResAsActInputIdx": -1,
  "Activation": "RELU",
  "TacticName": "sm80_xmma_fprop_avdt_dense_int8int8_tilesize64x256x32_tapsperload3_threadspercta128_r3s3_u1v1_scalebias_relu",
  "TacticValue": "0x9dafb2758560cc1d",
  "StreamId": 0,
  "Metadata": "[ONNX Layer: QuantizeLinear_56]\u001e[ONNX Layer: Conv_58]\u001e[ONNX Layer: Relu_59]\u001e[ONNX Layer: QuantizeLinear_62]\u001e[ONNX Layer: DequantizeLinear_54]\u001e[ONNX Layer: QuantizeLinear_51]\u001e[ONNX Layer: DequantizeLinear_57]"
},{
  "Name": "model.encoders.camera.backbone.layer1.0.conv3.weight + QuantizeLinear_67 + Conv_69 + Add_86 + Relu_87",
  "LayerType": "CaskConvolution",
  "Inputs": [
  {
    "Name": "578",
    "Location": "Device",
    "Dimensions": [6,64,64,176],
    "Format/Datatype": "Thirty-two wide channel vectorized row major Int8 format"
  },
  {
    "Name": "602",
    "Location": "Device",
    "Dimensions": [6,256,64,176],
    "Format/Datatype": "Thirty-two wide channel vectorized row major Int8 format"
  }],
  "Outputs": [
  {
    "Name": "610",
    "Location": "Device",
    "Dimensions": [6,256,64,176],
    "Format/Datatype": "Thirty-two wide channel vectorized row major Int8 format"
  }],
  "ParameterType": "Convolution",
  "Kernel": [1,1],
  "PaddingMode": "kEXPLICIT_ROUND_DOWN",
  "PrePadding": [0,0],
  "PostPadding": [0,0],
  "Stride": [1,1],
  "Dilation": [1,1],
  "OutMaps": 256,
  "Groups": 1,
  "Weights": {"Type": "Int8", "Count": 16384},
  "Bias": {"Type": "Float", "Count": 256},
  "HasBias": 1,
  "HasReLU": 1,
  "HasSparseWeights": 0,
  "HasDynamicFilter": 0,
  "HasDynamicBias": 0,
  "HasResidual": 1,
  "ConvXAsActInputIdx": -1,
  "BiasAsActInputIdx": -1,
  "ResAsActInputIdx": -1,
  "Activation": "RELU",
  "TacticName": "sm80_xmma_fprop_implicit_gemm_interleaved_i8i8_i8i32_f32_nchw_vect_c_32kcrs_vect_c_32_nchw_vect_c_32_tilesize128x128x64_stage4_warpsize2x2x1_g1_tensor16x8x32_simple_t1r1s1",
  "TacticValue": "0x5e4918ccf433630e",
  "StreamId": 0,
  "Metadata": "[ONNX Layer: QuantizeLinear_67]\u001e[ONNX Layer: Conv_69]\u001e[ONNX Layer: QuantizeLinear_90]\u001e[ONNX Layer: QuantizeLinear_122]\u001e[ONNX Layer: DequantizeLinear_65]\u001e[ONNX Layer: QuantizeLinear_62]\u001e[ONNX Layer: DequantizeLinear_68]\u001e[ONNX Layer: Add_86]\u001e[ONNX Layer: Relu_87]\u001e[ONNX Layer: DequantizeLinear_85]\u001e[ONNX Layer: QuantizeLinear_82]"
},{
  "Name": "model.encoders.camera.backbone.layer1.1.conv1.weight + QuantizeLinear_95 + Conv_97 + Relu_98",
  "LayerType": "CaskConvolution",
  "Inputs": [
  {
    "Name": "610",
    "Location": "Device",
    "Dimensions": [6,256,64,176],
    "Format/Datatype": "Thirty-two wide channel vectorized row major Int8 format"
  }],
  "Outputs": [
  {
    "Name": "623",
    "Location": "Device",
    "Dimensions": [6,64,64,176],
    "Format/Datatype": "Thirty-two wide channel vectorized row major Int8 format"
  }],
  "ParameterType": "Convolution",
  "Kernel": [1,1],
  "PaddingMode": "kEXPLICIT_ROUND_DOWN",
  "PrePadding": [0,0],
  "PostPadding": [0,0],
  "Stride": [1,1],
  "Dilation": [1,1],
  "OutMaps": 64,
  "Groups": 1,
  "Weights": {"Type": "Int8", "Count": 16384},
  "Bias": {"Type": "Float", "Count": 64},
  "HasBias": 1,
  "HasReLU": 1,
  "HasSparseWeights": 0,
  "HasDynamicFilter": 0,
  "HasDynamicBias": 0,
  "HasResidual": 0,
  "ConvXAsActInputIdx": -1,
  "BiasAsActInputIdx": -1,
  "ResAsActInputIdx": -1,
  "Activation": "RELU",
  "TacticName": "sm80_xmma_fprop_implicit_gemm_interleaved_i8i8_i8i32_f32_nchw_vect_c_32kcrs_vect_c_32_nchw_vect_c_32_tilesize192x64x64_stage3_warpsize4x1x1_g1_tensor16x8x32_simple_t1r1s1",
  "TacticValue": "0xa086b8faeb42b254",
  "StreamId": 0,
  "Metadata": "[ONNX Layer: QuantizeLinear_95]\u001e[ONNX Layer: Conv_97]\u001e[ONNX Layer: Relu_98]\u001e[ONNX Layer: QuantizeLinear_101]\u001e[ONNX Layer: DequantizeLinear_93]\u001e[ONNX Layer: QuantizeLinear_90]\u001e[ONNX Layer: DequantizeLinear_96]"
},{
  "Name": "model.encoders.camera.backbone.layer1.1.conv2.weight + QuantizeLinear_106 + Conv_108 + Relu_109",
  "LayerType": "CaskConvolution",
  "Inputs": [
  {
    "Name": "623",
    "Location": "Device",
    "Dimensions": [6,64,64,176],
    "Format/Datatype": "Thirty-two wide channel vectorized row major Int8 format"
  }],
  "Outputs": [
  {
    "Name": "636",
    "Location": "Device",
    "Dimensions": [6,64,64,176],
    "Format/Datatype": "Thirty-two wide channel vectorized row major Int8 format"
  }],
  "ParameterType": "Convolution",
  "Kernel": [3,3],
  "PaddingMode": "kEXPLICIT_ROUND_DOWN",
  "PrePadding": [1,1],
  "PostPadding": [1,1],
  "Stride": [1,1],
  "Dilation": [1,1],
  "OutMaps": 64,
  "Groups": 1,
  "Weights": {"Type": "Int8", "Count": 36864},
  "Bias": {"Type": "Float", "Count": 64},
  "HasBias": 1,
  "HasReLU": 1,
  "HasSparseWeights": 0,
  "HasDynamicFilter": 0,
  "HasDynamicBias": 0,
  "HasResidual": 0,
  "ConvXAsActInputIdx": -1,
  "BiasAsActInputIdx": -1,
  "ResAsActInputIdx": -1,
  "Activation": "RELU",
  "TacticName": "sm80_xmma_fprop_avdt_dense_int8int8_tilesize64x256x32_tapsperload3_threadspercta128_r3s3_u1v1_scalebias_relu",
  "TacticValue": "0x9dafb2758560cc1d",
  "StreamId": 0,
  "Metadata": "[ONNX Layer: QuantizeLinear_106]\u001e[ONNX Layer: Conv_108]\u001e[ONNX Layer: Relu_109]\u001e[ONNX Layer: QuantizeLinear_112]\u001e[ONNX Layer: DequantizeLinear_104]\u001e[ONNX Layer: QuantizeLinear_101]\u001e[ONNX Layer: DequantizeLinear_107]"
},{
  "Name": "model.encoders.camera.backbone.layer1.1.conv3.weight + QuantizeLinear_117 + Conv_119 + Add_126 + Relu_127",
  "LayerType": "CaskConvolution",
  "Inputs": [
  {
    "Name": "636",
    "Location": "Device",
    "Dimensions": [6,64,64,176],
    "Format/Datatype": "Thirty-two wide channel vectorized row major Int8 format"
  },
  {
    "Name": "610",
    "Location": "Device",
    "Dimensions": [6,256,64,176],
    "Format/Datatype": "Thirty-two wide channel vectorized row major Int8 format"
  }],
  "Outputs": [
  {
    "Name": "656",
    "Location": "Device",
    "Dimensions": [6,256,64,176],
    "Format/Datatype": "Thirty-two wide channel vectorized row major Int8 format"
  }],
  "ParameterType": "Convolution",
  "Kernel": [1,1],
  "PaddingMode": "kEXPLICIT_ROUND_DOWN",
  "PrePadding": [0,0],
  "PostPadding": [0,0],
  "Stride": [1,1],
  "Dilation": [1,1],
  "OutMaps": 256,
  "Groups": 1,
  "Weights": {"Type": "Int8", "Count": 16384},
  "Bias": {"Type": "Float", "Count": 256},
  "HasBias": 1,
  "HasReLU": 1,
  "HasSparseWeights": 0,
  "HasDynamicFilter": 0,
  "HasDynamicBias": 0,
  "HasResidual": 1,
  "ConvXAsActInputIdx": -1,
  "BiasAsActInputIdx": -1,
  "ResAsActInputIdx": -1,
  "Activation": "RELU",
  "TacticName": "sm80_xmma_fprop_implicit_gemm_interleaved_i8i8_i8i32_f32_nchw_vect_c_32kcrs_vect_c_32_nchw_vect_c_32_tilesize128x128x64_stage4_warpsize2x2x1_g1_tensor16x8x32_simple_t1r1s1",
  "TacticValue": "0x5e4918ccf433630e",
  "StreamId": 0,
  "Metadata": "[ONNX Layer: QuantizeLinear_117]\u001e[ONNX Layer: Conv_119]\u001e[ONNX Layer: QuantizeLinear_130]\u001e[ONNX Layer: QuantizeLinear_162]\u001e[ONNX Layer: DequantizeLinear_115]\u001e[ONNX Layer: QuantizeLinear_112]\u001e[ONNX Layer: DequantizeLinear_118]\u001e[ONNX Layer: Add_126]\u001e[ONNX Layer: Relu_127]\u001e[ONNX Layer: DequantizeLinear_125]\u001e[ONNX Layer: QuantizeLinear_90]"
},{
  "Name": "model.encoders.camera.backbone.layer1.2.conv1.weight + QuantizeLinear_135 + Conv_137 + Relu_138",
  "LayerType": "CaskConvolution",
  "Inputs": [
  {
    "Name": "656",
    "Location": "Device",
    "Dimensions": [6,256,64,176],
    "Format/Datatype": "Thirty-two wide channel vectorized row major Int8 format"
  }],
  "Outputs": [
  {
    "Name": "669",
    "Location": "Device",
    "Dimensions": [6,64,64,176],
    "Format/Datatype": "Thirty-two wide channel vectorized row major Int8 format"
  }],
  "ParameterType": "Convolution",
  "Kernel": [1,1],
  "PaddingMode": "kEXPLICIT_ROUND_DOWN",
  "PrePadding": [0,0],
  "PostPadding": [0,0],
  "Stride": [1,1],
  "Dilation": [1,1],
  "OutMaps": 64,
  "Groups": 1,
  "Weights": {"Type": "Int8", "Count": 16384},
  "Bias": {"Type": "Float", "Count": 64},
  "HasBias": 1,
  "HasReLU": 1,
  "HasSparseWeights": 0,
  "HasDynamicFilter": 0,
  "HasDynamicBias": 0,
  "HasResidual": 0,
  "ConvXAsActInputIdx": -1,
  "BiasAsActInputIdx": -1,
  "ResAsActInputIdx": -1,
  "Activation": "RELU",
  "TacticName": "sm80_xmma_fprop_implicit_gemm_interleaved_i8i8_i8i32_f32_nchw_vect_c_32kcrs_vect_c_32_nchw_vect_c_32_tilesize192x64x64_stage3_warpsize4x1x1_g1_tensor16x8x32_simple_t1r1s1",
  "TacticValue": "0xa086b8faeb42b254",
  "StreamId": 0,
  "Metadata": "[ONNX Layer: QuantizeLinear_135]\u001e[ONNX Layer: Conv_137]\u001e[ONNX Layer: Relu_138]\u001e[ONNX Layer: QuantizeLinear_141]\u001e[ONNX Layer: DequantizeLinear_133]\u001e[ONNX Layer: QuantizeLinear_130]\u001e[ONNX Layer: DequantizeLinear_136]"
},{
  "Name": "model.encoders.camera.backbone.layer1.2.conv2.weight + QuantizeLinear_146 + Conv_148 + Relu_149",
  "LayerType": "CaskConvolution",
  "Inputs": [
  {
    "Name": "669",
    "Location": "Device",
    "Dimensions": [6,64,64,176],
    "Format/Datatype": "Thirty-two wide channel vectorized row major Int8 format"
  }],
  "Outputs": [
  {
    "Name": "682",
    "Location": "Device",
    "Dimensions": [6,64,64,176],
    "Format/Datatype": "Thirty-two wide channel vectorized row major Int8 format"
  }],
  "ParameterType": "Convolution",
  "Kernel": [3,3],
  "PaddingMode": "kEXPLICIT_ROUND_DOWN",
  "PrePadding": [1,1],
  "PostPadding": [1,1],
  "Stride": [1,1],
  "Dilation": [1,1],
  "OutMaps": 64,
  "Groups": 1,
  "Weights": {"Type": "Int8", "Count": 36864},
  "Bias": {"Type": "Float", "Count": 64},
  "HasBias": 1,
  "HasReLU": 1,
  "HasSparseWeights": 0,
  "HasDynamicFilter": 0,
  "HasDynamicBias": 0,
  "HasResidual": 0,
  "ConvXAsActInputIdx": -1,
  "BiasAsActInputIdx": -1,
  "ResAsActInputIdx": -1,
  "Activation": "RELU",
  "TacticName": "sm80_xmma_fprop_avdt_dense_int8int8_tilesize64x256x32_tapsperload3_threadspercta128_r3s3_u1v1_scalebias_relu",
  "TacticValue": "0x9dafb2758560cc1d",
  "StreamId": 0,
  "Metadata": "[ONNX Layer: QuantizeLinear_146]\u001e[ONNX Layer: Conv_148]\u001e[ONNX Layer: Relu_149]\u001e[ONNX Layer: QuantizeLinear_152]\u001e[ONNX Layer: DequantizeLinear_144]\u001e[ONNX Layer: QuantizeLinear_141]\u001e[ONNX Layer: DequantizeLinear_147]"
},{
  "Name": "model.encoders.camera.backbone.layer1.2.conv3.weight + QuantizeLinear_157 + Conv_159 + Add_166 + Relu_167",
  "LayerType": "CaskConvolution",
  "Inputs": [
  {
    "Name": "682",
    "Location": "Device",
    "Dimensions": [6,64,64,176],
    "Format/Datatype": "Thirty-two wide channel vectorized row major Int8 format"
  },
  {
    "Name": "656",
    "Location": "Device",
    "Dimensions": [6,256,64,176],
    "Format/Datatype": "Thirty-two wide channel vectorized row major Int8 format"
  }],
  "Outputs": [
  {
    "Name": "702",
    "Location": "Device",
    "Dimensions": [6,256,64,176],
    "Format/Datatype": "Thirty-two wide channel vectorized row major Int8 format"
  }],
  "ParameterType": "Convolution",
  "Kernel": [1,1],
  "PaddingMode": "kEXPLICIT_ROUND_DOWN",
  "PrePadding": [0,0],
  "PostPadding": [0,0],
  "Stride": [1,1],
  "Dilation": [1,1],
  "OutMaps": 256,
  "Groups": 1,
  "Weights": {"Type": "Int8", "Count": 16384},
  "Bias": {"Type": "Float", "Count": 256},
  "HasBias": 1,
  "HasReLU": 1,
  "HasSparseWeights": 0,
  "HasDynamicFilter": 0,
  "HasDynamicBias": 0,
  "HasResidual": 1,
  "ConvXAsActInputIdx": -1,
  "BiasAsActInputIdx": -1,
  "ResAsActInputIdx": -1,
  "Activation": "RELU",
  "TacticName": "sm80_xmma_fprop_implicit_gemm_interleaved_i8i8_i8i32_f32_nchw_vect_c_32kcrs_vect_c_32_nchw_vect_c_32_tilesize128x128x64_stage4_warpsize2x2x1_g1_tensor16x8x32_simple_t1r1s1",
  "TacticValue": "0x5e4918ccf433630e",
  "StreamId": 0,
  "Metadata": "[ONNX Layer: QuantizeLinear_157]\u001e[ONNX Layer: Conv_159]\u001e[ONNX Layer: QuantizeLinear_170]\u001e[ONNX Layer: QuantizeLinear_202]\u001e[ONNX Layer: DequantizeLinear_155]\u001e[ONNX Layer: QuantizeLinear_152]\u001e[ONNX Layer: DequantizeLinear_158]\u001e[ONNX Layer: Add_166]\u001e[ONNX Layer: Relu_167]\u001e[ONNX Layer: DequantizeLinear_165]\u001e[ONNX Layer: QuantizeLinear_130]"
},{
  "Name": "model.encoders.camera.backbone.layer2.0.conv1.weight + QuantizeLinear_175 + Conv_177 + Relu_178",
  "LayerType": "CaskConvolution",
  "Inputs": [
  {
    "Name": "702",
    "Location": "Device",
    "Dimensions": [6,256,64,176],
    "Format/Datatype": "Thirty-two wide channel vectorized row major Int8 format"
  }],
  "Outputs": [
  {
    "Name": "715",
    "Location": "Device",
    "Dimensions": [6,128,64,176],
    "Format/Datatype": "Thirty-two wide channel vectorized row major Int8 format"
  }],
  "ParameterType": "Convolution",
  "Kernel": [1,1],
  "PaddingMode": "kEXPLICIT_ROUND_DOWN",
  "PrePadding": [0,0],
  "PostPadding": [0,0],
  "Stride": [1,1],
  "Dilation": [1,1],
  "OutMaps": 128,
  "Groups": 1,
  "Weights": {"Type": "Int8", "Count": 32768},
  "Bias": {"Type": "Float", "Count": 128},
  "HasBias": 1,
  "HasReLU": 1,
  "HasSparseWeights": 0,
  "HasDynamicFilter": 0,
  "HasDynamicBias": 0,
  "HasResidual": 0,
  "ConvXAsActInputIdx": -1,
  "BiasAsActInputIdx": -1,
  "ResAsActInputIdx": -1,
  "Activation": "RELU",
  "TacticName": "sm80_xmma_conv_fprop_smallk_i8i8_i32_f32_nchw_vect_c_32kcrs_vect_c_32_nchw_vect_c_32_warptilesize32x32_stage4_warpsize2x4x1_r1s1_u1v1_hw0_c256_scalebias_relu",
  "TacticValue": "0xa41ea2e47a90dd1c",
  "StreamId": 0,
  "Metadata": "[ONNX Layer: QuantizeLinear_175]\u001e[ONNX Layer: Conv_177]\u001e[ONNX Layer: Relu_178]\u001e[ONNX Layer: QuantizeLinear_181]\u001e[ONNX Layer: DequantizeLinear_173]\u001e[ONNX Layer: QuantizeLinear_170]\u001e[ONNX Layer: DequantizeLinear_176]"
},{
  "Name": "model.encoders.camera.backbone.layer2.0.downsample.0.weight + QuantizeLinear_207 + Conv_209",
  "LayerType": "CaskConvolution",
  "Inputs": [
  {
    "Name": "702",
    "Location": "Device",
    "Dimensions": [6,256,64,176],
    "Format/Datatype": "Thirty-two wide channel vectorized row major Int8 format"
  }],
  "Outputs": [
  {
    "Name": "752",
    "Location": "Device",
    "Dimensions": [6,512,32,88],
    "Format/Datatype": "Thirty-two wide channel vectorized row major Int8 format"
  }],
  "ParameterType": "Convolution",
  "Kernel": [1,1],
  "PaddingMode": "kEXPLICIT_ROUND_DOWN",
  "PrePadding": [0,0],
  "PostPadding": [0,0],
  "Stride": [2,2],
  "Dilation": [1,1],
  "OutMaps": 512,
  "Groups": 1,
  "Weights": {"Type": "Int8", "Count": 131072},
  "Bias": {"Type": "Float", "Count": 512},
  "HasBias": 1,
  "HasReLU": 0,
  "HasSparseWeights": 0,
  "HasDynamicFilter": 0,
  "HasDynamicBias": 0,
  "HasResidual": 0,
  "ConvXAsActInputIdx": -1,
  "BiasAsActInputIdx": -1,
  "ResAsActInputIdx": -1,
  "Activation": "NONE",
  "TacticName": "sm80_xmma_fprop_implicit_gemm_interleaved_i8i8_i8i32_f32_nchw_vect_c_32kcrs_vect_c_32_nchw_vect_c_32_tilesize128x128x64_stage4_warpsize2x2x1_g1_tensor16x8x32_t1r1s1",
  "TacticValue": "0x601b41d38fc4645b",
  "StreamId": 0,
  "Metadata": "[ONNX Layer: QuantizeLinear_207]\u001e[ONNX Layer: Conv_209]\u001e[ONNX Layer: QuantizeLinear_212]\u001e[ONNX Layer: DequantizeLinear_205]\u001e[ONNX Layer: QuantizeLinear_170]\u001e[ONNX Layer: DequantizeLinear_208]"
},{
  "Name": "model.encoders.camera.backbone.layer2.0.conv2.weight + QuantizeLinear_186 + Conv_188 + Relu_189",
  "LayerType": "CaskConvolution",
  "Inputs": [
  {
    "Name": "715",
    "Location": "Device",
    "Dimensions": [6,128,64,176],
    "Format/Datatype": "Thirty-two wide channel vectorized row major Int8 format"
  }],
  "Outputs": [
  {
    "Name": "728",
    "Location": "Device",
    "Dimensions": [6,128,32,88],
    "Format/Datatype": "Thirty-two wide channel vectorized row major Int8 format"
  }],
  "ParameterType": "Convolution",
  "Kernel": [3,3],
  "PaddingMode": "kEXPLICIT_ROUND_DOWN",
  "PrePadding": [1,1],
  "PostPadding": [1,1],
  "Stride": [2,2],
  "Dilation": [1,1],
  "OutMaps": 128,
  "Groups": 1,
  "Weights": {"Type": "Int8", "Count": 147456},
  "Bias": {"Type": "Float", "Count": 128},
  "HasBias": 1,
  "HasReLU": 1,
  "HasSparseWeights": 0,
  "HasDynamicFilter": 0,
  "HasDynamicBias": 0,
  "HasResidual": 0,
  "ConvXAsActInputIdx": -1,
  "BiasAsActInputIdx": -1,
  "ResAsActInputIdx": -1,
  "Activation": "RELU",
  "TacticName": "sm80_xmma_fprop_implicit_gemm_interleaved_i8i8_i8i32_f32_nchw_vect_c_32kcrs_vect_c_32_nchw_vect_c_32_tilesize96x128x64_stage3_warpsize2x2x1_g1_tensor16x8x32_t1r3s3",
  "TacticValue": "0xf33711e7c9ed4673",
  "StreamId": 0,
  "Metadata": "[ONNX Layer: QuantizeLinear_186]\u001e[ONNX Layer: Conv_188]\u001e[ONNX Layer: Relu_189]\u001e[ONNX Layer: QuantizeLinear_192]\u001e[ONNX Layer: DequantizeLinear_184]\u001e[ONNX Layer: QuantizeLinear_181]\u001e[ONNX Layer: DequantizeLinear_187]"
},{
  "Name": "model.encoders.camera.backbone.layer2.0.conv3.weight + QuantizeLinear_197 + Conv_199 + Add_216 + Relu_217",
  "LayerType": "CaskConvolution",
  "Inputs": [
  {
    "Name": "728",
    "Location": "Device",
    "Dimensions": [6,128,32,88],
    "Format/Datatype": "Thirty-two wide channel vectorized row major Int8 format"
  },
  {
    "Name": "752",
    "Location": "Device",
    "Dimensions": [6,512,32,88],
    "Format/Datatype": "Thirty-two wide channel vectorized row major Int8 format"
  }],
  "Outputs": [
  {
    "Name": "760",
    "Location": "Device",
    "Dimensions": [6,512,32,88],
    "Format/Datatype": "Thirty-two wide channel vectorized row major Int8 format"
  }],
  "ParameterType": "Convolution",
  "Kernel": [1,1],
  "PaddingMode": "kEXPLICIT_ROUND_DOWN",
  "PrePadding": [0,0],
  "PostPadding": [0,0],
  "Stride": [1,1],
  "Dilation": [1,1],
  "OutMaps": 512,
  "Groups": 1,
  "Weights": {"Type": "Int8", "Count": 65536},
  "Bias": {"Type": "Float", "Count": 512},
  "HasBias": 1,
  "HasReLU": 1,
  "HasSparseWeights": 0,
  "HasDynamicFilter": 0,
  "HasDynamicBias": 0,
  "HasResidual": 1,
  "ConvXAsActInputIdx": -1,
  "BiasAsActInputIdx": -1,
  "ResAsActInputIdx": -1,
  "Activation": "RELU",
  "TacticName": "sm80_xmma_conv_fprop_smallk_i8i8_i32_f32_nchw_vect_c_32kcrs_vect_c_32_nchw_vect_c_32_warptilesize32x32_stage4_warpsize2x4x1_r1s1_u1v1_hw0_c128_scalebias_beta_relu",
  "TacticValue": "0xd4023ece8df38512",
  "StreamId": 0,
  "Metadata": "[ONNX Layer: QuantizeLinear_197]\u001e[ONNX Layer: Conv_199]\u001e[ONNX Layer: QuantizeLinear_220]\u001e[ONNX Layer: QuantizeLinear_252]\u001e[ONNX Layer: DequantizeLinear_195]\u001e[ONNX Layer: QuantizeLinear_192]\u001e[ONNX Layer: DequantizeLinear_198]\u001e[ONNX Layer: Add_216]\u001e[ONNX Layer: Relu_217]\u001e[ONNX Layer: DequantizeLinear_215]\u001e[ONNX Layer: QuantizeLinear_212]"
},{
  "Name": "model.encoders.camera.backbone.layer2.1.conv1.weight + QuantizeLinear_225 + Conv_227 + Relu_228",
  "LayerType": "CaskConvolution",
  "Inputs": [
  {
    "Name": "760",
    "Location": "Device",
    "Dimensions": [6,512,32,88],
    "Format/Datatype": "Thirty-two wide channel vectorized row major Int8 format"
  }],
  "Outputs": [
  {
    "Name": "773",
    "Location": "Device",
    "Dimensions": [6,128,32,88],
    "Format/Datatype": "Thirty-two wide channel vectorized row major Int8 format"
  }],
  "ParameterType": "Convolution",
  "Kernel": [1,1],
  "PaddingMode": "kEXPLICIT_ROUND_DOWN",
  "PrePadding": [0,0],
  "PostPadding": [0,0],
  "Stride": [1,1],
  "Dilation": [1,1],
  "OutMaps": 128,
  "Groups": 1,
  "Weights": {"Type": "Int8", "Count": 65536},
  "Bias": {"Type": "Float", "Count": 128},
  "HasBias": 1,
  "HasReLU": 1,
  "HasSparseWeights": 0,
  "HasDynamicFilter": 0,
  "HasDynamicBias": 0,
  "HasResidual": 0,
  "ConvXAsActInputIdx": -1,
  "BiasAsActInputIdx": -1,
  "ResAsActInputIdx": -1,
  "Activation": "RELU",
  "TacticName": "sm80_xmma_conv_fprop_smallk_i8i8_i32_f32_nchw_vect_c_32kcrs_vect_c_32_nchw_vect_c_32_warptilesize16x32_stage4_warpsize2x4x1_r1s1_u1v1_hw0_c512_scalebias_relu",
  "TacticValue": "0x1a8c6f408af8839b",
  "StreamId": 0,
  "Metadata": "[ONNX Layer: QuantizeLinear_225]\u001e[ONNX Layer: Conv_227]\u001e[ONNX Layer: Relu_228]\u001e[ONNX Layer: QuantizeLinear_231]\u001e[ONNX Layer: DequantizeLinear_223]\u001e[ONNX Layer: QuantizeLinear_220]\u001e[ONNX Layer: DequantizeLinear_226]"
},{
  "Name": "model.encoders.camera.backbone.layer2.1.conv2.weight + QuantizeLinear_236 + Conv_238 + Relu_239",
  "LayerType": "CaskConvolution",
  "Inputs": [
  {
    "Name": "773",
    "Location": "Device",
    "Dimensions": [6,128,32,88],
    "Format/Datatype": "Thirty-two wide channel vectorized row major Int8 format"
  }],
  "Outputs": [
  {
    "Name": "786",
    "Location": "Device",
    "Dimensions": [6,128,32,88],
    "Format/Datatype": "Thirty-two wide channel vectorized row major Int8 format"
  }],
  "ParameterType": "Convolution",
  "Kernel": [3,3],
  "PaddingMode": "kEXPLICIT_ROUND_DOWN",
  "PrePadding": [1,1],
  "PostPadding": [1,1],
  "Stride": [1,1],
  "Dilation": [1,1],
  "OutMaps": 128,
  "Groups": 1,
  "Weights": {"Type": "Int8", "Count": 147456},
  "Bias": {"Type": "Float", "Count": 128},
  "HasBias": 1,
  "HasReLU": 1,
  "HasSparseWeights": 0,
  "HasDynamicFilter": 0,
  "HasDynamicBias": 0,
  "HasResidual": 0,
  "ConvXAsActInputIdx": -1,
  "BiasAsActInputIdx": -1,
  "ResAsActInputIdx": -1,
  "Activation": "RELU",
  "TacticName": "sm80_xmma_fprop_avdt_dense_int8int8_tilesize64x256x32_tapsperload3_threadspercta128_r3s3_u1v1_scalebias_relu",
  "TacticValue": "0x9dafb2758560cc1d",
  "StreamId": 0,
  "Metadata": "[ONNX Layer: QuantizeLinear_236]\u001e[ONNX Layer: Conv_238]\u001e[ONNX Layer: Relu_239]\u001e[ONNX Layer: QuantizeLinear_242]\u001e[ONNX Layer: DequantizeLinear_234]\u001e[ONNX Layer: QuantizeLinear_231]\u001e[ONNX Layer: DequantizeLinear_237]"
},{
  "Name": "model.encoders.camera.backbone.layer2.1.conv3.weight + QuantizeLinear_247 + Conv_249 + Add_256 + Relu_257",
  "LayerType": "CaskConvolution",
  "Inputs": [
  {
    "Name": "786",
    "Location": "Device",
    "Dimensions": [6,128,32,88],
    "Format/Datatype": "Thirty-two wide channel vectorized row major Int8 format"
  },
  {
    "Name": "760",
    "Location": "Device",
    "Dimensions": [6,512,32,88],
    "Format/Datatype": "Thirty-two wide channel vectorized row major Int8 format"
  }],
  "Outputs": [
  {
    "Name": "806",
    "Location": "Device",
    "Dimensions": [6,512,32,88],
    "Format/Datatype": "Thirty-two wide channel vectorized row major Int8 format"
  }],
  "ParameterType": "Convolution",
  "Kernel": [1,1],
  "PaddingMode": "kEXPLICIT_ROUND_DOWN",
  "PrePadding": [0,0],
  "PostPadding": [0,0],
  "Stride": [1,1],
  "Dilation": [1,1],
  "OutMaps": 512,
  "Groups": 1,
  "Weights": {"Type": "Int8", "Count": 65536},
  "Bias": {"Type": "Float", "Count": 512},
  "HasBias": 1,
  "HasReLU": 1,
  "HasSparseWeights": 0,
  "HasDynamicFilter": 0,
  "HasDynamicBias": 0,
  "HasResidual": 1,
  "ConvXAsActInputIdx": -1,
  "BiasAsActInputIdx": -1,
  "ResAsActInputIdx": -1,
  "Activation": "RELU",
  "TacticName": "sm80_xmma_conv_fprop_smallk_i8i8_i32_f32_nchw_vect_c_32kcrs_vect_c_32_nchw_vect_c_32_warptilesize32x32_stage4_warpsize2x4x1_r1s1_u1v1_hw0_c128_scalebias_beta_relu",
  "TacticValue": "0xd4023ece8df38512",
  "StreamId": 0,
  "Metadata": "[ONNX Layer: QuantizeLinear_247]\u001e[ONNX Layer: Conv_249]\u001e[ONNX Layer: QuantizeLinear_260]\u001e[ONNX Layer: QuantizeLinear_292]\u001e[ONNX Layer: DequantizeLinear_245]\u001e[ONNX Layer: QuantizeLinear_242]\u001e[ONNX Layer: DequantizeLinear_248]\u001e[ONNX Layer: Add_256]\u001e[ONNX Layer: Relu_257]\u001e[ONNX Layer: DequantizeLinear_255]\u001e[ONNX Layer: QuantizeLinear_220]"
},{
  "Name": "model.encoders.camera.backbone.layer2.2.conv1.weight + QuantizeLinear_265 + Conv_267 + Relu_268",
  "LayerType": "CaskConvolution",
  "Inputs": [
  {
    "Name": "806",
    "Location": "Device",
    "Dimensions": [6,512,32,88],
    "Format/Datatype": "Thirty-two wide channel vectorized row major Int8 format"
  }],
  "Outputs": [
  {
    "Name": "819",
    "Location": "Device",
    "Dimensions": [6,128,32,88],
    "Format/Datatype": "Thirty-two wide channel vectorized row major Int8 format"
  }],
  "ParameterType": "Convolution",
  "Kernel": [1,1],
  "PaddingMode": "kEXPLICIT_ROUND_DOWN",
  "PrePadding": [0,0],
  "PostPadding": [0,0],
  "Stride": [1,1],
  "Dilation": [1,1],
  "OutMaps": 128,
  "Groups": 1,
  "Weights": {"Type": "Int8", "Count": 65536},
  "Bias": {"Type": "Float", "Count": 128},
  "HasBias": 1,
  "HasReLU": 1,
  "HasSparseWeights": 0,
  "HasDynamicFilter": 0,
  "HasDynamicBias": 0,
  "HasResidual": 0,
  "ConvXAsActInputIdx": -1,
  "BiasAsActInputIdx": -1,
  "ResAsActInputIdx": -1,
  "Activation": "RELU",
  "TacticName": "sm80_xmma_conv_fprop_smallk_i8i8_i32_f32_nchw_vect_c_32kcrs_vect_c_32_nchw_vect_c_32_warptilesize16x32_stage4_warpsize2x4x1_r1s1_u1v1_hw0_c512_scalebias_relu",
  "TacticValue": "0x1a8c6f408af8839b",
  "StreamId": 0,
  "Metadata": "[ONNX Layer: QuantizeLinear_265]\u001e[ONNX Layer: Conv_267]\u001e[ONNX Layer: Relu_268]\u001e[ONNX Layer: QuantizeLinear_271]\u001e[ONNX Layer: DequantizeLinear_263]\u001e[ONNX Layer: QuantizeLinear_260]\u001e[ONNX Layer: DequantizeLinear_266]"
},{
  "Name": "model.encoders.camera.backbone.layer2.2.conv2.weight + QuantizeLinear_276 + Conv_278 + Relu_279",
  "LayerType": "CaskConvolution",
  "Inputs": [
  {
    "Name": "819",
    "Location": "Device",
    "Dimensions": [6,128,32,88],
    "Format/Datatype": "Thirty-two wide channel vectorized row major Int8 format"
  }],
  "Outputs": [
  {
    "Name": "832",
    "Location": "Device",
    "Dimensions": [6,128,32,88],
    "Format/Datatype": "Thirty-two wide channel vectorized row major Int8 format"
  }],
  "ParameterType": "Convolution",
  "Kernel": [3,3],
  "PaddingMode": "kEXPLICIT_ROUND_DOWN",
  "PrePadding": [1,1],
  "PostPadding": [1,1],
  "Stride": [1,1],
  "Dilation": [1,1],
  "OutMaps": 128,
  "Groups": 1,
  "Weights": {"Type": "Int8", "Count": 147456},
  "Bias": {"Type": "Float", "Count": 128},
  "HasBias": 1,
  "HasReLU": 1,
  "HasSparseWeights": 0,
  "HasDynamicFilter": 0,
  "HasDynamicBias": 0,
  "HasResidual": 0,
  "ConvXAsActInputIdx": -1,
  "BiasAsActInputIdx": -1,
  "ResAsActInputIdx": -1,
  "Activation": "RELU",
  "TacticName": "sm80_xmma_fprop_avdt_dense_int8int8_tilesize64x256x32_tapsperload3_threadspercta128_r3s3_u1v1_scalebias_relu",
  "TacticValue": "0x9dafb2758560cc1d",
  "StreamId": 0,
  "Metadata": "[ONNX Layer: QuantizeLinear_276]\u001e[ONNX Layer: Conv_278]\u001e[ONNX Layer: Relu_279]\u001e[ONNX Layer: QuantizeLinear_282]\u001e[ONNX Layer: DequantizeLinear_274]\u001e[ONNX Layer: QuantizeLinear_271]\u001e[ONNX Layer: DequantizeLinear_277]"
},{
  "Name": "model.encoders.camera.backbone.layer2.2.conv3.weight + QuantizeLinear_287 + Conv_289 + Add_296 + Relu_297",
  "LayerType": "CaskConvolution",
  "Inputs": [
  {
    "Name": "832",
    "Location": "Device",
    "Dimensions": [6,128,32,88],
    "Format/Datatype": "Thirty-two wide channel vectorized row major Int8 format"
  },
  {
    "Name": "806",
    "Location": "Device",
    "Dimensions": [6,512,32,88],
    "Format/Datatype": "Thirty-two wide channel vectorized row major Int8 format"
  }],
  "Outputs": [
  {
    "Name": "852",
    "Location": "Device",
    "Dimensions": [6,512,32,88],
    "Format/Datatype": "Thirty-two wide channel vectorized row major Int8 format"
  }],
  "ParameterType": "Convolution",
  "Kernel": [1,1],
  "PaddingMode": "kEXPLICIT_ROUND_DOWN",
  "PrePadding": [0,0],
  "PostPadding": [0,0],
  "Stride": [1,1],
  "Dilation": [1,1],
  "OutMaps": 512,
  "Groups": 1,
  "Weights": {"Type": "Int8", "Count": 65536},
  "Bias": {"Type": "Float", "Count": 512},
  "HasBias": 1,
  "HasReLU": 1,
  "HasSparseWeights": 0,
  "HasDynamicFilter": 0,
  "HasDynamicBias": 0,
  "HasResidual": 1,
  "ConvXAsActInputIdx": -1,
  "BiasAsActInputIdx": -1,
  "ResAsActInputIdx": -1,
  "Activation": "RELU",
  "TacticName": "sm80_xmma_conv_fprop_smallk_i8i8_i32_f32_nchw_vect_c_32kcrs_vect_c_32_nchw_vect_c_32_warptilesize32x32_stage4_warpsize2x4x1_r1s1_u1v1_hw0_c128_scalebias_beta_relu",
  "TacticValue": "0xd4023ece8df38512",
  "StreamId": 0,
  "Metadata": "[ONNX Layer: QuantizeLinear_287]\u001e[ONNX Layer: Conv_289]\u001e[ONNX Layer: QuantizeLinear_300]\u001e[ONNX Layer: QuantizeLinear_332]\u001e[ONNX Layer: DequantizeLinear_285]\u001e[ONNX Layer: QuantizeLinear_282]\u001e[ONNX Layer: DequantizeLinear_288]\u001e[ONNX Layer: Add_296]\u001e[ONNX Layer: Relu_297]\u001e[ONNX Layer: DequantizeLinear_295]\u001e[ONNX Layer: QuantizeLinear_260]"
},{
  "Name": "model.encoders.camera.backbone.layer2.3.conv1.weight + QuantizeLinear_305 + Conv_307 + Relu_308",
  "LayerType": "CaskConvolution",
  "Inputs": [
  {
    "Name": "852",
    "Location": "Device",
    "Dimensions": [6,512,32,88],
    "Format/Datatype": "Thirty-two wide channel vectorized row major Int8 format"
  }],
  "Outputs": [
  {
    "Name": "865",
    "Location": "Device",
    "Dimensions": [6,128,32,88],
    "Format/Datatype": "Thirty-two wide channel vectorized row major Int8 format"
  }],
  "ParameterType": "Convolution",
  "Kernel": [1,1],
  "PaddingMode": "kEXPLICIT_ROUND_DOWN",
  "PrePadding": [0,0],
  "PostPadding": [0,0],
  "Stride": [1,1],
  "Dilation": [1,1],
  "OutMaps": 128,
  "Groups": 1,
  "Weights": {"Type": "Int8", "Count": 65536},
  "Bias": {"Type": "Float", "Count": 128},
  "HasBias": 1,
  "HasReLU": 1,
  "HasSparseWeights": 0,
  "HasDynamicFilter": 0,
  "HasDynamicBias": 0,
  "HasResidual": 0,
  "ConvXAsActInputIdx": -1,
  "BiasAsActInputIdx": -1,
  "ResAsActInputIdx": -1,
  "Activation": "RELU",
  "TacticName": "sm80_xmma_conv_fprop_smallk_i8i8_i32_f32_nchw_vect_c_32kcrs_vect_c_32_nchw_vect_c_32_warptilesize16x32_stage4_warpsize2x4x1_r1s1_u1v1_hw0_c512_scalebias_relu",
  "TacticValue": "0x1a8c6f408af8839b",
  "StreamId": 0,
  "Metadata": "[ONNX Layer: QuantizeLinear_305]\u001e[ONNX Layer: Conv_307]\u001e[ONNX Layer: Relu_308]\u001e[ONNX Layer: QuantizeLinear_311]\u001e[ONNX Layer: DequantizeLinear_303]\u001e[ONNX Layer: QuantizeLinear_300]\u001e[ONNX Layer: DequantizeLinear_306]"
},{
  "Name": "model.encoders.camera.backbone.layer2.3.conv2.weight + QuantizeLinear_316 + Conv_318 + Relu_319",
  "LayerType": "CaskConvolution",
  "Inputs": [
  {
    "Name": "865",
    "Location": "Device",
    "Dimensions": [6,128,32,88],
    "Format/Datatype": "Thirty-two wide channel vectorized row major Int8 format"
  }],
  "Outputs": [
  {
    "Name": "878",
    "Location": "Device",
    "Dimensions": [6,128,32,88],
    "Format/Datatype": "Thirty-two wide channel vectorized row major Int8 format"
  }],
  "ParameterType": "Convolution",
  "Kernel": [3,3],
  "PaddingMode": "kEXPLICIT_ROUND_DOWN",
  "PrePadding": [1,1],
  "PostPadding": [1,1],
  "Stride": [1,1],
  "Dilation": [1,1],
  "OutMaps": 128,
  "Groups": 1,
  "Weights": {"Type": "Int8", "Count": 147456},
  "Bias": {"Type": "Float", "Count": 128},
  "HasBias": 1,
  "HasReLU": 1,
  "HasSparseWeights": 0,
  "HasDynamicFilter": 0,
  "HasDynamicBias": 0,
  "HasResidual": 0,
  "ConvXAsActInputIdx": -1,
  "BiasAsActInputIdx": -1,
  "ResAsActInputIdx": -1,
  "Activation": "RELU",
  "TacticName": "sm80_xmma_fprop_avdt_dense_int8int8_tilesize64x256x32_tapsperload3_threadspercta128_r3s3_u1v1_scalebias_relu",
  "TacticValue": "0x9dafb2758560cc1d",
  "StreamId": 0,
  "Metadata": "[ONNX Layer: QuantizeLinear_316]\u001e[ONNX Layer: Conv_318]\u001e[ONNX Layer: Relu_319]\u001e[ONNX Layer: QuantizeLinear_322]\u001e[ONNX Layer: DequantizeLinear_314]\u001e[ONNX Layer: QuantizeLinear_311]\u001e[ONNX Layer: DequantizeLinear_317]"
},{
  "Name": "model.encoders.camera.backbone.layer2.3.conv3.weight + QuantizeLinear_327 + Conv_329 + Add_336 + Relu_337",
  "LayerType": "CaskConvolution",
  "Inputs": [
  {
    "Name": "878",
    "Location": "Device",
    "Dimensions": [6,128,32,88],
    "Format/Datatype": "Thirty-two wide channel vectorized row major Int8 format"
  },
  {
    "Name": "852",
    "Location": "Device",
    "Dimensions": [6,512,32,88],
    "Format/Datatype": "Thirty-two wide channel vectorized row major Int8 format"
  }],
  "Outputs": [
  {
    "Name": "Concat_779_1400_clone_0",
    "Location": "Device",
    "Dimensions": [6,512,32,88],
    "Format/Datatype": "Thirty-two wide channel vectorized row major Int8 format"
  }],
  "ParameterType": "Convolution",
  "Kernel": [1,1],
  "PaddingMode": "kEXPLICIT_ROUND_DOWN",
  "PrePadding": [0,0],
  "PostPadding": [0,0],
  "Stride": [1,1],
  "Dilation": [1,1],
  "OutMaps": 512,
  "Groups": 1,
  "Weights": {"Type": "Int8", "Count": 65536},
  "Bias": {"Type": "Float", "Count": 512},
  "HasBias": 1,
  "HasReLU": 1,
  "HasSparseWeights": 0,
  "HasDynamicFilter": 0,
  "HasDynamicBias": 0,
  "HasResidual": 1,
  "ConvXAsActInputIdx": -1,
  "BiasAsActInputIdx": -1,
  "ResAsActInputIdx": -1,
  "Activation": "RELU",
  "TacticName": "sm80_xmma_conv_fprop_smallk_i8i8_i32_f32_nchw_vect_c_32kcrs_vect_c_32_nchw_vect_c_32_warptilesize32x32_stage4_warpsize2x4x1_r1s1_u1v1_hw0_c128_scalebias_beta_relu",
  "TacticValue": "0xd4023ece8df38512",
  "StreamId": 0,
  "Metadata": "[ONNX Layer: QuantizeLinear_327]\u001e[ONNX Layer: Conv_329]\u001e[ONNX Layer: QuantizeLinear_340]\u001e[ONNX Layer: QuantizeLinear_372]\u001e[ONNX Layer: QuantizeLinear_769]\u001e[ONNX Layer: DequantizeLinear_325]\u001e[ONNX Layer: QuantizeLinear_322]\u001e[ONNX Layer: DequantizeLinear_328]\u001e[ONNX Layer: Add_336]\u001e[ONNX Layer: Relu_337]\u001e[ONNX Layer: DequantizeLinear_335]\u001e[ONNX Layer: QuantizeLinear_300]"
},{
  "Name": "model.encoders.camera.backbone.layer3.0.conv1.weight + QuantizeLinear_345 + Conv_347 + Relu_348",
  "LayerType": "CaskConvolution",
  "Inputs": [
  {
    "Name": "Concat_779_1400_clone_0",
    "Location": "Device",
    "Dimensions": [6,512,32,88],
    "Format/Datatype": "Thirty-two wide channel vectorized row major Int8 format"
  }],
  "Outputs": [
  {
    "Name": "911",
    "Location": "Device",
    "Dimensions": [6,256,32,88],
    "Format/Datatype": "Thirty-two wide channel vectorized row major Int8 format"
  }],
  "ParameterType": "Convolution",
  "Kernel": [1,1],
  "PaddingMode": "kEXPLICIT_ROUND_DOWN",
  "PrePadding": [0,0],
  "PostPadding": [0,0],
  "Stride": [1,1],
  "Dilation": [1,1],
  "OutMaps": 256,
  "Groups": 1,
  "Weights": {"Type": "Int8", "Count": 131072},
  "Bias": {"Type": "Float", "Count": 256},
  "HasBias": 1,
  "HasReLU": 1,
  "HasSparseWeights": 0,
  "HasDynamicFilter": 0,
  "HasDynamicBias": 0,
  "HasResidual": 0,
  "ConvXAsActInputIdx": -1,
  "BiasAsActInputIdx": -1,
  "ResAsActInputIdx": -1,
  "Activation": "RELU",
  "TacticName": "sm80_xmma_conv_fprop_smallk_i8i8_i32_f32_nchw_vect_c_32kcrs_vect_c_32_nchw_vect_c_32_warptilesize16x32_stage4_warpsize2x4x1_r1s1_u1v1_hw0_c512_scalebias_relu",
  "TacticValue": "0x1a8c6f408af8839b",
  "StreamId": 0,
  "Metadata": "[ONNX Layer: QuantizeLinear_345]\u001e[ONNX Layer: Conv_347]\u001e[ONNX Layer: Relu_348]\u001e[ONNX Layer: QuantizeLinear_351]\u001e[ONNX Layer: DequantizeLinear_343]\u001e[ONNX Layer: QuantizeLinear_340]\u001e[ONNX Layer: DequantizeLinear_346]"
},{
  "Name": "model.encoders.camera.backbone.layer3.0.downsample.0.weight + QuantizeLinear_377 + Conv_379",
  "LayerType": "CaskConvolution",
  "Inputs": [
  {
    "Name": "Concat_779_1400_clone_0",
    "Location": "Device",
    "Dimensions": [6,512,32,88],
    "Format/Datatype": "Thirty-two wide channel vectorized row major Int8 format"
  }],
  "Outputs": [
  {
    "Name": "948",
    "Location": "Device",
    "Dimensions": [6,1024,16,44],
    "Format/Datatype": "Thirty-two wide channel vectorized row major Int8 format"
  }],
  "ParameterType": "Convolution",
  "Kernel": [1,1],
  "PaddingMode": "kEXPLICIT_ROUND_DOWN",
  "PrePadding": [0,0],
  "PostPadding": [0,0],
  "Stride": [2,2],
  "Dilation": [1,1],
  "OutMaps": 1024,
  "Groups": 1,
  "Weights": {"Type": "Int8", "Count": 524288},
  "Bias": {"Type": "Float", "Count": 1024},
  "HasBias": 1,
  "HasReLU": 0,
  "HasSparseWeights": 0,
  "HasDynamicFilter": 0,
  "HasDynamicBias": 0,
  "HasResidual": 0,
  "ConvXAsActInputIdx": -1,
  "BiasAsActInputIdx": -1,
  "ResAsActInputIdx": -1,
  "Activation": "NONE",
  "TacticName": "sm80_xmma_fprop_implicit_gemm_interleaved_i8i8_i8i32_f32_nchw_vect_c_32kcrs_vect_c_32_nchw_vect_c_32_tilesize128x128x64_stage4_warpsize2x2x1_g1_tensor16x8x32_t1r1s1",
  "TacticValue": "0x601b41d38fc4645b",
  "StreamId": 0,
  "Metadata": "[ONNX Layer: QuantizeLinear_377]\u001e[ONNX Layer: Conv_379]\u001e[ONNX Layer: QuantizeLinear_382]\u001e[ONNX Layer: DequantizeLinear_375]\u001e[ONNX Layer: QuantizeLinear_340]\u001e[ONNX Layer: DequantizeLinear_378]"
},{
  "Name": "model.encoders.camera.backbone.layer3.0.conv2.weight + QuantizeLinear_356 + Conv_358 + Relu_359",
  "LayerType": "CaskConvolution",
  "Inputs": [
  {
    "Name": "911",
    "Location": "Device",
    "Dimensions": [6,256,32,88],
    "Format/Datatype": "Thirty-two wide channel vectorized row major Int8 format"
  }],
  "Outputs": [
  {
    "Name": "924",
    "Location": "Device",
    "Dimensions": [6,256,16,44],
    "Format/Datatype": "Thirty-two wide channel vectorized row major Int8 format"
  }],
  "ParameterType": "Convolution",
  "Kernel": [3,3],
  "PaddingMode": "kEXPLICIT_ROUND_DOWN",
  "PrePadding": [1,1],
  "PostPadding": [1,1],
  "Stride": [2,2],
  "Dilation": [1,1],
  "OutMaps": 256,
  "Groups": 1,
  "Weights": {"Type": "Int8", "Count": 589824},
  "Bias": {"Type": "Float", "Count": 256},
  "HasBias": 1,
  "HasReLU": 1,
  "HasSparseWeights": 0,
  "HasDynamicFilter": 0,
  "HasDynamicBias": 0,
  "HasResidual": 0,
  "ConvXAsActInputIdx": -1,
  "BiasAsActInputIdx": -1,
  "ResAsActInputIdx": -1,
  "Activation": "RELU",
  "TacticName": "sm80_xmma_fprop_implicit_gemm_interleaved_i8i8_i8i32_f32_nchw_vect_c_32kcrs_vect_c_32_nchw_vect_c_32_tilesize96x128x64_stage3_warpsize2x2x1_g1_tensor16x8x32",
  "TacticValue": "0x87620679fb5f37df",
  "StreamId": 0,
  "Metadata": "[ONNX Layer: QuantizeLinear_356]\u001e[ONNX Layer: Conv_358]\u001e[ONNX Layer: Relu_359]\u001e[ONNX Layer: QuantizeLinear_362]\u001e[ONNX Layer: DequantizeLinear_354]\u001e[ONNX Layer: QuantizeLinear_351]\u001e[ONNX Layer: DequantizeLinear_357]"
},{
  "Name": "model.encoders.camera.backbone.layer3.0.conv3.weight + QuantizeLinear_367 + Conv_369 + Add_386 + Relu_387",
  "LayerType": "CaskConvolution",
  "Inputs": [
  {
    "Name": "924",
    "Location": "Device",
    "Dimensions": [6,256,16,44],
    "Format/Datatype": "Thirty-two wide channel vectorized row major Int8 format"
  },
  {
    "Name": "948",
    "Location": "Device",
    "Dimensions": [6,1024,16,44],
    "Format/Datatype": "Thirty-two wide channel vectorized row major Int8 format"
  }],
  "Outputs": [
  {
    "Name": "956",
    "Location": "Device",
    "Dimensions": [6,1024,16,44],
    "Format/Datatype": "Thirty-two wide channel vectorized row major Int8 format"
  }],
  "ParameterType": "Convolution",
  "Kernel": [1,1],
  "PaddingMode": "kEXPLICIT_ROUND_DOWN",
  "PrePadding": [0,0],
  "PostPadding": [0,0],
  "Stride": [1,1],
  "Dilation": [1,1],
  "OutMaps": 1024,
  "Groups": 1,
  "Weights": {"Type": "Int8", "Count": 262144},
  "Bias": {"Type": "Float", "Count": 1024},
  "HasBias": 1,
  "HasReLU": 1,
  "HasSparseWeights": 0,
  "HasDynamicFilter": 0,
  "HasDynamicBias": 0,
  "HasResidual": 1,
  "ConvXAsActInputIdx": -1,
  "BiasAsActInputIdx": -1,
  "ResAsActInputIdx": -1,
  "Activation": "RELU",
  "TacticName": "sm80_xmma_conv_fprop_smallk_i8i8_i32_f32_nchw_vect_c_32kcrs_vect_c_32_nchw_vect_c_32_warptilesize32x32_stage4_warpsize2x4x1_r1s1_u1v1_hw0_c256_scalebias_beta_relu",
  "TacticValue": "0x7da1544a119637e7",
  "StreamId": 0,
  "Metadata": "[ONNX Layer: QuantizeLinear_367]\u001e[ONNX Layer: Conv_369]\u001e[ONNX Layer: QuantizeLinear_390]\u001e[ONNX Layer: QuantizeLinear_422]\u001e[ONNX Layer: DequantizeLinear_365]\u001e[ONNX Layer: QuantizeLinear_362]\u001e[ONNX Layer: DequantizeLinear_368]\u001e[ONNX Layer: Add_386]\u001e[ONNX Layer: Relu_387]\u001e[ONNX Layer: DequantizeLinear_385]\u001e[ONNX Layer: QuantizeLinear_382]"
},{
  "Name": "model.encoders.camera.backbone.layer3.1.conv1.weight + QuantizeLinear_395 + Conv_397 + Relu_398",
  "LayerType": "CaskConvolution",
  "Inputs": [
  {
    "Name": "956",
    "Location": "Device",
    "Dimensions": [6,1024,16,44],
    "Format/Datatype": "Thirty-two wide channel vectorized row major Int8 format"
  }],
  "Outputs": [
  {
    "Name": "969",
    "Location": "Device",
    "Dimensions": [6,256,16,44],
    "Format/Datatype": "Thirty-two wide channel vectorized row major Int8 format"
  }],
  "ParameterType": "Convolution",
  "Kernel": [1,1],
  "PaddingMode": "kEXPLICIT_ROUND_DOWN",
  "PrePadding": [0,0],
  "PostPadding": [0,0],
  "Stride": [1,1],
  "Dilation": [1,1],
  "OutMaps": 256,
  "Groups": 1,
  "Weights": {"Type": "Int8", "Count": 262144},
  "Bias": {"Type": "Float", "Count": 256},
  "HasBias": 1,
  "HasReLU": 1,
  "HasSparseWeights": 0,
  "HasDynamicFilter": 0,
  "HasDynamicBias": 0,
  "HasResidual": 0,
  "ConvXAsActInputIdx": -1,
  "BiasAsActInputIdx": -1,
  "ResAsActInputIdx": -1,
  "Activation": "RELU",
  "TacticName": "sm80_xmma_conv_fprop_smallk_i8i8_i32_f32_nchw_vect_c_32kcrs_vect_c_32_nchw_vect_c_32_warptilesize16x32_stage5_warpsize1x4x2_r1s1_u1v1_hw0_c1024_scalebias_relu",
  "TacticValue": "0x11898100e6875c92",
  "StreamId": 0,
  "Metadata": "[ONNX Layer: QuantizeLinear_395]\u001e[ONNX Layer: Conv_397]\u001e[ONNX Layer: Relu_398]\u001e[ONNX Layer: QuantizeLinear_401]\u001e[ONNX Layer: DequantizeLinear_393]\u001e[ONNX Layer: QuantizeLinear_390]\u001e[ONNX Layer: DequantizeLinear_396]"
},{
  "Name": "model.encoders.camera.backbone.layer3.1.conv2.weight + QuantizeLinear_406 + Conv_408 + Relu_409",
  "LayerType": "CaskConvolution",
  "Inputs": [
  {
    "Name": "969",
    "Location": "Device",
    "Dimensions": [6,256,16,44],
    "Format/Datatype": "Thirty-two wide channel vectorized row major Int8 format"
  }],
  "Outputs": [
  {
    "Name": "982",
    "Location": "Device",
    "Dimensions": [6,256,16,44],
    "Format/Datatype": "Thirty-two wide channel vectorized row major Int8 format"
  }],
  "ParameterType": "Convolution",
  "Kernel": [3,3],
  "PaddingMode": "kEXPLICIT_ROUND_DOWN",
  "PrePadding": [1,1],
  "PostPadding": [1,1],
  "Stride": [1,1],
  "Dilation": [1,1],
  "OutMaps": 256,
  "Groups": 1,
  "Weights": {"Type": "Int8", "Count": 589824},
  "Bias": {"Type": "Float", "Count": 256},
  "HasBias": 1,
  "HasReLU": 1,
  "HasSparseWeights": 0,
  "HasDynamicFilter": 0,
  "HasDynamicBias": 0,
  "HasResidual": 0,
  "ConvXAsActInputIdx": -1,
  "BiasAsActInputIdx": -1,
  "ResAsActInputIdx": -1,
  "Activation": "RELU",
  "TacticName": "sm80_xmma_fprop_avdt_dense_int8int8_tilesize64x128x32_tapsperload9_threadspercta128_r3s3_u1v1_scalebias_relu",
  "TacticValue": "0x99ccdec1bdaffe62",
  "StreamId": 0,
  "Metadata": "[ONNX Layer: QuantizeLinear_406]\u001e[ONNX Layer: Conv_408]\u001e[ONNX Layer: Relu_409]\u001e[ONNX Layer: QuantizeLinear_412]\u001e[ONNX Layer: DequantizeLinear_404]\u001e[ONNX Layer: QuantizeLinear_401]\u001e[ONNX Layer: DequantizeLinear_407]"
},{
  "Name": "model.encoders.camera.backbone.layer3.1.conv3.weight + QuantizeLinear_417 + Conv_419 + Add_426 + Relu_427",
  "LayerType": "CaskConvolution",
  "Inputs": [
  {
    "Name": "982",
    "Location": "Device",
    "Dimensions": [6,256,16,44],
    "Format/Datatype": "Thirty-two wide channel vectorized row major Int8 format"
  },
  {
    "Name": "956",
    "Location": "Device",
    "Dimensions": [6,1024,16,44],
    "Format/Datatype": "Thirty-two wide channel vectorized row major Int8 format"
  }],
  "Outputs": [
  {
    "Name": "1002",
    "Location": "Device",
    "Dimensions": [6,1024,16,44],
    "Format/Datatype": "Thirty-two wide channel vectorized row major Int8 format"
  }],
  "ParameterType": "Convolution",
  "Kernel": [1,1],
  "PaddingMode": "kEXPLICIT_ROUND_DOWN",
  "PrePadding": [0,0],
  "PostPadding": [0,0],
  "Stride": [1,1],
  "Dilation": [1,1],
  "OutMaps": 1024,
  "Groups": 1,
  "Weights": {"Type": "Int8", "Count": 262144},
  "Bias": {"Type": "Float", "Count": 1024},
  "HasBias": 1,
  "HasReLU": 1,
  "HasSparseWeights": 0,
  "HasDynamicFilter": 0,
  "HasDynamicBias": 0,
  "HasResidual": 1,
  "ConvXAsActInputIdx": -1,
  "BiasAsActInputIdx": -1,
  "ResAsActInputIdx": -1,
  "Activation": "RELU",
  "TacticName": "sm80_xmma_conv_fprop_smallk_i8i8_i32_f32_nchw_vect_c_32kcrs_vect_c_32_nchw_vect_c_32_warptilesize32x32_stage4_warpsize2x4x1_r1s1_u1v1_hw0_c256_scalebias_beta_relu",
  "TacticValue": "0x7da1544a119637e7",
  "StreamId": 0,
  "Metadata": "[ONNX Layer: QuantizeLinear_417]\u001e[ONNX Layer: Conv_419]\u001e[ONNX Layer: QuantizeLinear_430]\u001e[ONNX Layer: QuantizeLinear_462]\u001e[ONNX Layer: DequantizeLinear_415]\u001e[ONNX Layer: QuantizeLinear_412]\u001e[ONNX Layer: DequantizeLinear_418]\u001e[ONNX Layer: Add_426]\u001e[ONNX Layer: Relu_427]\u001e[ONNX Layer: DequantizeLinear_425]\u001e[ONNX Layer: QuantizeLinear_390]"
},{
  "Name": "model.encoders.camera.backbone.layer3.2.conv1.weight + QuantizeLinear_435 + Conv_437 + Relu_438",
  "LayerType": "CaskConvolution",
  "Inputs": [
  {
    "Name": "1002",
    "Location": "Device",
    "Dimensions": [6,1024,16,44],
    "Format/Datatype": "Thirty-two wide channel vectorized row major Int8 format"
  }],
  "Outputs": [
  {
    "Name": "1015",
    "Location": "Device",
    "Dimensions": [6,256,16,44],
    "Format/Datatype": "Thirty-two wide channel vectorized row major Int8 format"
  }],
  "ParameterType": "Convolution",
  "Kernel": [1,1],
  "PaddingMode": "kEXPLICIT_ROUND_DOWN",
  "PrePadding": [0,0],
  "PostPadding": [0,0],
  "Stride": [1,1],
  "Dilation": [1,1],
  "OutMaps": 256,
  "Groups": 1,
  "Weights": {"Type": "Int8", "Count": 262144},
  "Bias": {"Type": "Float", "Count": 256},
  "HasBias": 1,
  "HasReLU": 1,
  "HasSparseWeights": 0,
  "HasDynamicFilter": 0,
  "HasDynamicBias": 0,
  "HasResidual": 0,
  "ConvXAsActInputIdx": -1,
  "BiasAsActInputIdx": -1,
  "ResAsActInputIdx": -1,
  "Activation": "RELU",
  "TacticName": "sm80_xmma_conv_fprop_smallk_i8i8_i32_f32_nchw_vect_c_32kcrs_vect_c_32_nchw_vect_c_32_warptilesize16x32_stage5_warpsize1x4x2_r1s1_u1v1_hw0_c1024_scalebias_relu",
  "TacticValue": "0x11898100e6875c92",
  "StreamId": 0,
  "Metadata": "[ONNX Layer: QuantizeLinear_435]\u001e[ONNX Layer: Conv_437]\u001e[ONNX Layer: Relu_438]\u001e[ONNX Layer: QuantizeLinear_441]\u001e[ONNX Layer: DequantizeLinear_433]\u001e[ONNX Layer: QuantizeLinear_430]\u001e[ONNX Layer: DequantizeLinear_436]"
},{
  "Name": "model.encoders.camera.backbone.layer3.2.conv2.weight + QuantizeLinear_446 + Conv_448 + Relu_449",
  "LayerType": "CaskConvolution",
  "Inputs": [
  {
    "Name": "1015",
    "Location": "Device",
    "Dimensions": [6,256,16,44],
    "Format/Datatype": "Thirty-two wide channel vectorized row major Int8 format"
  }],
  "Outputs": [
  {
    "Name": "1028",
    "Location": "Device",
    "Dimensions": [6,256,16,44],
    "Format/Datatype": "Thirty-two wide channel vectorized row major Int8 format"
  }],
  "ParameterType": "Convolution",
  "Kernel": [3,3],
  "PaddingMode": "kEXPLICIT_ROUND_DOWN",
  "PrePadding": [1,1],
  "PostPadding": [1,1],
  "Stride": [1,1],
  "Dilation": [1,1],
  "OutMaps": 256,
  "Groups": 1,
  "Weights": {"Type": "Int8", "Count": 589824},
  "Bias": {"Type": "Float", "Count": 256},
  "HasBias": 1,
  "HasReLU": 1,
  "HasSparseWeights": 0,
  "HasDynamicFilter": 0,
  "HasDynamicBias": 0,
  "HasResidual": 0,
  "ConvXAsActInputIdx": -1,
  "BiasAsActInputIdx": -1,
  "ResAsActInputIdx": -1,
  "Activation": "RELU",
  "TacticName": "sm80_xmma_fprop_avdt_dense_int8int8_tilesize64x128x32_tapsperload9_threadspercta128_r3s3_u1v1_scalebias_relu",
  "TacticValue": "0x99ccdec1bdaffe62",
  "StreamId": 0,
  "Metadata": "[ONNX Layer: QuantizeLinear_446]\u001e[ONNX Layer: Conv_448]\u001e[ONNX Layer: Relu_449]\u001e[ONNX Layer: QuantizeLinear_452]\u001e[ONNX Layer: DequantizeLinear_444]\u001e[ONNX Layer: QuantizeLinear_441]\u001e[ONNX Layer: DequantizeLinear_447]"
},{
  "Name": "model.encoders.camera.backbone.layer3.2.conv3.weight + QuantizeLinear_457 + Conv_459 + Add_466 + Relu_467",
  "LayerType": "CaskConvolution",
  "Inputs": [
  {
    "Name": "1028",
    "Location": "Device",
    "Dimensions": [6,256,16,44],
    "Format/Datatype": "Thirty-two wide channel vectorized row major Int8 format"
  },
  {
    "Name": "1002",
    "Location": "Device",
    "Dimensions": [6,1024,16,44],
    "Format/Datatype": "Thirty-two wide channel vectorized row major Int8 format"
  }],
  "Outputs": [
  {
    "Name": "1048",
    "Location": "Device",
    "Dimensions": [6,1024,16,44],
    "Format/Datatype": "Thirty-two wide channel vectorized row major Int8 format"
  }],
  "ParameterType": "Convolution",
  "Kernel": [1,1],
  "PaddingMode": "kEXPLICIT_ROUND_DOWN",
  "PrePadding": [0,0],
  "PostPadding": [0,0],
  "Stride": [1,1],
  "Dilation": [1,1],
  "OutMaps": 1024,
  "Groups": 1,
  "Weights": {"Type": "Int8", "Count": 262144},
  "Bias": {"Type": "Float", "Count": 1024},
  "HasBias": 1,
  "HasReLU": 1,
  "HasSparseWeights": 0,
  "HasDynamicFilter": 0,
  "HasDynamicBias": 0,
  "HasResidual": 1,
  "ConvXAsActInputIdx": -1,
  "BiasAsActInputIdx": -1,
  "ResAsActInputIdx": -1,
  "Activation": "RELU",
  "TacticName": "sm80_xmma_conv_fprop_smallk_i8i8_i32_f32_nchw_vect_c_32kcrs_vect_c_32_nchw_vect_c_32_warptilesize32x32_stage4_warpsize2x4x1_r1s1_u1v1_hw0_c256_scalebias_beta_relu",
  "TacticValue": "0x7da1544a119637e7",
  "StreamId": 0,
  "Metadata": "[ONNX Layer: QuantizeLinear_457]\u001e[ONNX Layer: Conv_459]\u001e[ONNX Layer: QuantizeLinear_470]\u001e[ONNX Layer: QuantizeLinear_502]\u001e[ONNX Layer: DequantizeLinear_455]\u001e[ONNX Layer: QuantizeLinear_452]\u001e[ONNX Layer: DequantizeLinear_458]\u001e[ONNX Layer: Add_466]\u001e[ONNX Layer: Relu_467]\u001e[ONNX Layer: DequantizeLinear_465]\u001e[ONNX Layer: QuantizeLinear_430]"
},{
  "Name": "model.encoders.camera.backbone.layer3.3.conv1.weight + QuantizeLinear_475 + Conv_477 + Relu_478",
  "LayerType": "CaskConvolution",
  "Inputs": [
  {
    "Name": "1048",
    "Location": "Device",
    "Dimensions": [6,1024,16,44],
    "Format/Datatype": "Thirty-two wide channel vectorized row major Int8 format"
  }],
  "Outputs": [
  {
    "Name": "1061",
    "Location": "Device",
    "Dimensions": [6,256,16,44],
    "Format/Datatype": "Thirty-two wide channel vectorized row major Int8 format"
  }],
  "ParameterType": "Convolution",
  "Kernel": [1,1],
  "PaddingMode": "kEXPLICIT_ROUND_DOWN",
  "PrePadding": [0,0],
  "PostPadding": [0,0],
  "Stride": [1,1],
  "Dilation": [1,1],
  "OutMaps": 256,
  "Groups": 1,
  "Weights": {"Type": "Int8", "Count": 262144},
  "Bias": {"Type": "Float", "Count": 256},
  "HasBias": 1,
  "HasReLU": 1,
  "HasSparseWeights": 0,
  "HasDynamicFilter": 0,
  "HasDynamicBias": 0,
  "HasResidual": 0,
  "ConvXAsActInputIdx": -1,
  "BiasAsActInputIdx": -1,
  "ResAsActInputIdx": -1,
  "Activation": "RELU",
  "TacticName": "sm80_xmma_conv_fprop_smallk_i8i8_i32_f32_nchw_vect_c_32kcrs_vect_c_32_nchw_vect_c_32_warptilesize16x32_stage5_warpsize1x4x2_r1s1_u1v1_hw0_c1024_scalebias_relu",
  "TacticValue": "0x11898100e6875c92",
  "StreamId": 0,
  "Metadata": "[ONNX Layer: QuantizeLinear_475]\u001e[ONNX Layer: Conv_477]\u001e[ONNX Layer: Relu_478]\u001e[ONNX Layer: QuantizeLinear_481]\u001e[ONNX Layer: DequantizeLinear_473]\u001e[ONNX Layer: QuantizeLinear_470]\u001e[ONNX Layer: DequantizeLinear_476]"
},{
  "Name": "model.encoders.camera.backbone.layer3.3.conv2.weight + QuantizeLinear_486 + Conv_488 + Relu_489",
  "LayerType": "CaskConvolution",
  "Inputs": [
  {
    "Name": "1061",
    "Location": "Device",
    "Dimensions": [6,256,16,44],
    "Format/Datatype": "Thirty-two wide channel vectorized row major Int8 format"
  }],
  "Outputs": [
  {
    "Name": "1074",
    "Location": "Device",
    "Dimensions": [6,256,16,44],
    "Format/Datatype": "Thirty-two wide channel vectorized row major Int8 format"
  }],
  "ParameterType": "Convolution",
  "Kernel": [3,3],
  "PaddingMode": "kEXPLICIT_ROUND_DOWN",
  "PrePadding": [1,1],
  "PostPadding": [1,1],
  "Stride": [1,1],
  "Dilation": [1,1],
  "OutMaps": 256,
  "Groups": 1,
  "Weights": {"Type": "Int8", "Count": 589824},
  "Bias": {"Type": "Float", "Count": 256},
  "HasBias": 1,
  "HasReLU": 1,
  "HasSparseWeights": 0,
  "HasDynamicFilter": 0,
  "HasDynamicBias": 0,
  "HasResidual": 0,
  "ConvXAsActInputIdx": -1,
  "BiasAsActInputIdx": -1,
  "ResAsActInputIdx": -1,
  "Activation": "RELU",
  "TacticName": "sm80_xmma_fprop_avdt_dense_int8int8_tilesize64x128x32_tapsperload9_threadspercta128_r3s3_u1v1_scalebias_relu",
  "TacticValue": "0x99ccdec1bdaffe62",
  "StreamId": 0,
  "Metadata": "[ONNX Layer: QuantizeLinear_486]\u001e[ONNX Layer: Conv_488]\u001e[ONNX Layer: Relu_489]\u001e[ONNX Layer: QuantizeLinear_492]\u001e[ONNX Layer: DequantizeLinear_484]\u001e[ONNX Layer: QuantizeLinear_481]\u001e[ONNX Layer: DequantizeLinear_487]"
},{
  "Name": "model.encoders.camera.backbone.layer3.3.conv3.weight + QuantizeLinear_497 + Conv_499 + Add_506 + Relu_507",
  "LayerType": "CaskConvolution",
  "Inputs": [
  {
    "Name": "1074",
    "Location": "Device",
    "Dimensions": [6,256,16,44],
    "Format/Datatype": "Thirty-two wide channel vectorized row major Int8 format"
  },
  {
    "Name": "1048",
    "Location": "Device",
    "Dimensions": [6,1024,16,44],
    "Format/Datatype": "Thirty-two wide channel vectorized row major Int8 format"
  }],
  "Outputs": [
  {
    "Name": "1094",
    "Location": "Device",
    "Dimensions": [6,1024,16,44],
    "Format/Datatype": "Thirty-two wide channel vectorized row major Int8 format"
  }],
  "ParameterType": "Convolution",
  "Kernel": [1,1],
  "PaddingMode": "kEXPLICIT_ROUND_DOWN",
  "PrePadding": [0,0],
  "PostPadding": [0,0],
  "Stride": [1,1],
  "Dilation": [1,1],
  "OutMaps": 1024,
  "Groups": 1,
  "Weights": {"Type": "Int8", "Count": 262144},
  "Bias": {"Type": "Float", "Count": 1024},
  "HasBias": 1,
  "HasReLU": 1,
  "HasSparseWeights": 0,
  "HasDynamicFilter": 0,
  "HasDynamicBias": 0,
  "HasResidual": 1,
  "ConvXAsActInputIdx": -1,
  "BiasAsActInputIdx": -1,
  "ResAsActInputIdx": -1,
  "Activation": "RELU",
  "TacticName": "sm80_xmma_conv_fprop_smallk_i8i8_i32_f32_nchw_vect_c_32kcrs_vect_c_32_nchw_vect_c_32_warptilesize32x32_stage4_warpsize2x4x1_r1s1_u1v1_hw0_c256_scalebias_beta_relu",
  "TacticValue": "0x7da1544a119637e7",
  "StreamId": 0,
  "Metadata": "[ONNX Layer: QuantizeLinear_497]\u001e[ONNX Layer: Conv_499]\u001e[ONNX Layer: QuantizeLinear_510]\u001e[ONNX Layer: QuantizeLinear_542]\u001e[ONNX Layer: DequantizeLinear_495]\u001e[ONNX Layer: QuantizeLinear_492]\u001e[ONNX Layer: DequantizeLinear_498]\u001e[ONNX Layer: Add_506]\u001e[ONNX Layer: Relu_507]\u001e[ONNX Layer: DequantizeLinear_505]\u001e[ONNX Layer: QuantizeLinear_470]"
},{
  "Name": "model.encoders.camera.backbone.layer3.4.conv1.weight + QuantizeLinear_515 + Conv_517 + Relu_518",
  "LayerType": "CaskConvolution",
  "Inputs": [
  {
    "Name": "1094",
    "Location": "Device",
    "Dimensions": [6,1024,16,44],
    "Format/Datatype": "Thirty-two wide channel vectorized row major Int8 format"
  }],
  "Outputs": [
  {
    "Name": "1107",
    "Location": "Device",
    "Dimensions": [6,256,16,44],
    "Format/Datatype": "Thirty-two wide channel vectorized row major Int8 format"
  }],
  "ParameterType": "Convolution",
  "Kernel": [1,1],
  "PaddingMode": "kEXPLICIT_ROUND_DOWN",
  "PrePadding": [0,0],
  "PostPadding": [0,0],
  "Stride": [1,1],
  "Dilation": [1,1],
  "OutMaps": 256,
  "Groups": 1,
  "Weights": {"Type": "Int8", "Count": 262144},
  "Bias": {"Type": "Float", "Count": 256},
  "HasBias": 1,
  "HasReLU": 1,
  "HasSparseWeights": 0,
  "HasDynamicFilter": 0,
  "HasDynamicBias": 0,
  "HasResidual": 0,
  "ConvXAsActInputIdx": -1,
  "BiasAsActInputIdx": -1,
  "ResAsActInputIdx": -1,
  "Activation": "RELU",
  "TacticName": "sm80_xmma_conv_fprop_smallk_i8i8_i32_f32_nchw_vect_c_32kcrs_vect_c_32_nchw_vect_c_32_warptilesize16x32_stage5_warpsize1x4x2_r1s1_u1v1_hw0_c1024_scalebias_relu",
  "TacticValue": "0x11898100e6875c92",
  "StreamId": 0,
  "Metadata": "[ONNX Layer: QuantizeLinear_515]\u001e[ONNX Layer: Conv_517]\u001e[ONNX Layer: Relu_518]\u001e[ONNX Layer: QuantizeLinear_521]\u001e[ONNX Layer: DequantizeLinear_513]\u001e[ONNX Layer: QuantizeLinear_510]\u001e[ONNX Layer: DequantizeLinear_516]"
},{
  "Name": "model.encoders.camera.backbone.layer3.4.conv2.weight + QuantizeLinear_526 + Conv_528 + Relu_529",
  "LayerType": "CaskConvolution",
  "Inputs": [
  {
    "Name": "1107",
    "Location": "Device",
    "Dimensions": [6,256,16,44],
    "Format/Datatype": "Thirty-two wide channel vectorized row major Int8 format"
  }],
  "Outputs": [
  {
    "Name": "1120",
    "Location": "Device",
    "Dimensions": [6,256,16,44],
    "Format/Datatype": "Thirty-two wide channel vectorized row major Int8 format"
  }],
  "ParameterType": "Convolution",
  "Kernel": [3,3],
  "PaddingMode": "kEXPLICIT_ROUND_DOWN",
  "PrePadding": [1,1],
  "PostPadding": [1,1],
  "Stride": [1,1],
  "Dilation": [1,1],
  "OutMaps": 256,
  "Groups": 1,
  "Weights": {"Type": "Int8", "Count": 589824},
  "Bias": {"Type": "Float", "Count": 256},
  "HasBias": 1,
  "HasReLU": 1,
  "HasSparseWeights": 0,
  "HasDynamicFilter": 0,
  "HasDynamicBias": 0,
  "HasResidual": 0,
  "ConvXAsActInputIdx": -1,
  "BiasAsActInputIdx": -1,
  "ResAsActInputIdx": -1,
  "Activation": "RELU",
  "TacticName": "sm80_xmma_fprop_avdt_dense_int8int8_tilesize64x128x32_tapsperload9_threadspercta128_r3s3_u1v1_scalebias_relu",
  "TacticValue": "0x99ccdec1bdaffe62",
  "StreamId": 0,
  "Metadata": "[ONNX Layer: QuantizeLinear_526]\u001e[ONNX Layer: Conv_528]\u001e[ONNX Layer: Relu_529]\u001e[ONNX Layer: QuantizeLinear_532]\u001e[ONNX Layer: DequantizeLinear_524]\u001e[ONNX Layer: QuantizeLinear_521]\u001e[ONNX Layer: DequantizeLinear_527]"
},{
  "Name": "model.encoders.camera.backbone.layer3.4.conv3.weight + QuantizeLinear_537 + Conv_539 + Add_546 + Relu_547",
  "LayerType": "CaskConvolution",
  "Inputs": [
  {
    "Name": "1120",
    "Location": "Device",
    "Dimensions": [6,256,16,44],
    "Format/Datatype": "Thirty-two wide channel vectorized row major Int8 format"
  },
  {
    "Name": "1094",
    "Location": "Device",
    "Dimensions": [6,1024,16,44],
    "Format/Datatype": "Thirty-two wide channel vectorized row major Int8 format"
  }],
  "Outputs": [
  {
    "Name": "1140",
    "Location": "Device",
    "Dimensions": [6,1024,16,44],
    "Format/Datatype": "Thirty-two wide channel vectorized row major Int8 format"
  }],
  "ParameterType": "Convolution",
  "Kernel": [1,1],
  "PaddingMode": "kEXPLICIT_ROUND_DOWN",
  "PrePadding": [0,0],
  "PostPadding": [0,0],
  "Stride": [1,1],
  "Dilation": [1,1],
  "OutMaps": 1024,
  "Groups": 1,
  "Weights": {"Type": "Int8", "Count": 262144},
  "Bias": {"Type": "Float", "Count": 1024},
  "HasBias": 1,
  "HasReLU": 1,
  "HasSparseWeights": 0,
  "HasDynamicFilter": 0,
  "HasDynamicBias": 0,
  "HasResidual": 1,
  "ConvXAsActInputIdx": -1,
  "BiasAsActInputIdx": -1,
  "ResAsActInputIdx": -1,
  "Activation": "RELU",
  "TacticName": "sm80_xmma_conv_fprop_smallk_i8i8_i32_f32_nchw_vect_c_32kcrs_vect_c_32_nchw_vect_c_32_warptilesize32x32_stage4_warpsize2x4x1_r1s1_u1v1_hw0_c256_scalebias_beta_relu",
  "TacticValue": "0x7da1544a119637e7",
  "StreamId": 0,
  "Metadata": "[ONNX Layer: QuantizeLinear_537]\u001e[ONNX Layer: Conv_539]\u001e[ONNX Layer: QuantizeLinear_550]\u001e[ONNX Layer: QuantizeLinear_582]\u001e[ONNX Layer: DequantizeLinear_535]\u001e[ONNX Layer: QuantizeLinear_532]\u001e[ONNX Layer: DequantizeLinear_538]\u001e[ONNX Layer: Add_546]\u001e[ONNX Layer: Relu_547]\u001e[ONNX Layer: DequantizeLinear_545]\u001e[ONNX Layer: QuantizeLinear_510]"
},{
  "Name": "model.encoders.camera.backbone.layer3.5.conv1.weight + QuantizeLinear_555 + Conv_557 + Relu_558",
  "LayerType": "CaskConvolution",
  "Inputs": [
  {
    "Name": "1140",
    "Location": "Device",
    "Dimensions": [6,1024,16,44],
    "Format/Datatype": "Thirty-two wide channel vectorized row major Int8 format"
  }],
  "Outputs": [
  {
    "Name": "1153",
    "Location": "Device",
    "Dimensions": [6,256,16,44],
    "Format/Datatype": "Thirty-two wide channel vectorized row major Int8 format"
  }],
  "ParameterType": "Convolution",
  "Kernel": [1,1],
  "PaddingMode": "kEXPLICIT_ROUND_DOWN",
  "PrePadding": [0,0],
  "PostPadding": [0,0],
  "Stride": [1,1],
  "Dilation": [1,1],
  "OutMaps": 256,
  "Groups": 1,
  "Weights": {"Type": "Int8", "Count": 262144},
  "Bias": {"Type": "Float", "Count": 256},
  "HasBias": 1,
  "HasReLU": 1,
  "HasSparseWeights": 0,
  "HasDynamicFilter": 0,
  "HasDynamicBias": 0,
  "HasResidual": 0,
  "ConvXAsActInputIdx": -1,
  "BiasAsActInputIdx": -1,
  "ResAsActInputIdx": -1,
  "Activation": "RELU",
  "TacticName": "sm80_xmma_conv_fprop_smallk_i8i8_i32_f32_nchw_vect_c_32kcrs_vect_c_32_nchw_vect_c_32_warptilesize16x32_stage5_warpsize1x4x2_r1s1_u1v1_hw0_c1024_scalebias_relu",
  "TacticValue": "0x11898100e6875c92",
  "StreamId": 0,
  "Metadata": "[ONNX Layer: QuantizeLinear_555]\u001e[ONNX Layer: Conv_557]\u001e[ONNX Layer: Relu_558]\u001e[ONNX Layer: QuantizeLinear_561]\u001e[ONNX Layer: DequantizeLinear_553]\u001e[ONNX Layer: QuantizeLinear_550]\u001e[ONNX Layer: DequantizeLinear_556]"
},{
  "Name": "model.encoders.camera.backbone.layer3.5.conv2.weight + QuantizeLinear_566 + Conv_568 + Relu_569",
  "LayerType": "CaskConvolution",
  "Inputs": [
  {
    "Name": "1153",
    "Location": "Device",
    "Dimensions": [6,256,16,44],
    "Format/Datatype": "Thirty-two wide channel vectorized row major Int8 format"
  }],
  "Outputs": [
  {
    "Name": "1166",
    "Location": "Device",
    "Dimensions": [6,256,16,44],
    "Format/Datatype": "Thirty-two wide channel vectorized row major Int8 format"
  }],
  "ParameterType": "Convolution",
  "Kernel": [3,3],
  "PaddingMode": "kEXPLICIT_ROUND_DOWN",
  "PrePadding": [1,1],
  "PostPadding": [1,1],
  "Stride": [1,1],
  "Dilation": [1,1],
  "OutMaps": 256,
  "Groups": 1,
  "Weights": {"Type": "Int8", "Count": 589824},
  "Bias": {"Type": "Float", "Count": 256},
  "HasBias": 1,
  "HasReLU": 1,
  "HasSparseWeights": 0,
  "HasDynamicFilter": 0,
  "HasDynamicBias": 0,
  "HasResidual": 0,
  "ConvXAsActInputIdx": -1,
  "BiasAsActInputIdx": -1,
  "ResAsActInputIdx": -1,
  "Activation": "RELU",
  "TacticName": "sm80_xmma_fprop_avdt_dense_int8int8_tilesize64x128x32_tapsperload9_threadspercta128_r3s3_u1v1_scalebias_relu",
  "TacticValue": "0x99ccdec1bdaffe62",
  "StreamId": 0,
  "Metadata": "[ONNX Layer: QuantizeLinear_566]\u001e[ONNX Layer: Conv_568]\u001e[ONNX Layer: Relu_569]\u001e[ONNX Layer: QuantizeLinear_572]\u001e[ONNX Layer: DequantizeLinear_564]\u001e[ONNX Layer: QuantizeLinear_561]\u001e[ONNX Layer: DequantizeLinear_567]"
},{
  "Name": "model.encoders.camera.backbone.layer3.5.conv3.weight + QuantizeLinear_577 + Conv_579 + Add_586 + Relu_587",
  "LayerType": "CaskConvolution",
  "Inputs": [
  {
    "Name": "1166",
    "Location": "Device",
    "Dimensions": [6,256,16,44],
    "Format/Datatype": "Thirty-two wide channel vectorized row major Int8 format"
  },
  {
    "Name": "1140",
    "Location": "Device",
    "Dimensions": [6,1024,16,44],
    "Format/Datatype": "Thirty-two wide channel vectorized row major Int8 format"
  }],
  "Outputs": [
  {
    "Name": "Concat_737_1350_clone_0",
    "Location": "Device",
    "Dimensions": [6,1024,16,44],
    "Format/Datatype": "Thirty-two wide channel vectorized row major Int8 format"
  }],
  "ParameterType": "Convolution",
  "Kernel": [1,1],
  "PaddingMode": "kEXPLICIT_ROUND_DOWN",
  "PrePadding": [0,0],
  "PostPadding": [0,0],
  "Stride": [1,1],
  "Dilation": [1,1],
  "OutMaps": 1024,
  "Groups": 1,
  "Weights": {"Type": "Int8", "Count": 262144},
  "Bias": {"Type": "Float", "Count": 1024},
  "HasBias": 1,
  "HasReLU": 1,
  "HasSparseWeights": 0,
  "HasDynamicFilter": 0,
  "HasDynamicBias": 0,
  "HasResidual": 1,
  "ConvXAsActInputIdx": -1,
  "BiasAsActInputIdx": -1,
  "ResAsActInputIdx": -1,
  "Activation": "RELU",
  "TacticName": "sm80_xmma_conv_fprop_smallk_i8i8_i32_f32_nchw_vect_c_32kcrs_vect_c_32_nchw_vect_c_32_warptilesize32x32_stage4_warpsize2x4x1_r1s1_u1v1_hw0_c256_scalebias_beta_relu",
  "TacticValue": "0x7da1544a119637e7",
  "StreamId": 0,
  "Metadata": "[ONNX Layer: QuantizeLinear_577]\u001e[ONNX Layer: Conv_579]\u001e[ONNX Layer: QuantizeLinear_590]\u001e[ONNX Layer: QuantizeLinear_622]\u001e[ONNX Layer: QuantizeLinear_727]\u001e[ONNX Layer: DequantizeLinear_575]\u001e[ONNX Layer: QuantizeLinear_572]\u001e[ONNX Layer: DequantizeLinear_578]\u001e[ONNX Layer: Add_586]\u001e[ONNX Layer: Relu_587]\u001e[ONNX Layer: DequantizeLinear_585]\u001e[ONNX Layer: QuantizeLinear_550]"
},{
  "Name": "model.encoders.camera.backbone.layer4.0.conv1.weight + QuantizeLinear_595 + Conv_597 + Relu_598",
  "LayerType": "CaskConvolution",
  "Inputs": [
  {
    "Name": "Concat_737_1350_clone_0",
    "Location": "Device",
    "Dimensions": [6,1024,16,44],
    "Format/Datatype": "Thirty-two wide channel vectorized row major Int8 format"
  }],
  "Outputs": [
  {
    "Name": "1199",
    "Location": "Device",
    "Dimensions": [6,512,16,44],
    "Format/Datatype": "Thirty-two wide channel vectorized row major Int8 format"
  }],
  "ParameterType": "Convolution",
  "Kernel": [1,1],
  "PaddingMode": "kEXPLICIT_ROUND_DOWN",
  "PrePadding": [0,0],
  "PostPadding": [0,0],
  "Stride": [1,1],
  "Dilation": [1,1],
  "OutMaps": 512,
  "Groups": 1,
  "Weights": {"Type": "Int8", "Count": 524288},
  "Bias": {"Type": "Float", "Count": 512},
  "HasBias": 1,
  "HasReLU": 1,
  "HasSparseWeights": 0,
  "HasDynamicFilter": 0,
  "HasDynamicBias": 0,
  "HasResidual": 0,
  "ConvXAsActInputIdx": -1,
  "BiasAsActInputIdx": -1,
  "ResAsActInputIdx": -1,
  "Activation": "RELU",
  "TacticName": "sm80_xmma_conv_fprop_smallk_i8i8_i32_f32_nchw_vect_c_32kcrs_vect_c_32_nchw_vect_c_32_warptilesize16x32_stage5_warpsize1x4x2_r1s1_u1v1_hw0_c1024_scalebias_relu",
  "TacticValue": "0x11898100e6875c92",
  "StreamId": 0,
  "Metadata": "[ONNX Layer: QuantizeLinear_595]\u001e[ONNX Layer: Conv_597]\u001e[ONNX Layer: Relu_598]\u001e[ONNX Layer: QuantizeLinear_601]\u001e[ONNX Layer: DequantizeLinear_593]\u001e[ONNX Layer: QuantizeLinear_590]\u001e[ONNX Layer: DequantizeLinear_596]"
},{
  "Name": "model.encoders.camera.backbone.layer4.0.downsample.0.weight + QuantizeLinear_627 + Conv_629",
  "LayerType": "CaskConvolution",
  "Inputs": [
  {
    "Name": "Concat_737_1350_clone_0",
    "Location": "Device",
    "Dimensions": [6,1024,16,44],
    "Format/Datatype": "Thirty-two wide channel vectorized row major Int8 format"
  }],
  "Outputs": [
  {
    "Name": "1236",
    "Location": "Device",
    "Dimensions": [6,2048,8,22],
    "Format/Datatype": "Thirty-two wide channel vectorized row major Int8 format"
  }],
  "ParameterType": "Convolution",
  "Kernel": [1,1],
  "PaddingMode": "kEXPLICIT_ROUND_DOWN",
  "PrePadding": [0,0],
  "PostPadding": [0,0],
  "Stride": [2,2],
  "Dilation": [1,1],
  "OutMaps": 2048,
  "Groups": 1,
  "Weights": {"Type": "Int8", "Count": 2097152},
  "Bias": {"Type": "Float", "Count": 2048},
  "HasBias": 1,
  "HasReLU": 0,
  "HasSparseWeights": 0,
  "HasDynamicFilter": 0,
  "HasDynamicBias": 0,
  "HasResidual": 0,
  "ConvXAsActInputIdx": -1,
  "BiasAsActInputIdx": -1,
  "ResAsActInputIdx": -1,
  "Activation": "NONE",
  "TacticName": "sm80_xmma_fprop_implicit_gemm_interleaved_i8i8_i8i32_f32_nchw_vect_c_32kcrs_vect_c_32_nchw_vect_c_32_tilesize96x192x64_stage3_warpsize2x2x1_g1_tensor16x8x32_t1r1s1",
  "TacticValue": "0x6106e2811713d7ee",
  "StreamId": 0,
  "Metadata": "[ONNX Layer: QuantizeLinear_627]\u001e[ONNX Layer: Conv_629]\u001e[ONNX Layer: QuantizeLinear_632]\u001e[ONNX Layer: DequantizeLinear_625]\u001e[ONNX Layer: QuantizeLinear_590]\u001e[ONNX Layer: DequantizeLinear_628]"
},{
  "Name": "model.encoders.camera.backbone.layer4.0.conv2.weight + QuantizeLinear_606 + Conv_608 + Relu_609",
  "LayerType": "CaskConvolution",
  "Inputs": [
  {
    "Name": "1199",
    "Location": "Device",
    "Dimensions": [6,512,16,44],
    "Format/Datatype": "Thirty-two wide channel vectorized row major Int8 format"
  }],
  "Outputs": [
  {
    "Name": "1212",
    "Location": "Device",
    "Dimensions": [6,512,8,22],
    "Format/Datatype": "Thirty-two wide channel vectorized row major Int8 format"
  }],
  "ParameterType": "Convolution",
  "Kernel": [3,3],
  "PaddingMode": "kEXPLICIT_ROUND_DOWN",
  "PrePadding": [1,1],
  "PostPadding": [1,1],
  "Stride": [2,2],
  "Dilation": [1,1],
  "OutMaps": 512,
  "Groups": 1,
  "Weights": {"Type": "Int8", "Count": 2359296},
  "Bias": {"Type": "Float", "Count": 512},
  "HasBias": 1,
  "HasReLU": 1,
  "HasSparseWeights": 0,
  "HasDynamicFilter": 0,
  "HasDynamicBias": 0,
  "HasResidual": 0,
  "ConvXAsActInputIdx": -1,
  "BiasAsActInputIdx": -1,
  "ResAsActInputIdx": -1,
  "Activation": "RELU",
  "TacticName": "sm80_xmma_fprop_implicit_gemm_interleaved_i8i8_i8i32_f32_nchw_vect_c_32kcrs_vect_c_32_nchw_vect_c_32_tilesize96x128x64_stage3_warpsize2x2x1_g1_tensor16x8x32",
  "TacticValue": "0x87620679fb5f37df",
  "StreamId": 0,
  "Metadata": "[ONNX Layer: QuantizeLinear_606]\u001e[ONNX Layer: Conv_608]\u001e[ONNX Layer: Relu_609]\u001e[ONNX Layer: QuantizeLinear_612]\u001e[ONNX Layer: DequantizeLinear_604]\u001e[ONNX Layer: QuantizeLinear_601]\u001e[ONNX Layer: DequantizeLinear_607]"
},{
  "Name": "model.encoders.camera.backbone.layer4.0.conv3.weight + QuantizeLinear_617 + Conv_619 + Add_636 + Relu_637",
  "LayerType": "CaskConvolution",
  "Inputs": [
  {
    "Name": "1212",
    "Location": "Device",
    "Dimensions": [6,512,8,22],
    "Format/Datatype": "Thirty-two wide channel vectorized row major Int8 format"
  },
  {
    "Name": "1236",
    "Location": "Device",
    "Dimensions": [6,2048,8,22],
    "Format/Datatype": "Thirty-two wide channel vectorized row major Int8 format"
  }],
  "Outputs": [
  {
    "Name": "1244",
    "Location": "Device",
    "Dimensions": [6,2048,8,22],
    "Format/Datatype": "Thirty-two wide channel vectorized row major Int8 format"
  }],
  "ParameterType": "Convolution",
  "Kernel": [1,1],
  "PaddingMode": "kEXPLICIT_ROUND_DOWN",
  "PrePadding": [0,0],
  "PostPadding": [0,0],
  "Stride": [1,1],
  "Dilation": [1,1],
  "OutMaps": 2048,
  "Groups": 1,
  "Weights": {"Type": "Int8", "Count": 1048576},
  "Bias": {"Type": "Float", "Count": 2048},
  "HasBias": 1,
  "HasReLU": 1,
  "HasSparseWeights": 0,
  "HasDynamicFilter": 0,
  "HasDynamicBias": 0,
  "HasResidual": 1,
  "ConvXAsActInputIdx": -1,
  "BiasAsActInputIdx": -1,
  "ResAsActInputIdx": -1,
  "Activation": "RELU",
  "TacticName": "sm80_xmma_conv_fprop_smallk_i8i8_i32_f32_nchw_vect_c_32kcrs_vect_c_32_nchw_vect_c_32_warptilesize16x32_stage4_warpsize2x4x1_r1s1_u1v1_hw0_c512_scalebias_beta_relu",
  "TacticValue": "0x231735260b035c95",
  "StreamId": 0,
  "Metadata": "[ONNX Layer: QuantizeLinear_617]\u001e[ONNX Layer: Conv_619]\u001e[ONNX Layer: QuantizeLinear_640]\u001e[ONNX Layer: QuantizeLinear_672]\u001e[ONNX Layer: DequantizeLinear_615]\u001e[ONNX Layer: QuantizeLinear_612]\u001e[ONNX Layer: DequantizeLinear_618]\u001e[ONNX Layer: Add_636]\u001e[ONNX Layer: Relu_637]\u001e[ONNX Layer: DequantizeLinear_635]\u001e[ONNX Layer: QuantizeLinear_632]"
},{
  "Name": "model.encoders.camera.backbone.layer4.1.conv1.weight + QuantizeLinear_645 + Conv_647 + Relu_648",
  "LayerType": "CaskConvolution",
  "Inputs": [
  {
    "Name": "1244",
    "Location": "Device",
    "Dimensions": [6,2048,8,22],
    "Format/Datatype": "Thirty-two wide channel vectorized row major Int8 format"
  }],
  "Outputs": [
  {
    "Name": "1257",
    "Location": "Device",
    "Dimensions": [6,512,8,22],
    "Format/Datatype": "Thirty-two wide channel vectorized row major Int8 format"
  }],
  "ParameterType": "Convolution",
  "Kernel": [1,1],
  "PaddingMode": "kEXPLICIT_ROUND_DOWN",
  "PrePadding": [0,0],
  "PostPadding": [0,0],
  "Stride": [1,1],
  "Dilation": [1,1],
  "OutMaps": 512,
  "Groups": 1,
  "Weights": {"Type": "Int8", "Count": 1048576},
  "Bias": {"Type": "Float", "Count": 512},
  "HasBias": 1,
  "HasReLU": 1,
  "HasSparseWeights": 0,
  "HasDynamicFilter": 0,
  "HasDynamicBias": 0,
  "HasResidual": 0,
  "ConvXAsActInputIdx": -1,
  "BiasAsActInputIdx": -1,
  "ResAsActInputIdx": -1,
  "Activation": "RELU",
  "TacticName": "sm80_xmma_fprop_implicit_gemm_interleaved_i8i8_i8i32_f32_nchw_vect_c_32kcrs_vect_c_32_nchw_vect_c_32_tilesize96x128x64_stage3_warpsize2x2x1_g1_tensor16x8x32",
  "TacticValue": "0x87620679fb5f37df",
  "StreamId": 0,
  "Metadata": "[ONNX Layer: QuantizeLinear_645]\u001e[ONNX Layer: Conv_647]\u001e[ONNX Layer: Relu_648]\u001e[ONNX Layer: QuantizeLinear_651]\u001e[ONNX Layer: DequantizeLinear_643]\u001e[ONNX Layer: QuantizeLinear_640]\u001e[ONNX Layer: DequantizeLinear_646]"
},{
  "Name": "model.encoders.camera.backbone.layer4.1.conv2.weight + QuantizeLinear_656 + Conv_658 + Relu_659",
  "LayerType": "CaskConvolution",
  "Inputs": [
  {
    "Name": "1257",
    "Location": "Device",
    "Dimensions": [6,512,8,22],
    "Format/Datatype": "Thirty-two wide channel vectorized row major Int8 format"
  }],
  "Outputs": [
  {
    "Name": "1270",
    "Location": "Device",
    "Dimensions": [6,512,8,22],
    "Format/Datatype": "Thirty-two wide channel vectorized row major Int8 format"
  }],
  "ParameterType": "Convolution",
  "Kernel": [3,3],
  "PaddingMode": "kEXPLICIT_ROUND_DOWN",
  "PrePadding": [1,1],
  "PostPadding": [1,1],
  "Stride": [1,1],
  "Dilation": [1,1],
  "OutMaps": 512,
  "Groups": 1,
  "Weights": {"Type": "Int8", "Count": 2359296},
  "Bias": {"Type": "Float", "Count": 512},
  "HasBias": 1,
  "HasReLU": 1,
  "HasSparseWeights": 0,
  "HasDynamicFilter": 0,
  "HasDynamicBias": 0,
  "HasResidual": 0,
  "ConvXAsActInputIdx": -1,
  "BiasAsActInputIdx": -1,
  "ResAsActInputIdx": -1,
  "Activation": "RELU",
  "TacticName": "sm80_xmma_fprop_implicit_gemm_interleaved_i8i8_i8i32_f32_nchw_vect_c_32kcrs_vect_c_32_nchw_vect_c_32_tilesize96x128x64_stage3_warpsize2x2x1_g1_tensor16x8x32",
  "TacticValue": "0x87620679fb5f37df",
  "StreamId": 0,
  "Metadata": "[ONNX Layer: QuantizeLinear_656]\u001e[ONNX Layer: Conv_658]\u001e[ONNX Layer: Relu_659]\u001e[ONNX Layer: QuantizeLinear_662]\u001e[ONNX Layer: DequantizeLinear_654]\u001e[ONNX Layer: QuantizeLinear_651]\u001e[ONNX Layer: DequantizeLinear_657]"
},{
  "Name": "model.encoders.camera.backbone.layer4.1.conv3.weight + QuantizeLinear_667 + Conv_669 + Add_676 + Relu_677",
  "LayerType": "CaskConvolution",
  "Inputs": [
  {
    "Name": "1270",
    "Location": "Device",
    "Dimensions": [6,512,8,22],
    "Format/Datatype": "Thirty-two wide channel vectorized row major Int8 format"
  },
  {
    "Name": "1244",
    "Location": "Device",
    "Dimensions": [6,2048,8,22],
    "Format/Datatype": "Thirty-two wide channel vectorized row major Int8 format"
  }],
  "Outputs": [
  {
    "Name": "1290",
    "Location": "Device",
    "Dimensions": [6,2048,8,22],
    "Format/Datatype": "Thirty-two wide channel vectorized row major Int8 format"
  }],
  "ParameterType": "Convolution",
  "Kernel": [1,1],
  "PaddingMode": "kEXPLICIT_ROUND_DOWN",
  "PrePadding": [0,0],
  "PostPadding": [0,0],
  "Stride": [1,1],
  "Dilation": [1,1],
  "OutMaps": 2048,
  "Groups": 1,
  "Weights": {"Type": "Int8", "Count": 1048576},
  "Bias": {"Type": "Float", "Count": 2048},
  "HasBias": 1,
  "HasReLU": 1,
  "HasSparseWeights": 0,
  "HasDynamicFilter": 0,
  "HasDynamicBias": 0,
  "HasResidual": 1,
  "ConvXAsActInputIdx": -1,
  "BiasAsActInputIdx": -1,
  "ResAsActInputIdx": -1,
  "Activation": "RELU",
  "TacticName": "sm80_xmma_conv_fprop_smallk_i8i8_i32_f32_nchw_vect_c_32kcrs_vect_c_32_nchw_vect_c_32_warptilesize16x32_stage4_warpsize2x4x1_r1s1_u1v1_hw0_c512_scalebias_beta_relu",
  "TacticValue": "0x231735260b035c95",
  "StreamId": 0,
  "Metadata": "[ONNX Layer: QuantizeLinear_667]\u001e[ONNX Layer: Conv_669]\u001e[ONNX Layer: QuantizeLinear_680]\u001e[ONNX Layer: QuantizeLinear_712]\u001e[ONNX Layer: DequantizeLinear_665]\u001e[ONNX Layer: QuantizeLinear_662]\u001e[ONNX Layer: DequantizeLinear_668]\u001e[ONNX Layer: Add_676]\u001e[ONNX Layer: Relu_677]\u001e[ONNX Layer: DequantizeLinear_675]\u001e[ONNX Layer: QuantizeLinear_640]"
},{
  "Name": "model.encoders.camera.backbone.layer4.2.conv1.weight + QuantizeLinear_685 + Conv_687 + Relu_688",
  "LayerType": "CaskConvolution",
  "Inputs": [
  {
    "Name": "1290",
    "Location": "Device",
    "Dimensions": [6,2048,8,22],
    "Format/Datatype": "Thirty-two wide channel vectorized row major Int8 format"
  }],
  "Outputs": [
  {
    "Name": "1303",
    "Location": "Device",
    "Dimensions": [6,512,8,22],
    "Format/Datatype": "Thirty-two wide channel vectorized row major Int8 format"
  }],
  "ParameterType": "Convolution",
  "Kernel": [1,1],
  "PaddingMode": "kEXPLICIT_ROUND_DOWN",
  "PrePadding": [0,0],
  "PostPadding": [0,0],
  "Stride": [1,1],
  "Dilation": [1,1],
  "OutMaps": 512,
  "Groups": 1,
  "Weights": {"Type": "Int8", "Count": 1048576},
  "Bias": {"Type": "Float", "Count": 512},
  "HasBias": 1,
  "HasReLU": 1,
  "HasSparseWeights": 0,
  "HasDynamicFilter": 0,
  "HasDynamicBias": 0,
  "HasResidual": 0,
  "ConvXAsActInputIdx": -1,
  "BiasAsActInputIdx": -1,
  "ResAsActInputIdx": -1,
  "Activation": "RELU",
  "TacticName": "sm80_xmma_fprop_implicit_gemm_interleaved_i8i8_i8i32_f32_nchw_vect_c_32kcrs_vect_c_32_nchw_vect_c_32_tilesize96x128x64_stage3_warpsize2x2x1_g1_tensor16x8x32",
  "TacticValue": "0x87620679fb5f37df",
  "StreamId": 0,
  "Metadata": "[ONNX Layer: QuantizeLinear_685]\u001e[ONNX Layer: Conv_687]\u001e[ONNX Layer: Relu_688]\u001e[ONNX Layer: QuantizeLinear_691]\u001e[ONNX Layer: DequantizeLinear_683]\u001e[ONNX Layer: QuantizeLinear_680]\u001e[ONNX Layer: DequantizeLinear_686]"
},{
  "Name": "model.encoders.camera.backbone.layer4.2.conv2.weight + QuantizeLinear_696 + Conv_698 + Relu_699",
  "LayerType": "CaskConvolution",
  "Inputs": [
  {
    "Name": "1303",
    "Location": "Device",
    "Dimensions": [6,512,8,22],
    "Format/Datatype": "Thirty-two wide channel vectorized row major Int8 format"
  }],
  "Outputs": [
  {
    "Name": "1316",
    "Location": "Device",
    "Dimensions": [6,512,8,22],
    "Format/Datatype": "Thirty-two wide channel vectorized row major Int8 format"
  }],
  "ParameterType": "Convolution",
  "Kernel": [3,3],
  "PaddingMode": "kEXPLICIT_ROUND_DOWN",
  "PrePadding": [1,1],
  "PostPadding": [1,1],
  "Stride": [1,1],
  "Dilation": [1,1],
  "OutMaps": 512,
  "Groups": 1,
  "Weights": {"Type": "Int8", "Count": 2359296},
  "Bias": {"Type": "Float", "Count": 512},
  "HasBias": 1,
  "HasReLU": 1,
  "HasSparseWeights": 0,
  "HasDynamicFilter": 0,
  "HasDynamicBias": 0,
  "HasResidual": 0,
  "ConvXAsActInputIdx": -1,
  "BiasAsActInputIdx": -1,
  "ResAsActInputIdx": -1,
  "Activation": "RELU",
  "TacticName": "sm80_xmma_fprop_implicit_gemm_interleaved_i8i8_i8i32_f32_nchw_vect_c_32kcrs_vect_c_32_nchw_vect_c_32_tilesize96x128x64_stage3_warpsize2x2x1_g1_tensor16x8x32",
  "TacticValue": "0x87620679fb5f37df",
  "StreamId": 0,
  "Metadata": "[ONNX Layer: QuantizeLinear_696]\u001e[ONNX Layer: Conv_698]\u001e[ONNX Layer: Relu_699]\u001e[ONNX Layer: QuantizeLinear_702]\u001e[ONNX Layer: DequantizeLinear_694]\u001e[ONNX Layer: QuantizeLinear_691]\u001e[ONNX Layer: DequantizeLinear_697]"
},{
  "Name": "model.encoders.camera.backbone.layer4.2.conv3.weight + QuantizeLinear_707 + Conv_709 + Add_716 + Relu_717",
  "LayerType": "CaskConvolution",
  "Inputs": [
  {
    "Name": "1316",
    "Location": "Device",
    "Dimensions": [6,512,8,22],
    "Format/Datatype": "Thirty-two wide channel vectorized row major Int8 format"
  },
  {
    "Name": "1290",
    "Location": "Device",
    "Dimensions": [6,2048,8,22],
    "Format/Datatype": "Thirty-two wide channel vectorized row major Int8 format"
  }],
  "Outputs": [
  {
    "Name": "1344",
    "Location": "Device",
    "Dimensions": [6,2048,8,22],
    "Format/Datatype": "Thirty-two wide channel vectorized row major Int8 format"
  }],
  "ParameterType": "Convolution",
  "Kernel": [1,1],
  "PaddingMode": "kEXPLICIT_ROUND_DOWN",
  "PrePadding": [0,0],
  "PostPadding": [0,0],
  "Stride": [1,1],
  "Dilation": [1,1],
  "OutMaps": 2048,
  "Groups": 1,
  "Weights": {"Type": "Int8", "Count": 1048576},
  "Bias": {"Type": "Float", "Count": 2048},
  "HasBias": 1,
  "HasReLU": 1,
  "HasSparseWeights": 0,
  "HasDynamicFilter": 0,
  "HasDynamicBias": 0,
  "HasResidual": 1,
  "ConvXAsActInputIdx": -1,
  "BiasAsActInputIdx": -1,
  "ResAsActInputIdx": -1,
  "Activation": "RELU",
  "TacticName": "sm80_xmma_conv_fprop_smallk_i8i8_i32_f32_nchw_vect_c_32kcrs_vect_c_32_nchw_vect_c_32_warptilesize16x32_stage4_warpsize2x4x1_r1s1_u1v1_hw0_c512_scalebias_beta_relu",
  "TacticValue": "0x231735260b035c95",
  "StreamId": 0,
  "Metadata": "[ONNX Layer: QuantizeLinear_707]\u001e[ONNX Layer: Conv_709]\u001e[ONNX Layer: QuantizeLinear_733]\u001e[ONNX Layer: QuantizeLinear_590]\u001e[ONNX Layer: DequantizeLinear_705]\u001e[ONNX Layer: QuantizeLinear_702]\u001e[ONNX Layer: DequantizeLinear_708]\u001e[ONNX Layer: Add_716]\u001e[ONNX Layer: Relu_717]\u001e[ONNX Layer: DequantizeLinear_715]\u001e[ONNX Layer: QuantizeLinear_680]"
},{
  "Name": "Resize_724",
  "LayerType": "Resize",
  "Inputs": [
  {
    "Name": "1344",
    "Location": "Device",
    "Dimensions": [6,2048,8,22],
    "Format/Datatype": "Thirty-two wide channel vectorized row major Int8 format"
  }],
  "Outputs": [
  {
    "Name": "Concat_737_1356_clone_1",
    "Location": "Device",
    "Dimensions": [6,2048,16,44],
    "Format/Datatype": "Thirty-two wide channel vectorized row major Int8 format"
  }],
  "ParameterType": "Resize",
  "InterpolationMode": "LINEAR",
  "ResizeScales": [0, 0, 0, 0, 0, 0, 0, 0],
  "ExcludeOutside": 0,
  "CubicCoeff": -0.75,
  "CoordTransform": "kHALF_PIXEL",
  "ResizeSelector": "kUPPER",
  "NNRounding": "kFLOOR",
  "TacticValue": "0x0000000000000008",
  "StreamId": 0,
  "Metadata": "[ONNX Layer: Resize_724]"
},{
  "Name": "Concat_737_1350_clone_0 copy",
  "LayerType": "Reformat",
  "Inputs": [
  {
    "Name": "Concat_737_1350_clone_0",
    "Location": "Device",
    "Dimensions": [6,1024,16,44],
    "Format/Datatype": "Thirty-two wide channel vectorized row major Int8 format"
  }],
  "Outputs": [
  {
    "Name": "1360",
    "Location": "Device",
    "Dimensions": [6,1024,16,44],
    "Format/Datatype": "Thirty-two wide channel vectorized row major Int8 format"
  }],
  "ParameterType": "Reformat",
  "Origin": "CONCAT",
  "TacticValue": "0x0000000000000000",
  "StreamId": 0,
  "Metadata": "[ONNX Layer: Concat_737]"
},{
  "Name": "Concat_737_1356_clone_1 copy",
  "LayerType": "Reformat",
  "Inputs": [
  {
    "Name": "Concat_737_1356_clone_1",
    "Location": "Device",
    "Dimensions": [6,2048,16,44],
    "Format/Datatype": "Thirty-two wide channel vectorized row major Int8 format"
  }],
  "Outputs": [
  {
    "Name": "1360",
    "Location": "Device",
    "Dimensions": [6,2048,16,44],
    "Format/Datatype": "Thirty-two wide channel vectorized row major Int8 format"
  }],
  "ParameterType": "Reformat",
  "Origin": "CONCAT",
  "TacticValue": "0x0000000000000000",
  "StreamId": 0,
  "Metadata": "[ONNX Layer: Concat_737]"
},{
  "Name": "model.encoders.camera.neck.lateral_convs.1.conv.weight + QuantizeLinear_745 + Conv_747 + Relu_748",
  "LayerType": "CaskConvolution",
  "Inputs": [
  {
    "Name": "1360",
    "Location": "Device",
    "Dimensions": [6,3072,16,44],
    "Format/Datatype": "Thirty-two wide channel vectorized row major Int8 format"
  }],
  "Outputs": [
  {
    "Name": "1373",
    "Location": "Device",
    "Dimensions": [6,256,16,44],
    "Format/Datatype": "Thirty-two wide channel vectorized row major Int8 format"
  }],
  "ParameterType": "Convolution",
  "Kernel": [1,1],
  "PaddingMode": "kEXPLICIT_ROUND_DOWN",
  "PrePadding": [0,0],
  "PostPadding": [0,0],
  "Stride": [1,1],
  "Dilation": [1,1],
  "OutMaps": 256,
  "Groups": 1,
  "Weights": {"Type": "Int8", "Count": 786432},
  "Bias": {"Type": "Float", "Count": 256},
  "HasBias": 1,
  "HasReLU": 1,
  "HasSparseWeights": 0,
  "HasDynamicFilter": 0,
  "HasDynamicBias": 0,
  "HasResidual": 0,
  "ConvXAsActInputIdx": -1,
  "BiasAsActInputIdx": -1,
  "ResAsActInputIdx": -1,
  "Activation": "RELU",
  "TacticName": "sm80_xmma_fprop_implicit_gemm_interleaved_i8i8_i8i32_f32_nchw_vect_c_32kcrs_vect_c_32_nchw_vect_c_32_tilesize192x128x64_stage3_warpsize4x2x1_g1_tensor16x8x32_simple_t1r1s1",
  "TacticValue": "0xb2cc5e08f6b66610",
  "StreamId": 0,
  "Metadata": "[ONNX Layer: QuantizeLinear_745]\u001e[ONNX Layer: Conv_747]\u001e[ONNX Layer: Relu_748]\u001e[ONNX Layer: QuantizeLinear_751]\u001e[ONNX Layer: DequantizeLinear_743]\u001e[ONNX Layer: QuantizeLinear_590]\u001e[ONNX Layer: DequantizeLinear_746]"
},{
  "Name": "model.encoders.camera.neck.fpn_convs.1.conv.weight + QuantizeLinear_756 + Conv_758 + Relu_759",
  "LayerType": "CaskConvolution",
  "Inputs": [
  {
    "Name": "1373",
    "Location": "Device",
    "Dimensions": [6,256,16,44],
    "Format/Datatype": "Thirty-two wide channel vectorized row major Int8 format"
  }],
  "Outputs": [
  {
    "Name": "1394",
    "Location": "Device",
    "Dimensions": [6,256,16,44],
    "Format/Datatype": "Thirty-two wide channel vectorized row major Int8 format"
  }],
  "ParameterType": "Convolution",
  "Kernel": [3,3],
  "PaddingMode": "kEXPLICIT_ROUND_DOWN",
  "PrePadding": [1,1],
  "PostPadding": [1,1],
  "Stride": [1,1],
  "Dilation": [1,1],
  "OutMaps": 256,
  "Groups": 1,
  "Weights": {"Type": "Int8", "Count": 589824},
  "Bias": {"Type": "Float", "Count": 256},
  "HasBias": 1,
  "HasReLU": 1,
  "HasSparseWeights": 0,
  "HasDynamicFilter": 0,
  "HasDynamicBias": 0,
  "HasResidual": 0,
  "ConvXAsActInputIdx": -1,
  "BiasAsActInputIdx": -1,
  "ResAsActInputIdx": -1,
  "Activation": "RELU",
  "TacticName": "sm80_xmma_fprop_avdt_dense_int8int8_tilesize64x128x32_tapsperload9_threadspercta128_r3s3_u1v1_scalebias_relu",
  "TacticValue": "0x99ccdec1bdaffe62",
  "StreamId": 0,
  "Metadata": "[ONNX Layer: QuantizeLinear_756]\u001e[ONNX Layer: Conv_758]\u001e[ONNX Layer: Relu_759]\u001e[ONNX Layer: QuantizeLinear_775]\u001e[ONNX Layer: QuantizeLinear_340]\u001e[ONNX Layer: DequantizeLinear_754]\u001e[ONNX Layer: QuantizeLinear_751]\u001e[ONNX Layer: DequantizeLinear_757]"
},{
  "Name": "Resize_766",
  "LayerType": "Resize",
  "Inputs": [
  {
    "Name": "1394",
    "Location": "Device",
    "Dimensions": [6,256,16,44],
    "Format/Datatype": "Thirty-two wide channel vectorized row major Int8 format"
  }],
  "Outputs": [
  {
    "Name": "Concat_779_1406_clone_1",
    "Location": "Device",
    "Dimensions": [6,256,32,88],
    "Format/Datatype": "Thirty-two wide channel vectorized row major Int8 format"
  }],
  "ParameterType": "Resize",
  "InterpolationMode": "LINEAR",
  "ResizeScales": [0, 0, 0, 0, 0, 0, 0, 0],
  "ExcludeOutside": 0,
  "CubicCoeff": -0.75,
  "CoordTransform": "kHALF_PIXEL",
  "ResizeSelector": "kUPPER",
  "NNRounding": "kFLOOR",
  "TacticValue": "0x0000000000000008",
  "StreamId": 0,
  "Metadata": "[ONNX Layer: Resize_766]"
},{
  "Name": "Concat_779_1400_clone_0 copy",
  "LayerType": "Reformat",
  "Inputs": [
  {
    "Name": "Concat_779_1400_clone_0",
    "Location": "Device",
    "Dimensions": [6,512,32,88],
    "Format/Datatype": "Thirty-two wide channel vectorized row major Int8 format"
  }],
  "Outputs": [
  {
    "Name": "1410",
    "Location": "Device",
    "Dimensions": [6,512,32,88],
    "Format/Datatype": "Thirty-two wide channel vectorized row major Int8 format"
  }],
  "ParameterType": "Reformat",
  "Origin": "CONCAT",
  "TacticValue": "0x0000000000000000",
  "StreamId": 0,
  "Metadata": "[ONNX Layer: Concat_779]"
},{
  "Name": "Concat_779_1406_clone_1 copy",
  "LayerType": "Reformat",
  "Inputs": [
  {
    "Name": "Concat_779_1406_clone_1",
    "Location": "Device",
    "Dimensions": [6,256,32,88],
    "Format/Datatype": "Thirty-two wide channel vectorized row major Int8 format"
  }],
  "Outputs": [
  {
    "Name": "1410",
    "Location": "Device",
    "Dimensions": [6,256,32,88],
    "Format/Datatype": "Thirty-two wide channel vectorized row major Int8 format"
  }],
  "ParameterType": "Reformat",
  "Origin": "CONCAT",
  "TacticValue": "0x0000000000000000",
  "StreamId": 0,
  "Metadata": "[ONNX Layer: Concat_779]"
},{
  "Name": "model.encoders.camera.neck.lateral_convs.0.conv.weight + QuantizeLinear_787 + Conv_789 + Relu_790",
  "LayerType": "CaskConvolution",
  "Inputs": [
  {
    "Name": "1410",
    "Location": "Device",
    "Dimensions": [6,768,32,88],
    "Format/Datatype": "Thirty-two wide channel vectorized row major Int8 format"
  }],
  "Outputs": [
  {
    "Name": "1423",
    "Location": "Device",
    "Dimensions": [6,256,32,88],
    "Format/Datatype": "Thirty-two wide channel vectorized row major Int8 format"
  }],
  "ParameterType": "Convolution",
  "Kernel": [1,1],
  "PaddingMode": "kEXPLICIT_ROUND_DOWN",
  "PrePadding": [0,0],
  "PostPadding": [0,0],
  "Stride": [1,1],
  "Dilation": [1,1],
  "OutMaps": 256,
  "Groups": 1,
  "Weights": {"Type": "Int8", "Count": 196608},
  "Bias": {"Type": "Float", "Count": 256},
  "HasBias": 1,
  "HasReLU": 1,
  "HasSparseWeights": 0,
  "HasDynamicFilter": 0,
  "HasDynamicBias": 0,
  "HasResidual": 0,
  "ConvXAsActInputIdx": -1,
  "BiasAsActInputIdx": -1,
  "ResAsActInputIdx": -1,
  "Activation": "RELU",
  "TacticName": "sm80_xmma_conv_fprop_smallk_i8i8_i32_f32_nchw_vect_c_32kcrs_vect_c_32_nchw_vect_c_32_warptilesize16x32_stage5_warpsize1x4x2_r1s1_u1v1_hw0_c768_scalebias_relu",
  "TacticValue": "0x0a44666d886e54e9",
  "StreamId": 0,
  "Metadata": "[ONNX Layer: QuantizeLinear_787]\u001e[ONNX Layer: Conv_789]\u001e[ONNX Layer: Relu_790]\u001e[ONNX Layer: QuantizeLinear_793]\u001e[ONNX Layer: DequantizeLinear_785]\u001e[ONNX Layer: QuantizeLinear_340]\u001e[ONNX Layer: DequantizeLinear_788]"
},{
  "Name": "model.encoders.camera.neck.fpn_convs.0.conv.weight + QuantizeLinear_798 + Conv_800 + Relu_801",
  "LayerType": "CaskConvolution",
  "Inputs": [
  {
    "Name": "1423",
    "Location": "Device",
    "Dimensions": [6,256,32,88],
    "Format/Datatype": "Thirty-two wide channel vectorized row major Int8 format"
  }],
  "Outputs": [
  {
    "Name": "1514",
    "Location": "Device",
    "Dimensions": [6,256,32,88],
    "Format/Datatype": "Thirty-two wide channel vectorized row major Int8 format"
  }],
  "ParameterType": "Convolution",
  "Kernel": [3,3],
  "PaddingMode": "kEXPLICIT_ROUND_DOWN",
  "PrePadding": [1,1],
  "PostPadding": [1,1],
  "Stride": [1,1],
  "Dilation": [1,1],
  "OutMaps": 256,
  "Groups": 1,
  "Weights": {"Type": "Int8", "Count": 589824},
  "Bias": {"Type": "Float", "Count": 256},
  "HasBias": 1,
  "HasReLU": 1,
  "HasSparseWeights": 0,
  "HasDynamicFilter": 0,
  "HasDynamicBias": 0,
  "HasResidual": 0,
  "ConvXAsActInputIdx": -1,
  "BiasAsActInputIdx": -1,
  "ResAsActInputIdx": -1,
  "Activation": "RELU",
  "TacticName": "sm80_xmma_fprop_avdt_dense_int8int8_tilesize64x256x32_tapsperload3_threadspercta128_r3s3_u1v1_scalebias_relu",
  "TacticValue": "0x9dafb2758560cc1d",
  "StreamId": 0,
  "Metadata": "[ONNX Layer: QuantizeLinear_798]\u001e[ONNX Layer: Conv_800]\u001e[ONNX Layer: Relu_801]\u001e[ONNX Layer: QuantizeLinear_861]\u001e[ONNX Layer: DequantizeLinear_796]\u001e[ONNX Layer: QuantizeLinear_793]\u001e[ONNX Layer: DequantizeLinear_799]"
},{
  "Name": "model.encoders.camera.vtransform.depthnet.0.weight + QuantizeLinear_866 + Conv_868 + Relu_869",
  "LayerType": "CaskConvolution",
  "Inputs": [
  {
    "Name": "1514",
    "Location": "Device",
    "Dimensions": [6,320,32,88],
    "Format/Datatype": "Thirty-two wide channel vectorized row major Int8 format"
  }],
  "Outputs": [
  {
    "Name": "1527",
    "Location": "Device",
    "Dimensions": [6,256,32,88],
    "Format/Datatype": "Thirty-two wide channel vectorized row major Int8 format"
  }],
  "ParameterType": "Convolution",
  "Kernel": [3,3],
  "PaddingMode": "kEXPLICIT_ROUND_DOWN",
  "PrePadding": [1,1],
  "PostPadding": [1,1],
  "Stride": [1,1],
  "Dilation": [1,1],
  "OutMaps": 256,
  "Groups": 1,
  "Weights": {"Type": "Int8", "Count": 737280},
  "Bias": {"Type": "Float", "Count": 256},
  "HasBias": 1,
  "HasReLU": 1,
  "HasSparseWeights": 0,
  "HasDynamicFilter": 0,
  "HasDynamicBias": 0,
  "HasResidual": 0,
  "ConvXAsActInputIdx": -1,
  "BiasAsActInputIdx": -1,
  "ResAsActInputIdx": -1,
  "Activation": "RELU",
  "TacticName": "sm80_xmma_fprop_avdt_dense_int8int8_tilesize64x256x32_tapsperload3_threadspercta128_r3s3_u1v1_scalebias_relu",
  "TacticValue": "0x9dafb2758560cc1d",
  "StreamId": 0,
  "Metadata": "[ONNX Layer: QuantizeLinear_866]\u001e[ONNX Layer: Conv_868]\u001e[ONNX Layer: Relu_869]\u001e[ONNX Layer: QuantizeLinear_872]\u001e[ONNX Layer: DequantizeLinear_864]\u001e[ONNX Layer: QuantizeLinear_861]\u001e[ONNX Layer: DequantizeLinear_867]"
},{
  "Name": "model.encoders.camera.vtransform.depthnet.3.weight + QuantizeLinear_877 + Conv_879 + Relu_880",
  "LayerType": "CaskConvolution",
  "Inputs": [
  {
    "Name": "1527",
    "Location": "Device",
    "Dimensions": [6,256,32,88],
    "Format/Datatype": "Thirty-two wide channel vectorized row major Int8 format"
  }],
  "Outputs": [
  {
    "Name": "1540",
    "Location": "Device",
    "Dimensions": [6,256,32,88],
    "Format/Datatype": "Thirty-two wide channel vectorized row major Int8 format"
  }],
  "ParameterType": "Convolution",
  "Kernel": [3,3],
  "PaddingMode": "kEXPLICIT_ROUND_DOWN",
  "PrePadding": [1,1],
  "PostPadding": [1,1],
  "Stride": [1,1],
  "Dilation": [1,1],
  "OutMaps": 256,
  "Groups": 1,
  "Weights": {"Type": "Int8", "Count": 589824},
  "Bias": {"Type": "Float", "Count": 256},
  "HasBias": 1,
  "HasReLU": 1,
  "HasSparseWeights": 0,
  "HasDynamicFilter": 0,
  "HasDynamicBias": 0,
  "HasResidual": 0,
  "ConvXAsActInputIdx": -1,
  "BiasAsActInputIdx": -1,
  "ResAsActInputIdx": -1,
  "Activation": "RELU",
  "TacticName": "sm80_xmma_fprop_avdt_dense_int8int8_tilesize64x256x32_tapsperload3_threadspercta128_r3s3_u1v1_scalebias_relu",
  "TacticValue": "0x9dafb2758560cc1d",
  "StreamId": 0,
  "Metadata": "[ONNX Layer: QuantizeLinear_877]\u001e[ONNX Layer: Conv_879]\u001e[ONNX Layer: Relu_880]\u001e[ONNX Layer: QuantizeLinear_883]\u001e[ONNX Layer: DequantizeLinear_875]\u001e[ONNX Layer: QuantizeLinear_872]\u001e[ONNX Layer: DequantizeLinear_878]"
},{
  "Name": "model.encoders.camera.vtransform.depthnet.6.weight + QuantizeLinear_888 + Conv_890",
  "LayerType": "CaskConvolution",
  "Inputs": [
  {
    "Name": "1540",
    "Location": "Device",
    "Dimensions": [6,256,32,88],
    "Format/Datatype": "Thirty-two wide channel vectorized row major Int8 format"
  }],
  "Outputs": [
  {
    "Name": "1549",
    "Location": "Device",
    "Dimensions": [6,198,32,88],
    "Format/Datatype": "Row major linear FP32"
  }],
  "ParameterType": "Convolution",
  "Kernel": [1,1],
  "PaddingMode": "kEXPLICIT_ROUND_DOWN",
  "PrePadding": [0,0],
  "PostPadding": [0,0],
  "Stride": [1,1],
  "Dilation": [1,1],
  "OutMaps": 198,
  "Groups": 1,
  "Weights": {"Type": "Int8", "Count": 50688},
  "Bias": {"Type": "Float", "Count": 198},
  "HasBias": 1,
  "HasReLU": 0,
  "HasSparseWeights": 0,
  "HasDynamicFilter": 0,
  "HasDynamicBias": 0,
  "HasResidual": 0,
  "ConvXAsActInputIdx": -1,
  "BiasAsActInputIdx": -1,
  "ResAsActInputIdx": -1,
  "Activation": "NONE",
  "TacticName": "sm80_xmma_fprop_implicit_gemm_interleaved_i8f32_i8i32_f32_nchw_vect_c_32kcrs_vect_c_32_nchw_tilesize128x32x64_stage4_warpsize4x1x1_g1_tensor16x8x32_t1r1s1_alignc4",
  "TacticValue": "0x733ba2a91a48d431",
  "StreamId": 0,
  "Metadata": "[ONNX Layer: QuantizeLinear_888]\u001e[ONNX Layer: Conv_890]\u001e[ONNX Layer: DequantizeLinear_886]\u001e[ONNX Layer: QuantizeLinear_883]\u001e[ONNX Layer: DequantizeLinear_889]"
},{
  "Name": "Slice_895",
  "LayerType": "Reformat",
  "Inputs": [
  {
    "Name": "1549",
    "Location": "Device",
    "Dimensions": [6,118,32,88],
    "Format/Datatype": "Row major linear FP32"
  }],
  "Outputs": [
  {
    "Name": "1554",
    "Location": "Device",
    "Dimensions": [6,118,32,88],
    "Format/Datatype": "Row major linear FP16 format"
  }],
  "ParameterType": "Reformat",
  "Origin": "SLICE",
  "TacticValue": "0x0000000000000000",
  "StreamId": 0,
  "Metadata": "[ONNX Layer: Slice_895]"
},{
  "Name": "Softmax_896",
  "LayerType": "CaskSoftMaxV2",
  "Inputs": [
  {
    "Name": "1554",
    "Location": "Device",
    "Dimensions": [6,118,32,88],
    "Format/Datatype": "Row major linear FP16 format"
  }],
  "Outputs": [
  {
    "Name": "camera_depth_weights",
    "Location": "Device",
    "Dimensions": [6,118,32,88],
    "Format/Datatype": "Row major linear FP16 format"
  }],
  "ParameterType": "SoftMax",
  "Axes": 2,
  "HasLog": 0,
  "TacticValue": "0xd49ab000cdcd2713",
  "StreamId": 0,
  "Metadata": "[ONNX Layer: Softmax_896]"
},{
  "Name": "Reformatting CopyNode for Input Tensor 0 to Transpose_902",
  "LayerType": "Reformat",
  "Inputs": [
  {
    "Name": "1549",
    "Location": "Device",
    "Dimensions": [6,80,32,88],
    "Format/Datatype": "Row major linear FP32"
  }],
  "Outputs": [
  {
    "Name": "Reformatted Input Tensor 0 to Transpose_902",
    "Location": "Device",
    "Dimensions": [6,80,32,88],
    "Format/Datatype": "Row major linear FP16 format"
  }],
  "ParameterType": "Reformat",
  "Origin": "REFORMAT",
  "TacticValue": "0x00000000000003e8",
  "StreamId": 0,
  "Metadata": ""
},{
  "Name": "Transpose_902",
  "LayerType": "Shuffle",
  "Inputs": [
  {
    "Name": "Reformatted Input Tensor 0 to Transpose_902",
    "Location": "Device",
    "Dimensions": [6,80,32,88],
    "Format/Datatype": "Row major linear FP16 format"
  }],
  "Outputs": [
  {
    "Name": "camera_feature",
    "Location": "Device",
    "Dimensions": [6,32,88,80],
    "Format/Datatype": "Row major linear FP16 format"
  }],
  "ParameterType": "Shuffle",
  "FirstTranspose": [0,2,3,1],
  "Reshape": "nbDims=-1",
  "SecondTranspose": [0,1,2,3],
  "ZeroIsPlaceholder": 1,
  "TacticValue": "0x0000000000000001",
  "StreamId": 0,
  "Metadata": "[ONNX Layer: Transpose_902]"
}],
"Bindings": ["img"
,"depth"
,"camera_feature"
,"camera_depth_weights"
]}
