{"Layers": [{
  "Name": "QuantizeLinear_3",
  "LayerType": "Reformat",
  "Inputs": [
  {
    "Name": "img",
    "Location": "Device",
    "Dimensions": [1,6,3,256,704],
    "Format/Datatype": "Row major linear FP16 format"
  }],
  "Outputs": [
  {
    "Name": "518",
    "Location": "Device",
    "Dimensions": [1,6,3,256,704],
    "Format/Datatype": "Row major Int8 format"
  }],
  "ParameterType": "Reformat",
  "Origin": "QDQ",
  "TacticValue": "0x0000000000000000",
  "StreamId": 0,
  "Metadata": "[ONNX Layer: QuantizeLinear_3]"
},{
  "Name": "QuantizeLinear_783",
  "LayerType": "Reformat",
  "Inputs": [
  {
    "Name": "depth",
    "Location": "Device",
    "Dimensions": [1,6,1,256,704],
    "Format/Datatype": "Row major linear FP16 format"
  }],
  "Outputs": [
  {
    "Name": "1446",
    "Location": "Device",
    "Dimensions": [1,6,1,256,704],
    "Format/Datatype": "Row major Int8 format"
  }],
  "ParameterType": "Reformat",
  "Origin": "QDQ",
  "TacticValue": "0x00000000000003e8",
  "StreamId": 0,
  "Metadata": "[ONNX Layer: QuantizeLinear_783]"
},{
  "Name": "Reshape_0",
  "LayerType": "NoOp",
  "Inputs": [
  {
    "Name": "518",
    "Location": "Device",
    "Dimensions": [1,6,3,256,704],
    "Format/Datatype": "Row major Int8 format"
  }],
  "Outputs": [
  {
    "Name": "521",
    "Location": "Device",
    "Dimensions": [6,3,256,704],
    "Format/Datatype": "Row major Int8 format"
  }],
  "TacticValue": "0x0000000000000000",
  "StreamId": 0,
  "Metadata": "[ONNX Layer: Reshape_0]"
},{
  "Name": "Reshape_778",
  "LayerType": "NoOp",
  "Inputs": [
  {
    "Name": "1446",
    "Location": "Device",
    "Dimensions": [1,6,1,256,704],
    "Format/Datatype": "Row major Int8 format"
  }],
  "Outputs": [
  {
    "Name": "1451",
    "Location": "Device",
    "Dimensions": [6,1,256,704],
    "Format/Datatype": "Row major Int8 format"
  }],
  "TacticValue": "0x0000000000000000",
  "StreamId": 0,
  "Metadata": "[ONNX Layer: Reshape_778]"
},{
  "Name": "Reformatting CopyNode for Input Tensor 0 to model.encoders.camera.vtransform.dtransform.0.weight + QuantizeLinear_788 + Conv_790 + Relu_791",
  "LayerType": "Reformat",
  "Inputs": [
  {
    "Name": "1451",
    "Location": "Device",
    "Dimensions": [6,1,256,704],
    "Format/Datatype": "Row major Int8 format"
  }],
  "Outputs": [
  {
    "Name": "Reformatted Input Tensor 0 to model.encoders.camera.vtransform.dtransform.0.weight + QuantizeLinear_788 + Conv_790 + Relu_791",
    "Location": "Device",
    "Dimensions": [6,1,256,704],
    "Format/Datatype": "Four wide channel vectorized row major Int8 format"
  }],
  "ParameterType": "Reformat",
  "Origin": "REFORMAT",
  "TacticValue": "0x00000000000003ea",
  "StreamId": 0,
  "Metadata": ""
},{
  "Name": "model.encoders.camera.vtransform.dtransform.0.weight + QuantizeLinear_788 + Conv_790 + Relu_791",
  "LayerType": "CaskConvolution",
  "Inputs": [
  {
    "Name": "Reformatted Input Tensor 0 to model.encoders.camera.vtransform.dtransform.0.weight + QuantizeLinear_788 + Conv_790 + Relu_791",
    "Location": "Device",
    "Dimensions": [6,1,256,704],
    "Format/Datatype": "Four wide channel vectorized row major Int8 format"
  }],
  "Outputs": [
  {
    "Name": "1464",
    "Location": "Device",
    "Dimensions": [6,8,256,704],
    "Format/Datatype": "Thirty-two wide channel vectorized row major Int8 format"
  }],
  "ParameterType": "Convolution",
  "Kernel": [1,1],
  "PaddingMode": "kEXPLICIT_ROUND_DOWN",
  "PrePadding": [0,0],
  "PostPadding": [0,0],
  "Stride": [1,1],
  "Dilation": [1,1],
  "OutMaps": 8,
  "Groups": 1,
  "Weights": {"Type": "Int8", "Count": 8},
  "Bias": {"Type": "Float", "Count": 8},
  "HasBias": 1,
  "HasReLU": 1,
  "HasSparseWeights": 0,
  "HasDynamicFilter": 0,
  "HasDynamicBias": 0,
  "HasResidual": 0,
  "ConvXAsActInputIdx": -1,
  "BiasAsActInputIdx": -1,
  "ResAsActInputIdx": -1,
  "Activation": "RELU",
  "TacticName": "sm80_xmma_fprop_first_layer_i8i8_i8i32_f32_nchw_vect_c_4kcrs_vect_c_4_nchw_vect_c_32_tilesize16x16x32x32_stage1_warpsize4x1x1_tensor16x8x16_r1s1_u1v1_aligna4_alignc8",
  "TacticValue": "0x70099a996b926afe",
  "StreamId": 0,
  "Metadata": "[ONNX Layer: QuantizeLinear_788]\u001e[ONNX Layer: Conv_790]\u001e[ONNX Layer: Relu_791]\u001e[ONNX Layer: QuantizeLinear_794]\u001e[ONNX Layer: DequantizeLinear_786]\u001e[ONNX Layer: QuantizeLinear_783]\u001e[ONNX Layer: DequantizeLinear_789]"
},{
  "Name": "model.encoders.camera.backbone.conv1.weight + QuantizeLinear_8 + Conv_10 + Relu_11 + MaxPool_12",
  "LayerType": "CaskConvActPool",
  "Inputs": [
  {
    "Name": "521",
    "Location": "Device",
    "Dimensions": [6,3,256,704],
    "Format/Datatype": "Row major Int8 format"
  }],
  "Outputs": [
  {
    "Name": "535",
    "Location": "Device",
    "Dimensions": [6,64,64,176],
    "Format/Datatype": "Thirty-two wide channel vectorized row major Int8 format"
  }],
  "ParameterType": "ConvActPool",
  "ConvParameterType": "Convolution",
  "ConvKernel": [7,7],
  "ConvPaddingMode": "kEXPLICIT_ROUND_DOWN",
  "ConvPrePadding": [3,3],
  "ConvPostPadding": [3,3],
  "ConvStride": [2,2],
  "ConvDilation": [1,1],
  "ConvOutMaps": 64,
  "ConvGroups": 1,
  "ConvWeights": {"Type": "Int8", "Count": 9408},
  "ConvBias": {"Type": "Float", "Count": 64},
  "ConvHasBias": 1,
  "ConvHasReLU": 1,
  "ConvHasSparseWeights": 0,
  "ConvHasDynamicFilter": 0,
  "ConvHasDynamicBias": 0,
  "ConvHasResidual": 0,
  "ConvConvXAsActInputIdx": -1,
  "ConvBiasAsActInputIdx": -1,
  "ConvResAsActInputIdx": -1,
  "ConvActivation": "RELU",
  "PoolingParameterType": "Pooling",
  "PoolingPoolingType": "MAX",
  "PoolingWindowSize": [3,3],
  "PoolingPaddingMode": "kEXPLICIT_ROUND_DOWN",
  "PoolingPrePadding": [1,1],
  "PoolingPostPadding": [1,1],
  "PoolingStride": [2,2],
  "PoolingBlendFactor": 0,
  "PoolingAverageCountExcludesPadding": 1,
  "TacticValue": "0x6e4d6ab7ddc1d116",
  "StreamId": 0,
  "Metadata": "[ONNX Layer: QuantizeLinear_8]\u001e[ONNX Layer: Conv_10]\u001e[ONNX Layer: Relu_11]\u001e[ONNX Layer: QuantizeLinear_15]\u001e[ONNX Layer: QuantizeLinear_47]\u001e[ONNX Layer: DequantizeLinear_6]\u001e[ONNX Layer: QuantizeLinear_3]\u001e[ONNX Layer: DequantizeLinear_9]\u001e[ONNX Layer: MaxPool_12]"
},{
  "Name": "Reformatting CopyNode for Input Tensor 0 to model.encoders.camera.vtransform.dtransform.3.weight + QuantizeLinear_799 + Conv_801 + Relu_802",
  "LayerType": "Reformat",
  "Inputs": [
  {
    "Name": "1464",
    "Location": "Device",
    "Dimensions": [6,8,256,704],
    "Format/Datatype": "Thirty-two wide channel vectorized row major Int8 format"
  }],
  "Outputs": [
  {
    "Name": "Reformatted Input Tensor 0 to model.encoders.camera.vtransform.dtransform.3.weight + QuantizeLinear_799 + Conv_801 + Relu_802",
    "Location": "Device",
    "Dimensions": [6,8,256,704],
    "Format/Datatype": "Four wide channel vectorized row major Int8 format"
  }],
  "ParameterType": "Reformat",
  "Origin": "REFORMAT",
  "TacticValue": "0x00000000000003e8",
  "StreamId": 0,
  "Metadata": ""
},{
  "Name": "model.encoders.camera.vtransform.dtransform.3.weight + QuantizeLinear_799 + Conv_801 + Relu_802",
  "LayerType": "CaskConvolution",
  "Inputs": [
  {
    "Name": "Reformatted Input Tensor 0 to model.encoders.camera.vtransform.dtransform.3.weight + QuantizeLinear_799 + Conv_801 + Relu_802",
    "Location": "Device",
    "Dimensions": [6,8,256,704],
    "Format/Datatype": "Four wide channel vectorized row major Int8 format"
  }],
  "Outputs": [
  {
    "Name": "1477",
    "Location": "Device",
    "Dimensions": [6,32,64,176],
    "Format/Datatype": "Thirty-two wide channel vectorized row major Int8 format"
  }],
  "ParameterType": "Convolution",
  "Kernel": [5,5],
  "PaddingMode": "kEXPLICIT_ROUND_DOWN",
  "PrePadding": [2,2],
  "PostPadding": [2,2],
  "Stride": [4,4],
  "Dilation": [1,1],
  "OutMaps": 32,
  "Groups": 1,
  "Weights": {"Type": "Int8", "Count": 6400},
  "Bias": {"Type": "Float", "Count": 32},
  "HasBias": 1,
  "HasReLU": 1,
  "HasSparseWeights": 0,
  "HasDynamicFilter": 0,
  "HasDynamicBias": 0,
  "HasResidual": 0,
  "ConvXAsActInputIdx": -1,
  "BiasAsActInputIdx": -1,
  "ResAsActInputIdx": -1,
  "Activation": "RELU",
  "TacticName": "ampere_int8x4_icudnn_int8x4_128x32_relu_small_c32_nn_v1",
  "TacticValue": "0x0f47434ace2a7d18",
  "StreamId": 0,
  "Metadata": "[ONNX Layer: QuantizeLinear_799]\u001e[ONNX Layer: Conv_801]\u001e[ONNX Layer: Relu_802]\u001e[ONNX Layer: QuantizeLinear_805]\u001e[ONNX Layer: DequantizeLinear_797]\u001e[ONNX Layer: QuantizeLinear_794]\u001e[ONNX Layer: DequantizeLinear_800]"
},{
  "Name": "model.encoders.camera.backbone.layer1.0.conv1.weight + QuantizeLinear_20 + Conv_22 + Relu_23",
  "LayerType": "CaskConvolution",
  "Inputs": [
  {
    "Name": "535",
    "Location": "Device",
    "Dimensions": [6,64,64,176],
    "Format/Datatype": "Thirty-two wide channel vectorized row major Int8 format"
  }],
  "Outputs": [
  {
    "Name": "548",
    "Location": "Device",
    "Dimensions": [6,64,64,176],
    "Format/Datatype": "Thirty-two wide channel vectorized row major Int8 format"
  }],
  "ParameterType": "Convolution",
  "Kernel": [1,1],
  "PaddingMode": "kEXPLICIT_ROUND_DOWN",
  "PrePadding": [0,0],
  "PostPadding": [0,0],
  "Stride": [1,1],
  "Dilation": [1,1],
  "OutMaps": 64,
  "Groups": 1,
  "Weights": {"Type": "Int8", "Count": 4096},
  "Bias": {"Type": "Float", "Count": 64},
  "HasBias": 1,
  "HasReLU": 1,
  "HasSparseWeights": 0,
  "HasDynamicFilter": 0,
  "HasDynamicBias": 0,
  "HasResidual": 0,
  "ConvXAsActInputIdx": -1,
  "BiasAsActInputIdx": -1,
  "ResAsActInputIdx": -1,
  "Activation": "RELU",
  "TacticName": "sm80_xmma_fprop_implicit_gemm_interleaved_i8i8_i8i32_f32_nchw_vect_c_32kcrs_vect_c_32_nchw_vect_c_32_tilesize256x64x64_stage4_warpsize4x1x1_g1_tensor16x8x32_simple_t1r1s1",
  "TacticValue": "0x4f35593c356e2e7e",
  "StreamId": 0,
  "Metadata": "[ONNX Layer: QuantizeLinear_20]\u001e[ONNX Layer: Conv_22]\u001e[ONNX Layer: Relu_23]\u001e[ONNX Layer: QuantizeLinear_26]\u001e[ONNX Layer: DequantizeLinear_18]\u001e[ONNX Layer: QuantizeLinear_15]\u001e[ONNX Layer: DequantizeLinear_21]"
},{
  "Name": "model.encoders.camera.backbone.layer1.0.downsample.0.weight + QuantizeLinear_52 + Conv_54",
  "LayerType": "CaskConvolution",
  "Inputs": [
  {
    "Name": "535",
    "Location": "Device",
    "Dimensions": [6,64,64,176],
    "Format/Datatype": "Thirty-two wide channel vectorized row major Int8 format"
  }],
  "Outputs": [
  {
    "Name": "585",
    "Location": "Device",
    "Dimensions": [6,256,64,176],
    "Format/Datatype": "Thirty-two wide channel vectorized row major Int8 format"
  }],
  "ParameterType": "Convolution",
  "Kernel": [1,1],
  "PaddingMode": "kEXPLICIT_ROUND_DOWN",
  "PrePadding": [0,0],
  "PostPadding": [0,0],
  "Stride": [1,1],
  "Dilation": [1,1],
  "OutMaps": 256,
  "Groups": 1,
  "Weights": {"Type": "Int8", "Count": 16384},
  "Bias": {"Type": "Float", "Count": 256},
  "HasBias": 1,
  "HasReLU": 0,
  "HasSparseWeights": 0,
  "HasDynamicFilter": 0,
  "HasDynamicBias": 0,
  "HasResidual": 0,
  "ConvXAsActInputIdx": -1,
  "BiasAsActInputIdx": -1,
  "ResAsActInputIdx": -1,
  "Activation": "NONE",
  "TacticName": "sm80_xmma_fprop_implicit_gemm_interleaved_i8i8_i8i32_f32_nchw_vect_c_32kcrs_vect_c_32_nchw_vect_c_32_tilesize128x128x64_stage4_warpsize2x2x1_g1_tensor16x8x32_simple_t1r1s1",
  "TacticValue": "0x5e4918ccf433630e",
  "StreamId": 0,
  "Metadata": "[ONNX Layer: QuantizeLinear_52]\u001e[ONNX Layer: Conv_54]\u001e[ONNX Layer: QuantizeLinear_57]\u001e[ONNX Layer: DequantizeLinear_50]\u001e[ONNX Layer: QuantizeLinear_15]\u001e[ONNX Layer: DequantizeLinear_53]"
},{
  "Name": "model.encoders.camera.vtransform.dtransform.6.weight + QuantizeLinear_810 + Conv_812 + Relu_813",
  "LayerType": "CaskConvolution",
  "Inputs": [
  {
    "Name": "1477",
    "Location": "Device",
    "Dimensions": [6,32,64,176],
    "Format/Datatype": "Thirty-two wide channel vectorized row major Int8 format"
  }],
  "Outputs": [
  {
    "Name": "1491",
    "Location": "Device",
    "Dimensions": [6,64,32,88],
    "Format/Datatype": "Thirty-two wide channel vectorized row major Int8 format"
  }],
  "ParameterType": "Convolution",
  "Kernel": [5,5],
  "PaddingMode": "kEXPLICIT_ROUND_DOWN",
  "PrePadding": [2,2],
  "PostPadding": [2,2],
  "Stride": [2,2],
  "Dilation": [1,1],
  "OutMaps": 64,
  "Groups": 1,
  "Weights": {"Type": "Int8", "Count": 51200},
  "Bias": {"Type": "Float", "Count": 64},
  "HasBias": 1,
  "HasReLU": 1,
  "HasSparseWeights": 0,
  "HasDynamicFilter": 0,
  "HasDynamicBias": 0,
  "HasResidual": 0,
  "ConvXAsActInputIdx": -1,
  "BiasAsActInputIdx": -1,
  "ResAsActInputIdx": -1,
  "Activation": "RELU",
  "TacticName": "sm80_xmma_fprop_implicit_gemm_interleaved_i8i8_i8i32_f32_nchw_vect_c_32kcrs_vect_c_32_nchw_vect_c_32_tilesize192x64x64_stage3_warpsize4x1x1_g1_tensor16x8x32_t1r5s5",
  "TacticValue": "0xe26d490273886882",
  "StreamId": 0,
  "Metadata": "[ONNX Layer: QuantizeLinear_810]\u001e[ONNX Layer: Conv_812]\u001e[ONNX Layer: Relu_813]\u001e[ONNX Layer: QuantizeLinear_817]\u001e[ONNX Layer: DequantizeLinear_808]\u001e[ONNX Layer: QuantizeLinear_805]\u001e[ONNX Layer: DequantizeLinear_811]"
},{
  "Name": "model.encoders.camera.backbone.layer1.0.conv2.weight + QuantizeLinear_31 + Conv_33 + Relu_34",
  "LayerType": "CaskConvolution",
  "Inputs": [
  {
    "Name": "548",
    "Location": "Device",
    "Dimensions": [6,64,64,176],
    "Format/Datatype": "Thirty-two wide channel vectorized row major Int8 format"
  }],
  "Outputs": [
  {
    "Name": "561",
    "Location": "Device",
    "Dimensions": [6,64,64,176],
    "Format/Datatype": "Thirty-two wide channel vectorized row major Int8 format"
  }],
  "ParameterType": "Convolution",
  "Kernel": [3,3],
  "PaddingMode": "kEXPLICIT_ROUND_DOWN",
  "PrePadding": [1,1],
  "PostPadding": [1,1],
  "Stride": [1,1],
  "Dilation": [1,1],
  "OutMaps": 64,
  "Groups": 1,
  "Weights": {"Type": "Int8", "Count": 36864},
  "Bias": {"Type": "Float", "Count": 64},
  "HasBias": 1,
  "HasReLU": 1,
  "HasSparseWeights": 0,
  "HasDynamicFilter": 0,
  "HasDynamicBias": 0,
  "HasResidual": 0,
  "ConvXAsActInputIdx": -1,
  "BiasAsActInputIdx": -1,
  "ResAsActInputIdx": -1,
  "Activation": "RELU",
  "TacticName": "sm80_xmma_fprop_avdt_dense_int8int8_tilesize64x256x32_tapsperload3_threadspercta128_r3s3_u1v1_scalebias_relu",
  "TacticValue": "0x9dafb2758560cc1d",
  "StreamId": 0,
  "Metadata": "[ONNX Layer: QuantizeLinear_31]\u001e[ONNX Layer: Conv_33]\u001e[ONNX Layer: Relu_34]\u001e[ONNX Layer: QuantizeLinear_37]\u001e[ONNX Layer: DequantizeLinear_29]\u001e[ONNX Layer: QuantizeLinear_26]\u001e[ONNX Layer: DequantizeLinear_32]"
},{
  "Name": "model.encoders.camera.backbone.layer1.0.conv3.weight + QuantizeLinear_42 + Conv_44 + Add_61 + Relu_62",
  "LayerType": "CaskConvolution",
  "Inputs": [
  {
    "Name": "561",
    "Location": "Device",
    "Dimensions": [6,64,64,176],
    "Format/Datatype": "Thirty-two wide channel vectorized row major Int8 format"
  },
  {
    "Name": "585",
    "Location": "Device",
    "Dimensions": [6,256,64,176],
    "Format/Datatype": "Thirty-two wide channel vectorized row major Int8 format"
  }],
  "Outputs": [
  {
    "Name": "593",
    "Location": "Device",
    "Dimensions": [6,256,64,176],
    "Format/Datatype": "Thirty-two wide channel vectorized row major Int8 format"
  }],
  "ParameterType": "Convolution",
  "Kernel": [1,1],
  "PaddingMode": "kEXPLICIT_ROUND_DOWN",
  "PrePadding": [0,0],
  "PostPadding": [0,0],
  "Stride": [1,1],
  "Dilation": [1,1],
  "OutMaps": 256,
  "Groups": 1,
  "Weights": {"Type": "Int8", "Count": 16384},
  "Bias": {"Type": "Float", "Count": 256},
  "HasBias": 1,
  "HasReLU": 1,
  "HasSparseWeights": 0,
  "HasDynamicFilter": 0,
  "HasDynamicBias": 0,
  "HasResidual": 1,
  "ConvXAsActInputIdx": -1,
  "BiasAsActInputIdx": -1,
  "ResAsActInputIdx": -1,
  "Activation": "RELU",
  "TacticName": "sm80_xmma_fprop_implicit_gemm_interleaved_i8i8_i8i32_f32_nchw_vect_c_32kcrs_vect_c_32_nchw_vect_c_32_tilesize48x128x64_stage3_warpsize1x2x1_g1_tensor16x8x32_simple_t1r1s1",
  "TacticValue": "0xb14c1f9154f6db4e",
  "StreamId": 0,
  "Metadata": "[ONNX Layer: QuantizeLinear_42]\u001e[ONNX Layer: Conv_44]\u001e[ONNX Layer: QuantizeLinear_65]\u001e[ONNX Layer: QuantizeLinear_97]\u001e[ONNX Layer: DequantizeLinear_40]\u001e[ONNX Layer: QuantizeLinear_37]\u001e[ONNX Layer: DequantizeLinear_43]\u001e[ONNX Layer: Add_61]\u001e[ONNX Layer: Relu_62]\u001e[ONNX Layer: DequantizeLinear_60]\u001e[ONNX Layer: QuantizeLinear_57]"
},{
  "Name": "model.encoders.camera.backbone.layer1.1.conv1.weight + QuantizeLinear_70 + Conv_72 + Relu_73",
  "LayerType": "CaskConvolution",
  "Inputs": [
  {
    "Name": "593",
    "Location": "Device",
    "Dimensions": [6,256,64,176],
    "Format/Datatype": "Thirty-two wide channel vectorized row major Int8 format"
  }],
  "Outputs": [
  {
    "Name": "606",
    "Location": "Device",
    "Dimensions": [6,64,64,176],
    "Format/Datatype": "Thirty-two wide channel vectorized row major Int8 format"
  }],
  "ParameterType": "Convolution",
  "Kernel": [1,1],
  "PaddingMode": "kEXPLICIT_ROUND_DOWN",
  "PrePadding": [0,0],
  "PostPadding": [0,0],
  "Stride": [1,1],
  "Dilation": [1,1],
  "OutMaps": 64,
  "Groups": 1,
  "Weights": {"Type": "Int8", "Count": 16384},
  "Bias": {"Type": "Float", "Count": 64},
  "HasBias": 1,
  "HasReLU": 1,
  "HasSparseWeights": 0,
  "HasDynamicFilter": 0,
  "HasDynamicBias": 0,
  "HasResidual": 0,
  "ConvXAsActInputIdx": -1,
  "BiasAsActInputIdx": -1,
  "ResAsActInputIdx": -1,
  "Activation": "RELU",
  "TacticName": "sm80_xmma_fprop_implicit_gemm_interleaved_i8i8_i8i32_f32_nchw_vect_c_32kcrs_vect_c_32_nchw_vect_c_32_tilesize128x64x64_stage6_warpsize2x2x1_g1_tensor16x8x32_simple_t1r1s1",
  "TacticValue": "0x2640501019a61dc2",
  "StreamId": 0,
  "Metadata": "[ONNX Layer: QuantizeLinear_70]\u001e[ONNX Layer: Conv_72]\u001e[ONNX Layer: Relu_73]\u001e[ONNX Layer: QuantizeLinear_76]\u001e[ONNX Layer: DequantizeLinear_68]\u001e[ONNX Layer: QuantizeLinear_65]\u001e[ONNX Layer: DequantizeLinear_71]"
},{
  "Name": "model.encoders.camera.backbone.layer1.1.conv2.weight + QuantizeLinear_81 + Conv_83 + Relu_84",
  "LayerType": "CaskConvolution",
  "Inputs": [
  {
    "Name": "606",
    "Location": "Device",
    "Dimensions": [6,64,64,176],
    "Format/Datatype": "Thirty-two wide channel vectorized row major Int8 format"
  }],
  "Outputs": [
  {
    "Name": "619",
    "Location": "Device",
    "Dimensions": [6,64,64,176],
    "Format/Datatype": "Thirty-two wide channel vectorized row major Int8 format"
  }],
  "ParameterType": "Convolution",
  "Kernel": [3,3],
  "PaddingMode": "kEXPLICIT_ROUND_DOWN",
  "PrePadding": [1,1],
  "PostPadding": [1,1],
  "Stride": [1,1],
  "Dilation": [1,1],
  "OutMaps": 64,
  "Groups": 1,
  "Weights": {"Type": "Int8", "Count": 36864},
  "Bias": {"Type": "Float", "Count": 64},
  "HasBias": 1,
  "HasReLU": 1,
  "HasSparseWeights": 0,
  "HasDynamicFilter": 0,
  "HasDynamicBias": 0,
  "HasResidual": 0,
  "ConvXAsActInputIdx": -1,
  "BiasAsActInputIdx": -1,
  "ResAsActInputIdx": -1,
  "Activation": "RELU",
  "TacticName": "sm80_xmma_fprop_avdt_dense_int8int8_tilesize64x256x32_tapsperload3_threadspercta128_r3s3_u1v1_scalebias_relu",
  "TacticValue": "0x9dafb2758560cc1d",
  "StreamId": 0,
  "Metadata": "[ONNX Layer: QuantizeLinear_81]\u001e[ONNX Layer: Conv_83]\u001e[ONNX Layer: Relu_84]\u001e[ONNX Layer: QuantizeLinear_87]\u001e[ONNX Layer: DequantizeLinear_79]\u001e[ONNX Layer: QuantizeLinear_76]\u001e[ONNX Layer: DequantizeLinear_82]"
},{
  "Name": "model.encoders.camera.backbone.layer1.1.conv3.weight + QuantizeLinear_92 + Conv_94 + Add_101 + Relu_102",
  "LayerType": "CaskConvolution",
  "Inputs": [
  {
    "Name": "619",
    "Location": "Device",
    "Dimensions": [6,64,64,176],
    "Format/Datatype": "Thirty-two wide channel vectorized row major Int8 format"
  },
  {
    "Name": "593",
    "Location": "Device",
    "Dimensions": [6,256,64,176],
    "Format/Datatype": "Thirty-two wide channel vectorized row major Int8 format"
  }],
  "Outputs": [
  {
    "Name": "639",
    "Location": "Device",
    "Dimensions": [6,256,64,176],
    "Format/Datatype": "Thirty-two wide channel vectorized row major Int8 format"
  }],
  "ParameterType": "Convolution",
  "Kernel": [1,1],
  "PaddingMode": "kEXPLICIT_ROUND_DOWN",
  "PrePadding": [0,0],
  "PostPadding": [0,0],
  "Stride": [1,1],
  "Dilation": [1,1],
  "OutMaps": 256,
  "Groups": 1,
  "Weights": {"Type": "Int8", "Count": 16384},
  "Bias": {"Type": "Float", "Count": 256},
  "HasBias": 1,
  "HasReLU": 1,
  "HasSparseWeights": 0,
  "HasDynamicFilter": 0,
  "HasDynamicBias": 0,
  "HasResidual": 1,
  "ConvXAsActInputIdx": -1,
  "BiasAsActInputIdx": -1,
  "ResAsActInputIdx": -1,
  "Activation": "RELU",
  "TacticName": "sm80_xmma_fprop_implicit_gemm_interleaved_i8i8_i8i32_f32_nchw_vect_c_32kcrs_vect_c_32_nchw_vect_c_32_tilesize48x128x64_stage3_warpsize1x2x1_g1_tensor16x8x32_simple_t1r1s1",
  "TacticValue": "0xb14c1f9154f6db4e",
  "StreamId": 0,
  "Metadata": "[ONNX Layer: QuantizeLinear_92]\u001e[ONNX Layer: Conv_94]\u001e[ONNX Layer: QuantizeLinear_105]\u001e[ONNX Layer: QuantizeLinear_137]\u001e[ONNX Layer: DequantizeLinear_90]\u001e[ONNX Layer: QuantizeLinear_87]\u001e[ONNX Layer: DequantizeLinear_93]\u001e[ONNX Layer: Add_101]\u001e[ONNX Layer: Relu_102]\u001e[ONNX Layer: DequantizeLinear_100]\u001e[ONNX Layer: QuantizeLinear_65]"
},{
  "Name": "model.encoders.camera.backbone.layer1.2.conv1.weight + QuantizeLinear_110 + Conv_112 + Relu_113",
  "LayerType": "CaskConvolution",
  "Inputs": [
  {
    "Name": "639",
    "Location": "Device",
    "Dimensions": [6,256,64,176],
    "Format/Datatype": "Thirty-two wide channel vectorized row major Int8 format"
  }],
  "Outputs": [
  {
    "Name": "652",
    "Location": "Device",
    "Dimensions": [6,64,64,176],
    "Format/Datatype": "Thirty-two wide channel vectorized row major Int8 format"
  }],
  "ParameterType": "Convolution",
  "Kernel": [1,1],
  "PaddingMode": "kEXPLICIT_ROUND_DOWN",
  "PrePadding": [0,0],
  "PostPadding": [0,0],
  "Stride": [1,1],
  "Dilation": [1,1],
  "OutMaps": 64,
  "Groups": 1,
  "Weights": {"Type": "Int8", "Count": 16384},
  "Bias": {"Type": "Float", "Count": 64},
  "HasBias": 1,
  "HasReLU": 1,
  "HasSparseWeights": 0,
  "HasDynamicFilter": 0,
  "HasDynamicBias": 0,
  "HasResidual": 0,
  "ConvXAsActInputIdx": -1,
  "BiasAsActInputIdx": -1,
  "ResAsActInputIdx": -1,
  "Activation": "RELU",
  "TacticName": "sm80_xmma_fprop_implicit_gemm_interleaved_i8i8_i8i32_f32_nchw_vect_c_32kcrs_vect_c_32_nchw_vect_c_32_tilesize128x64x64_stage6_warpsize2x2x1_g1_tensor16x8x32_simple_t1r1s1",
  "TacticValue": "0x2640501019a61dc2",
  "StreamId": 0,
  "Metadata": "[ONNX Layer: QuantizeLinear_110]\u001e[ONNX Layer: Conv_112]\u001e[ONNX Layer: Relu_113]\u001e[ONNX Layer: QuantizeLinear_116]\u001e[ONNX Layer: DequantizeLinear_108]\u001e[ONNX Layer: QuantizeLinear_105]\u001e[ONNX Layer: DequantizeLinear_111]"
},{
  "Name": "model.encoders.camera.backbone.layer1.2.conv2.weight + QuantizeLinear_121 + Conv_123 + Relu_124",
  "LayerType": "CaskConvolution",
  "Inputs": [
  {
    "Name": "652",
    "Location": "Device",
    "Dimensions": [6,64,64,176],
    "Format/Datatype": "Thirty-two wide channel vectorized row major Int8 format"
  }],
  "Outputs": [
  {
    "Name": "665",
    "Location": "Device",
    "Dimensions": [6,64,64,176],
    "Format/Datatype": "Thirty-two wide channel vectorized row major Int8 format"
  }],
  "ParameterType": "Convolution",
  "Kernel": [3,3],
  "PaddingMode": "kEXPLICIT_ROUND_DOWN",
  "PrePadding": [1,1],
  "PostPadding": [1,1],
  "Stride": [1,1],
  "Dilation": [1,1],
  "OutMaps": 64,
  "Groups": 1,
  "Weights": {"Type": "Int8", "Count": 36864},
  "Bias": {"Type": "Float", "Count": 64},
  "HasBias": 1,
  "HasReLU": 1,
  "HasSparseWeights": 0,
  "HasDynamicFilter": 0,
  "HasDynamicBias": 0,
  "HasResidual": 0,
  "ConvXAsActInputIdx": -1,
  "BiasAsActInputIdx": -1,
  "ResAsActInputIdx": -1,
  "Activation": "RELU",
  "TacticName": "sm80_xmma_fprop_avdt_dense_int8int8_tilesize64x256x32_tapsperload3_threadspercta128_r3s3_u1v1_scalebias_relu",
  "TacticValue": "0x9dafb2758560cc1d",
  "StreamId": 0,
  "Metadata": "[ONNX Layer: QuantizeLinear_121]\u001e[ONNX Layer: Conv_123]\u001e[ONNX Layer: Relu_124]\u001e[ONNX Layer: QuantizeLinear_127]\u001e[ONNX Layer: DequantizeLinear_119]\u001e[ONNX Layer: QuantizeLinear_116]\u001e[ONNX Layer: DequantizeLinear_122]"
},{
  "Name": "model.encoders.camera.backbone.layer1.2.conv3.weight + QuantizeLinear_132 + Conv_134 + Add_141 + Relu_142",
  "LayerType": "CaskConvolution",
  "Inputs": [
  {
    "Name": "665",
    "Location": "Device",
    "Dimensions": [6,64,64,176],
    "Format/Datatype": "Thirty-two wide channel vectorized row major Int8 format"
  },
  {
    "Name": "639",
    "Location": "Device",
    "Dimensions": [6,256,64,176],
    "Format/Datatype": "Thirty-two wide channel vectorized row major Int8 format"
  }],
  "Outputs": [
  {
    "Name": "685",
    "Location": "Device",
    "Dimensions": [6,256,64,176],
    "Format/Datatype": "Thirty-two wide channel vectorized row major Int8 format"
  }],
  "ParameterType": "Convolution",
  "Kernel": [1,1],
  "PaddingMode": "kEXPLICIT_ROUND_DOWN",
  "PrePadding": [0,0],
  "PostPadding": [0,0],
  "Stride": [1,1],
  "Dilation": [1,1],
  "OutMaps": 256,
  "Groups": 1,
  "Weights": {"Type": "Int8", "Count": 16384},
  "Bias": {"Type": "Float", "Count": 256},
  "HasBias": 1,
  "HasReLU": 1,
  "HasSparseWeights": 0,
  "HasDynamicFilter": 0,
  "HasDynamicBias": 0,
  "HasResidual": 1,
  "ConvXAsActInputIdx": -1,
  "BiasAsActInputIdx": -1,
  "ResAsActInputIdx": -1,
  "Activation": "RELU",
  "TacticName": "sm80_xmma_fprop_implicit_gemm_interleaved_i8i8_i8i32_f32_nchw_vect_c_32kcrs_vect_c_32_nchw_vect_c_32_tilesize48x128x64_stage3_warpsize1x2x1_g1_tensor16x8x32_simple_t1r1s1",
  "TacticValue": "0xb14c1f9154f6db4e",
  "StreamId": 0,
  "Metadata": "[ONNX Layer: QuantizeLinear_132]\u001e[ONNX Layer: Conv_134]\u001e[ONNX Layer: QuantizeLinear_145]\u001e[ONNX Layer: QuantizeLinear_177]\u001e[ONNX Layer: DequantizeLinear_130]\u001e[ONNX Layer: QuantizeLinear_127]\u001e[ONNX Layer: DequantizeLinear_133]\u001e[ONNX Layer: Add_141]\u001e[ONNX Layer: Relu_142]\u001e[ONNX Layer: DequantizeLinear_140]\u001e[ONNX Layer: QuantizeLinear_105]"
},{
  "Name": "model.encoders.camera.backbone.layer2.0.conv1.weight + QuantizeLinear_150 + Conv_152 + Relu_153",
  "LayerType": "CaskConvolution",
  "Inputs": [
  {
    "Name": "685",
    "Location": "Device",
    "Dimensions": [6,256,64,176],
    "Format/Datatype": "Thirty-two wide channel vectorized row major Int8 format"
  }],
  "Outputs": [
  {
    "Name": "698",
    "Location": "Device",
    "Dimensions": [6,128,64,176],
    "Format/Datatype": "Thirty-two wide channel vectorized row major Int8 format"
  }],
  "ParameterType": "Convolution",
  "Kernel": [1,1],
  "PaddingMode": "kEXPLICIT_ROUND_DOWN",
  "PrePadding": [0,0],
  "PostPadding": [0,0],
  "Stride": [1,1],
  "Dilation": [1,1],
  "OutMaps": 128,
  "Groups": 1,
  "Weights": {"Type": "Int8", "Count": 32768},
  "Bias": {"Type": "Float", "Count": 128},
  "HasBias": 1,
  "HasReLU": 1,
  "HasSparseWeights": 0,
  "HasDynamicFilter": 0,
  "HasDynamicBias": 0,
  "HasResidual": 0,
  "ConvXAsActInputIdx": -1,
  "BiasAsActInputIdx": -1,
  "ResAsActInputIdx": -1,
  "Activation": "RELU",
  "TacticName": "sm80_xmma_conv_fprop_smallk_i8i8_i32_f32_nchw_vect_c_32kcrs_vect_c_32_nchw_vect_c_32_warptilesize32x32_stage4_warpsize2x4x1_r1s1_u1v1_hw0_c256_scalebias_relu",
  "TacticValue": "0xa41ea2e47a90dd1c",
  "StreamId": 0,
  "Metadata": "[ONNX Layer: QuantizeLinear_150]\u001e[ONNX Layer: Conv_152]\u001e[ONNX Layer: Relu_153]\u001e[ONNX Layer: QuantizeLinear_156]\u001e[ONNX Layer: DequantizeLinear_148]\u001e[ONNX Layer: QuantizeLinear_145]\u001e[ONNX Layer: DequantizeLinear_151]"
},{
  "Name": "model.encoders.camera.backbone.layer2.0.downsample.0.weight + QuantizeLinear_182 + Conv_184",
  "LayerType": "CaskConvolution",
  "Inputs": [
  {
    "Name": "685",
    "Location": "Device",
    "Dimensions": [6,256,64,176],
    "Format/Datatype": "Thirty-two wide channel vectorized row major Int8 format"
  }],
  "Outputs": [
  {
    "Name": "735",
    "Location": "Device",
    "Dimensions": [6,512,32,88],
    "Format/Datatype": "Thirty-two wide channel vectorized row major Int8 format"
  }],
  "ParameterType": "Convolution",
  "Kernel": [1,1],
  "PaddingMode": "kEXPLICIT_ROUND_DOWN",
  "PrePadding": [0,0],
  "PostPadding": [0,0],
  "Stride": [2,2],
  "Dilation": [1,1],
  "OutMaps": 512,
  "Groups": 1,
  "Weights": {"Type": "Int8", "Count": 131072},
  "Bias": {"Type": "Float", "Count": 512},
  "HasBias": 1,
  "HasReLU": 0,
  "HasSparseWeights": 0,
  "HasDynamicFilter": 0,
  "HasDynamicBias": 0,
  "HasResidual": 0,
  "ConvXAsActInputIdx": -1,
  "BiasAsActInputIdx": -1,
  "ResAsActInputIdx": -1,
  "Activation": "NONE",
  "TacticName": "sm80_xmma_fprop_implicit_gemm_interleaved_i8i8_i8i32_f32_nchw_vect_c_32kcrs_vect_c_32_nchw_vect_c_32_tilesize96x192x64_stage3_warpsize2x2x1_g1_tensor16x8x32_t1r1s1",
  "TacticValue": "0x6106e2811713d7ee",
  "StreamId": 0,
  "Metadata": "[ONNX Layer: QuantizeLinear_182]\u001e[ONNX Layer: Conv_184]\u001e[ONNX Layer: QuantizeLinear_187]\u001e[ONNX Layer: DequantizeLinear_180]\u001e[ONNX Layer: QuantizeLinear_145]\u001e[ONNX Layer: DequantizeLinear_183]"
},{
  "Name": "model.encoders.camera.backbone.layer2.0.conv2.weight + QuantizeLinear_161 + Conv_163 + Relu_164",
  "LayerType": "CaskConvolution",
  "Inputs": [
  {
    "Name": "698",
    "Location": "Device",
    "Dimensions": [6,128,64,176],
    "Format/Datatype": "Thirty-two wide channel vectorized row major Int8 format"
  }],
  "Outputs": [
  {
    "Name": "711",
    "Location": "Device",
    "Dimensions": [6,128,32,88],
    "Format/Datatype": "Thirty-two wide channel vectorized row major Int8 format"
  }],
  "ParameterType": "Convolution",
  "Kernel": [3,3],
  "PaddingMode": "kEXPLICIT_ROUND_DOWN",
  "PrePadding": [1,1],
  "PostPadding": [1,1],
  "Stride": [2,2],
  "Dilation": [1,1],
  "OutMaps": 128,
  "Groups": 1,
  "Weights": {"Type": "Int8", "Count": 147456},
  "Bias": {"Type": "Float", "Count": 128},
  "HasBias": 1,
  "HasReLU": 1,
  "HasSparseWeights": 0,
  "HasDynamicFilter": 0,
  "HasDynamicBias": 0,
  "HasResidual": 0,
  "ConvXAsActInputIdx": -1,
  "BiasAsActInputIdx": -1,
  "ResAsActInputIdx": -1,
  "Activation": "RELU",
  "TacticName": "sm80_xmma_fprop_implicit_gemm_interleaved_i8i8_i8i32_f32_nchw_vect_c_32kcrs_vect_c_32_nchw_vect_c_32_tilesize96x128x64_stage3_warpsize2x2x1_g1_tensor16x8x32_t1r3s3",
  "TacticValue": "0xf33711e7c9ed4673",
  "StreamId": 0,
  "Metadata": "[ONNX Layer: QuantizeLinear_161]\u001e[ONNX Layer: Conv_163]\u001e[ONNX Layer: Relu_164]\u001e[ONNX Layer: QuantizeLinear_167]\u001e[ONNX Layer: DequantizeLinear_159]\u001e[ONNX Layer: QuantizeLinear_156]\u001e[ONNX Layer: DequantizeLinear_162]"
},{
  "Name": "model.encoders.camera.backbone.layer2.0.conv3.weight + QuantizeLinear_172 + Conv_174 + Add_191 + Relu_192",
  "LayerType": "CaskConvolution",
  "Inputs": [
  {
    "Name": "711",
    "Location": "Device",
    "Dimensions": [6,128,32,88],
    "Format/Datatype": "Thirty-two wide channel vectorized row major Int8 format"
  },
  {
    "Name": "735",
    "Location": "Device",
    "Dimensions": [6,512,32,88],
    "Format/Datatype": "Thirty-two wide channel vectorized row major Int8 format"
  }],
  "Outputs": [
  {
    "Name": "743",
    "Location": "Device",
    "Dimensions": [6,512,32,88],
    "Format/Datatype": "Thirty-two wide channel vectorized row major Int8 format"
  }],
  "ParameterType": "Convolution",
  "Kernel": [1,1],
  "PaddingMode": "kEXPLICIT_ROUND_DOWN",
  "PrePadding": [0,0],
  "PostPadding": [0,0],
  "Stride": [1,1],
  "Dilation": [1,1],
  "OutMaps": 512,
  "Groups": 1,
  "Weights": {"Type": "Int8", "Count": 65536},
  "Bias": {"Type": "Float", "Count": 512},
  "HasBias": 1,
  "HasReLU": 1,
  "HasSparseWeights": 0,
  "HasDynamicFilter": 0,
  "HasDynamicBias": 0,
  "HasResidual": 1,
  "ConvXAsActInputIdx": -1,
  "BiasAsActInputIdx": -1,
  "ResAsActInputIdx": -1,
  "Activation": "RELU",
  "TacticName": "sm80_xmma_conv_fprop_smallk_i8i8_i32_f32_nchw_vect_c_32kcrs_vect_c_32_nchw_vect_c_32_warptilesize32x32_stage4_warpsize2x4x1_r1s1_u1v1_hw0_c128_scalebias_beta_relu",
  "TacticValue": "0xd4023ece8df38512",
  "StreamId": 0,
  "Metadata": "[ONNX Layer: QuantizeLinear_172]\u001e[ONNX Layer: Conv_174]\u001e[ONNX Layer: QuantizeLinear_195]\u001e[ONNX Layer: QuantizeLinear_227]\u001e[ONNX Layer: DequantizeLinear_170]\u001e[ONNX Layer: QuantizeLinear_167]\u001e[ONNX Layer: DequantizeLinear_173]\u001e[ONNX Layer: Add_191]\u001e[ONNX Layer: Relu_192]\u001e[ONNX Layer: DequantizeLinear_190]\u001e[ONNX Layer: QuantizeLinear_187]"
},{
  "Name": "model.encoders.camera.backbone.layer2.1.conv1.weight + QuantizeLinear_200 + Conv_202 + Relu_203",
  "LayerType": "CaskConvolution",
  "Inputs": [
  {
    "Name": "743",
    "Location": "Device",
    "Dimensions": [6,512,32,88],
    "Format/Datatype": "Thirty-two wide channel vectorized row major Int8 format"
  }],
  "Outputs": [
  {
    "Name": "756",
    "Location": "Device",
    "Dimensions": [6,128,32,88],
    "Format/Datatype": "Thirty-two wide channel vectorized row major Int8 format"
  }],
  "ParameterType": "Convolution",
  "Kernel": [1,1],
  "PaddingMode": "kEXPLICIT_ROUND_DOWN",
  "PrePadding": [0,0],
  "PostPadding": [0,0],
  "Stride": [1,1],
  "Dilation": [1,1],
  "OutMaps": 128,
  "Groups": 1,
  "Weights": {"Type": "Int8", "Count": 65536},
  "Bias": {"Type": "Float", "Count": 128},
  "HasBias": 1,
  "HasReLU": 1,
  "HasSparseWeights": 0,
  "HasDynamicFilter": 0,
  "HasDynamicBias": 0,
  "HasResidual": 0,
  "ConvXAsActInputIdx": -1,
  "BiasAsActInputIdx": -1,
  "ResAsActInputIdx": -1,
  "Activation": "RELU",
  "TacticName": "sm80_xmma_conv_fprop_smallk_i8i8_i32_f32_nchw_vect_c_32kcrs_vect_c_32_nchw_vect_c_32_warptilesize16x32_stage4_warpsize2x4x1_r1s1_u1v1_hw0_c512_scalebias_relu",
  "TacticValue": "0x1a8c6f408af8839b",
  "StreamId": 0,
  "Metadata": "[ONNX Layer: QuantizeLinear_200]\u001e[ONNX Layer: Conv_202]\u001e[ONNX Layer: Relu_203]\u001e[ONNX Layer: QuantizeLinear_206]\u001e[ONNX Layer: DequantizeLinear_198]\u001e[ONNX Layer: QuantizeLinear_195]\u001e[ONNX Layer: DequantizeLinear_201]"
},{
  "Name": "model.encoders.camera.backbone.layer2.1.conv2.weight + QuantizeLinear_211 + Conv_213 + Relu_214",
  "LayerType": "CaskConvolution",
  "Inputs": [
  {
    "Name": "756",
    "Location": "Device",
    "Dimensions": [6,128,32,88],
    "Format/Datatype": "Thirty-two wide channel vectorized row major Int8 format"
  }],
  "Outputs": [
  {
    "Name": "769",
    "Location": "Device",
    "Dimensions": [6,128,32,88],
    "Format/Datatype": "Thirty-two wide channel vectorized row major Int8 format"
  }],
  "ParameterType": "Convolution",
  "Kernel": [3,3],
  "PaddingMode": "kEXPLICIT_ROUND_DOWN",
  "PrePadding": [1,1],
  "PostPadding": [1,1],
  "Stride": [1,1],
  "Dilation": [1,1],
  "OutMaps": 128,
  "Groups": 1,
  "Weights": {"Type": "Int8", "Count": 147456},
  "Bias": {"Type": "Float", "Count": 128},
  "HasBias": 1,
  "HasReLU": 1,
  "HasSparseWeights": 0,
  "HasDynamicFilter": 0,
  "HasDynamicBias": 0,
  "HasResidual": 0,
  "ConvXAsActInputIdx": -1,
  "BiasAsActInputIdx": -1,
  "ResAsActInputIdx": -1,
  "Activation": "RELU",
  "TacticName": "sm80_xmma_fprop_implicit_gemm_interleaved_i8i8_i8i32_f32_nchw_vect_c_32kcrs_vect_c_32_nchw_vect_c_32_tilesize96x128x64_stage3_warpsize2x2x1_g1_tensor16x8x32_t1r3s3",
  "TacticValue": "0xf33711e7c9ed4673",
  "StreamId": 0,
  "Metadata": "[ONNX Layer: QuantizeLinear_211]\u001e[ONNX Layer: Conv_213]\u001e[ONNX Layer: Relu_214]\u001e[ONNX Layer: QuantizeLinear_217]\u001e[ONNX Layer: DequantizeLinear_209]\u001e[ONNX Layer: QuantizeLinear_206]\u001e[ONNX Layer: DequantizeLinear_212]"
},{
  "Name": "model.encoders.camera.backbone.layer2.1.conv3.weight + QuantizeLinear_222 + Conv_224 + Add_231 + Relu_232",
  "LayerType": "CaskConvolution",
  "Inputs": [
  {
    "Name": "769",
    "Location": "Device",
    "Dimensions": [6,128,32,88],
    "Format/Datatype": "Thirty-two wide channel vectorized row major Int8 format"
  },
  {
    "Name": "743",
    "Location": "Device",
    "Dimensions": [6,512,32,88],
    "Format/Datatype": "Thirty-two wide channel vectorized row major Int8 format"
  }],
  "Outputs": [
  {
    "Name": "789",
    "Location": "Device",
    "Dimensions": [6,512,32,88],
    "Format/Datatype": "Thirty-two wide channel vectorized row major Int8 format"
  }],
  "ParameterType": "Convolution",
  "Kernel": [1,1],
  "PaddingMode": "kEXPLICIT_ROUND_DOWN",
  "PrePadding": [0,0],
  "PostPadding": [0,0],
  "Stride": [1,1],
  "Dilation": [1,1],
  "OutMaps": 512,
  "Groups": 1,
  "Weights": {"Type": "Int8", "Count": 65536},
  "Bias": {"Type": "Float", "Count": 512},
  "HasBias": 1,
  "HasReLU": 1,
  "HasSparseWeights": 0,
  "HasDynamicFilter": 0,
  "HasDynamicBias": 0,
  "HasResidual": 1,
  "ConvXAsActInputIdx": -1,
  "BiasAsActInputIdx": -1,
  "ResAsActInputIdx": -1,
  "Activation": "RELU",
  "TacticName": "sm80_xmma_conv_fprop_smallk_i8i8_i32_f32_nchw_vect_c_32kcrs_vect_c_32_nchw_vect_c_32_warptilesize32x32_stage4_warpsize2x4x1_r1s1_u1v1_hw0_c128_scalebias_beta_relu",
  "TacticValue": "0xd4023ece8df38512",
  "StreamId": 0,
  "Metadata": "[ONNX Layer: QuantizeLinear_222]\u001e[ONNX Layer: Conv_224]\u001e[ONNX Layer: QuantizeLinear_235]\u001e[ONNX Layer: QuantizeLinear_267]\u001e[ONNX Layer: DequantizeLinear_220]\u001e[ONNX Layer: QuantizeLinear_217]\u001e[ONNX Layer: DequantizeLinear_223]\u001e[ONNX Layer: Add_231]\u001e[ONNX Layer: Relu_232]\u001e[ONNX Layer: DequantizeLinear_230]\u001e[ONNX Layer: QuantizeLinear_195]"
},{
  "Name": "model.encoders.camera.backbone.layer2.2.conv1.weight + QuantizeLinear_240 + Conv_242 + Relu_243",
  "LayerType": "CaskConvolution",
  "Inputs": [
  {
    "Name": "789",
    "Location": "Device",
    "Dimensions": [6,512,32,88],
    "Format/Datatype": "Thirty-two wide channel vectorized row major Int8 format"
  }],
  "Outputs": [
  {
    "Name": "802",
    "Location": "Device",
    "Dimensions": [6,128,32,88],
    "Format/Datatype": "Thirty-two wide channel vectorized row major Int8 format"
  }],
  "ParameterType": "Convolution",
  "Kernel": [1,1],
  "PaddingMode": "kEXPLICIT_ROUND_DOWN",
  "PrePadding": [0,0],
  "PostPadding": [0,0],
  "Stride": [1,1],
  "Dilation": [1,1],
  "OutMaps": 128,
  "Groups": 1,
  "Weights": {"Type": "Int8", "Count": 65536},
  "Bias": {"Type": "Float", "Count": 128},
  "HasBias": 1,
  "HasReLU": 1,
  "HasSparseWeights": 0,
  "HasDynamicFilter": 0,
  "HasDynamicBias": 0,
  "HasResidual": 0,
  "ConvXAsActInputIdx": -1,
  "BiasAsActInputIdx": -1,
  "ResAsActInputIdx": -1,
  "Activation": "RELU",
  "TacticName": "sm80_xmma_conv_fprop_smallk_i8i8_i32_f32_nchw_vect_c_32kcrs_vect_c_32_nchw_vect_c_32_warptilesize16x32_stage4_warpsize2x4x1_r1s1_u1v1_hw0_c512_scalebias_relu",
  "TacticValue": "0x1a8c6f408af8839b",
  "StreamId": 0,
  "Metadata": "[ONNX Layer: QuantizeLinear_240]\u001e[ONNX Layer: Conv_242]\u001e[ONNX Layer: Relu_243]\u001e[ONNX Layer: QuantizeLinear_246]\u001e[ONNX Layer: DequantizeLinear_238]\u001e[ONNX Layer: QuantizeLinear_235]\u001e[ONNX Layer: DequantizeLinear_241]"
},{
  "Name": "model.encoders.camera.backbone.layer2.2.conv2.weight + QuantizeLinear_251 + Conv_253 + Relu_254",
  "LayerType": "CaskConvolution",
  "Inputs": [
  {
    "Name": "802",
    "Location": "Device",
    "Dimensions": [6,128,32,88],
    "Format/Datatype": "Thirty-two wide channel vectorized row major Int8 format"
  }],
  "Outputs": [
  {
    "Name": "815",
    "Location": "Device",
    "Dimensions": [6,128,32,88],
    "Format/Datatype": "Thirty-two wide channel vectorized row major Int8 format"
  }],
  "ParameterType": "Convolution",
  "Kernel": [3,3],
  "PaddingMode": "kEXPLICIT_ROUND_DOWN",
  "PrePadding": [1,1],
  "PostPadding": [1,1],
  "Stride": [1,1],
  "Dilation": [1,1],
  "OutMaps": 128,
  "Groups": 1,
  "Weights": {"Type": "Int8", "Count": 147456},
  "Bias": {"Type": "Float", "Count": 128},
  "HasBias": 1,
  "HasReLU": 1,
  "HasSparseWeights": 0,
  "HasDynamicFilter": 0,
  "HasDynamicBias": 0,
  "HasResidual": 0,
  "ConvXAsActInputIdx": -1,
  "BiasAsActInputIdx": -1,
  "ResAsActInputIdx": -1,
  "Activation": "RELU",
  "TacticName": "sm80_xmma_fprop_implicit_gemm_interleaved_i8i8_i8i32_f32_nchw_vect_c_32kcrs_vect_c_32_nchw_vect_c_32_tilesize96x128x64_stage3_warpsize2x2x1_g1_tensor16x8x32_t1r3s3",
  "TacticValue": "0xf33711e7c9ed4673",
  "StreamId": 0,
  "Metadata": "[ONNX Layer: QuantizeLinear_251]\u001e[ONNX Layer: Conv_253]\u001e[ONNX Layer: Relu_254]\u001e[ONNX Layer: QuantizeLinear_257]\u001e[ONNX Layer: DequantizeLinear_249]\u001e[ONNX Layer: QuantizeLinear_246]\u001e[ONNX Layer: DequantizeLinear_252]"
},{
  "Name": "model.encoders.camera.backbone.layer2.2.conv3.weight + QuantizeLinear_262 + Conv_264 + Add_271 + Relu_272",
  "LayerType": "CaskConvolution",
  "Inputs": [
  {
    "Name": "815",
    "Location": "Device",
    "Dimensions": [6,128,32,88],
    "Format/Datatype": "Thirty-two wide channel vectorized row major Int8 format"
  },
  {
    "Name": "789",
    "Location": "Device",
    "Dimensions": [6,512,32,88],
    "Format/Datatype": "Thirty-two wide channel vectorized row major Int8 format"
  }],
  "Outputs": [
  {
    "Name": "835",
    "Location": "Device",
    "Dimensions": [6,512,32,88],
    "Format/Datatype": "Thirty-two wide channel vectorized row major Int8 format"
  }],
  "ParameterType": "Convolution",
  "Kernel": [1,1],
  "PaddingMode": "kEXPLICIT_ROUND_DOWN",
  "PrePadding": [0,0],
  "PostPadding": [0,0],
  "Stride": [1,1],
  "Dilation": [1,1],
  "OutMaps": 512,
  "Groups": 1,
  "Weights": {"Type": "Int8", "Count": 65536},
  "Bias": {"Type": "Float", "Count": 512},
  "HasBias": 1,
  "HasReLU": 1,
  "HasSparseWeights": 0,
  "HasDynamicFilter": 0,
  "HasDynamicBias": 0,
  "HasResidual": 1,
  "ConvXAsActInputIdx": -1,
  "BiasAsActInputIdx": -1,
  "ResAsActInputIdx": -1,
  "Activation": "RELU",
  "TacticName": "sm80_xmma_conv_fprop_smallk_i8i8_i32_f32_nchw_vect_c_32kcrs_vect_c_32_nchw_vect_c_32_warptilesize32x32_stage4_warpsize2x4x1_r1s1_u1v1_hw0_c128_scalebias_beta_relu",
  "TacticValue": "0xd4023ece8df38512",
  "StreamId": 0,
  "Metadata": "[ONNX Layer: QuantizeLinear_262]\u001e[ONNX Layer: Conv_264]\u001e[ONNX Layer: QuantizeLinear_275]\u001e[ONNX Layer: QuantizeLinear_307]\u001e[ONNX Layer: DequantizeLinear_260]\u001e[ONNX Layer: QuantizeLinear_257]\u001e[ONNX Layer: DequantizeLinear_263]\u001e[ONNX Layer: Add_271]\u001e[ONNX Layer: Relu_272]\u001e[ONNX Layer: DequantizeLinear_270]\u001e[ONNX Layer: QuantizeLinear_235]"
},{
  "Name": "model.encoders.camera.backbone.layer2.3.conv1.weight + QuantizeLinear_280 + Conv_282 + Relu_283",
  "LayerType": "CaskConvolution",
  "Inputs": [
  {
    "Name": "835",
    "Location": "Device",
    "Dimensions": [6,512,32,88],
    "Format/Datatype": "Thirty-two wide channel vectorized row major Int8 format"
  }],
  "Outputs": [
  {
    "Name": "848",
    "Location": "Device",
    "Dimensions": [6,128,32,88],
    "Format/Datatype": "Thirty-two wide channel vectorized row major Int8 format"
  }],
  "ParameterType": "Convolution",
  "Kernel": [1,1],
  "PaddingMode": "kEXPLICIT_ROUND_DOWN",
  "PrePadding": [0,0],
  "PostPadding": [0,0],
  "Stride": [1,1],
  "Dilation": [1,1],
  "OutMaps": 128,
  "Groups": 1,
  "Weights": {"Type": "Int8", "Count": 65536},
  "Bias": {"Type": "Float", "Count": 128},
  "HasBias": 1,
  "HasReLU": 1,
  "HasSparseWeights": 0,
  "HasDynamicFilter": 0,
  "HasDynamicBias": 0,
  "HasResidual": 0,
  "ConvXAsActInputIdx": -1,
  "BiasAsActInputIdx": -1,
  "ResAsActInputIdx": -1,
  "Activation": "RELU",
  "TacticName": "sm80_xmma_conv_fprop_smallk_i8i8_i32_f32_nchw_vect_c_32kcrs_vect_c_32_nchw_vect_c_32_warptilesize16x32_stage4_warpsize2x4x1_r1s1_u1v1_hw0_c512_scalebias_relu",
  "TacticValue": "0x1a8c6f408af8839b",
  "StreamId": 0,
  "Metadata": "[ONNX Layer: QuantizeLinear_280]\u001e[ONNX Layer: Conv_282]\u001e[ONNX Layer: Relu_283]\u001e[ONNX Layer: QuantizeLinear_286]\u001e[ONNX Layer: DequantizeLinear_278]\u001e[ONNX Layer: QuantizeLinear_275]\u001e[ONNX Layer: DequantizeLinear_281]"
},{
  "Name": "model.encoders.camera.backbone.layer2.3.conv2.weight + QuantizeLinear_291 + Conv_293 + Relu_294",
  "LayerType": "CaskConvolution",
  "Inputs": [
  {
    "Name": "848",
    "Location": "Device",
    "Dimensions": [6,128,32,88],
    "Format/Datatype": "Thirty-two wide channel vectorized row major Int8 format"
  }],
  "Outputs": [
  {
    "Name": "861",
    "Location": "Device",
    "Dimensions": [6,128,32,88],
    "Format/Datatype": "Thirty-two wide channel vectorized row major Int8 format"
  }],
  "ParameterType": "Convolution",
  "Kernel": [3,3],
  "PaddingMode": "kEXPLICIT_ROUND_DOWN",
  "PrePadding": [1,1],
  "PostPadding": [1,1],
  "Stride": [1,1],
  "Dilation": [1,1],
  "OutMaps": 128,
  "Groups": 1,
  "Weights": {"Type": "Int8", "Count": 147456},
  "Bias": {"Type": "Float", "Count": 128},
  "HasBias": 1,
  "HasReLU": 1,
  "HasSparseWeights": 0,
  "HasDynamicFilter": 0,
  "HasDynamicBias": 0,
  "HasResidual": 0,
  "ConvXAsActInputIdx": -1,
  "BiasAsActInputIdx": -1,
  "ResAsActInputIdx": -1,
  "Activation": "RELU",
  "TacticName": "sm80_xmma_fprop_implicit_gemm_interleaved_i8i8_i8i32_f32_nchw_vect_c_32kcrs_vect_c_32_nchw_vect_c_32_tilesize96x128x64_stage3_warpsize2x2x1_g1_tensor16x8x32_t1r3s3",
  "TacticValue": "0xf33711e7c9ed4673",
  "StreamId": 0,
  "Metadata": "[ONNX Layer: QuantizeLinear_291]\u001e[ONNX Layer: Conv_293]\u001e[ONNX Layer: Relu_294]\u001e[ONNX Layer: QuantizeLinear_297]\u001e[ONNX Layer: DequantizeLinear_289]\u001e[ONNX Layer: QuantizeLinear_286]\u001e[ONNX Layer: DequantizeLinear_292]"
},{
  "Name": "model.encoders.camera.backbone.layer2.3.conv3.weight + QuantizeLinear_302 + Conv_304 + Add_311 + Relu_312",
  "LayerType": "CaskConvolution",
  "Inputs": [
  {
    "Name": "861",
    "Location": "Device",
    "Dimensions": [6,128,32,88],
    "Format/Datatype": "Thirty-two wide channel vectorized row major Int8 format"
  },
  {
    "Name": "835",
    "Location": "Device",
    "Dimensions": [6,512,32,88],
    "Format/Datatype": "Thirty-two wide channel vectorized row major Int8 format"
  }],
  "Outputs": [
  {
    "Name": "Concat_754_1383_clone_0",
    "Location": "Device",
    "Dimensions": [6,512,32,88],
    "Format/Datatype": "Thirty-two wide channel vectorized row major Int8 format"
  }],
  "ParameterType": "Convolution",
  "Kernel": [1,1],
  "PaddingMode": "kEXPLICIT_ROUND_DOWN",
  "PrePadding": [0,0],
  "PostPadding": [0,0],
  "Stride": [1,1],
  "Dilation": [1,1],
  "OutMaps": 512,
  "Groups": 1,
  "Weights": {"Type": "Int8", "Count": 65536},
  "Bias": {"Type": "Float", "Count": 512},
  "HasBias": 1,
  "HasReLU": 1,
  "HasSparseWeights": 0,
  "HasDynamicFilter": 0,
  "HasDynamicBias": 0,
  "HasResidual": 1,
  "ConvXAsActInputIdx": -1,
  "BiasAsActInputIdx": -1,
  "ResAsActInputIdx": -1,
  "Activation": "RELU",
  "TacticName": "sm80_xmma_conv_fprop_smallk_i8i8_i32_f32_nchw_vect_c_32kcrs_vect_c_32_nchw_vect_c_32_warptilesize32x32_stage4_warpsize2x4x1_r1s1_u1v1_hw0_c128_scalebias_beta_relu",
  "TacticValue": "0xd4023ece8df38512",
  "StreamId": 0,
  "Metadata": "[ONNX Layer: QuantizeLinear_302]\u001e[ONNX Layer: Conv_304]\u001e[ONNX Layer: QuantizeLinear_315]\u001e[ONNX Layer: QuantizeLinear_347]\u001e[ONNX Layer: QuantizeLinear_744]\u001e[ONNX Layer: DequantizeLinear_300]\u001e[ONNX Layer: QuantizeLinear_297]\u001e[ONNX Layer: DequantizeLinear_303]\u001e[ONNX Layer: Add_311]\u001e[ONNX Layer: Relu_312]\u001e[ONNX Layer: DequantizeLinear_310]\u001e[ONNX Layer: QuantizeLinear_275]"
},{
  "Name": "model.encoders.camera.backbone.layer3.0.conv1.weight + QuantizeLinear_320 + Conv_322 + Relu_323",
  "LayerType": "CaskConvolution",
  "Inputs": [
  {
    "Name": "Concat_754_1383_clone_0",
    "Location": "Device",
    "Dimensions": [6,512,32,88],
    "Format/Datatype": "Thirty-two wide channel vectorized row major Int8 format"
  }],
  "Outputs": [
  {
    "Name": "894",
    "Location": "Device",
    "Dimensions": [6,256,32,88],
    "Format/Datatype": "Thirty-two wide channel vectorized row major Int8 format"
  }],
  "ParameterType": "Convolution",
  "Kernel": [1,1],
  "PaddingMode": "kEXPLICIT_ROUND_DOWN",
  "PrePadding": [0,0],
  "PostPadding": [0,0],
  "Stride": [1,1],
  "Dilation": [1,1],
  "OutMaps": 256,
  "Groups": 1,
  "Weights": {"Type": "Int8", "Count": 131072},
  "Bias": {"Type": "Float", "Count": 256},
  "HasBias": 1,
  "HasReLU": 1,
  "HasSparseWeights": 0,
  "HasDynamicFilter": 0,
  "HasDynamicBias": 0,
  "HasResidual": 0,
  "ConvXAsActInputIdx": -1,
  "BiasAsActInputIdx": -1,
  "ResAsActInputIdx": -1,
  "Activation": "RELU",
  "TacticName": "sm80_xmma_conv_fprop_smallk_i8i8_i32_f32_nchw_vect_c_32kcrs_vect_c_32_nchw_vect_c_32_warptilesize16x32_stage4_warpsize2x4x1_r1s1_u1v1_hw0_c512_scalebias_relu",
  "TacticValue": "0x1a8c6f408af8839b",
  "StreamId": 0,
  "Metadata": "[ONNX Layer: QuantizeLinear_320]\u001e[ONNX Layer: Conv_322]\u001e[ONNX Layer: Relu_323]\u001e[ONNX Layer: QuantizeLinear_326]\u001e[ONNX Layer: DequantizeLinear_318]\u001e[ONNX Layer: QuantizeLinear_315]\u001e[ONNX Layer: DequantizeLinear_321]"
},{
  "Name": "model.encoders.camera.backbone.layer3.0.downsample.0.weight + QuantizeLinear_352 + Conv_354",
  "LayerType": "CaskConvolution",
  "Inputs": [
  {
    "Name": "Concat_754_1383_clone_0",
    "Location": "Device",
    "Dimensions": [6,512,32,88],
    "Format/Datatype": "Thirty-two wide channel vectorized row major Int8 format"
  }],
  "Outputs": [
  {
    "Name": "931",
    "Location": "Device",
    "Dimensions": [6,1024,16,44],
    "Format/Datatype": "Thirty-two wide channel vectorized row major Int8 format"
  }],
  "ParameterType": "Convolution",
  "Kernel": [1,1],
  "PaddingMode": "kEXPLICIT_ROUND_DOWN",
  "PrePadding": [0,0],
  "PostPadding": [0,0],
  "Stride": [2,2],
  "Dilation": [1,1],
  "OutMaps": 1024,
  "Groups": 1,
  "Weights": {"Type": "Int8", "Count": 524288},
  "Bias": {"Type": "Float", "Count": 1024},
  "HasBias": 1,
  "HasReLU": 0,
  "HasSparseWeights": 0,
  "HasDynamicFilter": 0,
  "HasDynamicBias": 0,
  "HasResidual": 0,
  "ConvXAsActInputIdx": -1,
  "BiasAsActInputIdx": -1,
  "ResAsActInputIdx": -1,
  "Activation": "NONE",
  "TacticName": "sm80_xmma_fprop_implicit_gemm_interleaved_i8i8_i8i32_f32_nchw_vect_c_32kcrs_vect_c_32_nchw_vect_c_32_tilesize128x128x64_stage4_warpsize2x2x1_g1_tensor16x8x32_t1r1s1",
  "TacticValue": "0x601b41d38fc4645b",
  "StreamId": 0,
  "Metadata": "[ONNX Layer: QuantizeLinear_352]\u001e[ONNX Layer: Conv_354]\u001e[ONNX Layer: QuantizeLinear_357]\u001e[ONNX Layer: DequantizeLinear_350]\u001e[ONNX Layer: QuantizeLinear_315]\u001e[ONNX Layer: DequantizeLinear_353]"
},{
  "Name": "model.encoders.camera.backbone.layer3.0.conv2.weight + QuantizeLinear_331 + Conv_333 + Relu_334",
  "LayerType": "CaskConvolution",
  "Inputs": [
  {
    "Name": "894",
    "Location": "Device",
    "Dimensions": [6,256,32,88],
    "Format/Datatype": "Thirty-two wide channel vectorized row major Int8 format"
  }],
  "Outputs": [
  {
    "Name": "907",
    "Location": "Device",
    "Dimensions": [6,256,16,44],
    "Format/Datatype": "Thirty-two wide channel vectorized row major Int8 format"
  }],
  "ParameterType": "Convolution",
  "Kernel": [3,3],
  "PaddingMode": "kEXPLICIT_ROUND_DOWN",
  "PrePadding": [1,1],
  "PostPadding": [1,1],
  "Stride": [2,2],
  "Dilation": [1,1],
  "OutMaps": 256,
  "Groups": 1,
  "Weights": {"Type": "Int8", "Count": 589824},
  "Bias": {"Type": "Float", "Count": 256},
  "HasBias": 1,
  "HasReLU": 1,
  "HasSparseWeights": 0,
  "HasDynamicFilter": 0,
  "HasDynamicBias": 0,
  "HasResidual": 0,
  "ConvXAsActInputIdx": -1,
  "BiasAsActInputIdx": -1,
  "ResAsActInputIdx": -1,
  "Activation": "RELU",
  "TacticName": "sm80_xmma_fprop_implicit_gemm_interleaved_i8i8_i8i32_f32_nchw_vect_c_32kcrs_vect_c_32_nchw_vect_c_32_tilesize96x128x64_stage3_warpsize2x2x1_g1_tensor16x8x32_t1r3s3",
  "TacticValue": "0xf33711e7c9ed4673",
  "StreamId": 0,
  "Metadata": "[ONNX Layer: QuantizeLinear_331]\u001e[ONNX Layer: Conv_333]\u001e[ONNX Layer: Relu_334]\u001e[ONNX Layer: QuantizeLinear_337]\u001e[ONNX Layer: DequantizeLinear_329]\u001e[ONNX Layer: QuantizeLinear_326]\u001e[ONNX Layer: DequantizeLinear_332]"
},{
  "Name": "model.encoders.camera.backbone.layer3.0.conv3.weight + QuantizeLinear_342 + Conv_344 + Add_361 + Relu_362",
  "LayerType": "CaskConvolution",
  "Inputs": [
  {
    "Name": "907",
    "Location": "Device",
    "Dimensions": [6,256,16,44],
    "Format/Datatype": "Thirty-two wide channel vectorized row major Int8 format"
  },
  {
    "Name": "931",
    "Location": "Device",
    "Dimensions": [6,1024,16,44],
    "Format/Datatype": "Thirty-two wide channel vectorized row major Int8 format"
  }],
  "Outputs": [
  {
    "Name": "939",
    "Location": "Device",
    "Dimensions": [6,1024,16,44],
    "Format/Datatype": "Thirty-two wide channel vectorized row major Int8 format"
  }],
  "ParameterType": "Convolution",
  "Kernel": [1,1],
  "PaddingMode": "kEXPLICIT_ROUND_DOWN",
  "PrePadding": [0,0],
  "PostPadding": [0,0],
  "Stride": [1,1],
  "Dilation": [1,1],
  "OutMaps": 1024,
  "Groups": 1,
  "Weights": {"Type": "Int8", "Count": 262144},
  "Bias": {"Type": "Float", "Count": 1024},
  "HasBias": 1,
  "HasReLU": 1,
  "HasSparseWeights": 0,
  "HasDynamicFilter": 0,
  "HasDynamicBias": 0,
  "HasResidual": 1,
  "ConvXAsActInputIdx": -1,
  "BiasAsActInputIdx": -1,
  "ResAsActInputIdx": -1,
  "Activation": "RELU",
  "TacticName": "sm80_xmma_conv_fprop_smallk_i8i8_i32_f32_nchw_vect_c_32kcrs_vect_c_32_nchw_vect_c_32_warptilesize32x32_stage4_warpsize2x4x1_r1s1_u1v1_hw0_c256_scalebias_beta_relu",
  "TacticValue": "0x7da1544a119637e7",
  "StreamId": 0,
  "Metadata": "[ONNX Layer: QuantizeLinear_342]\u001e[ONNX Layer: Conv_344]\u001e[ONNX Layer: QuantizeLinear_365]\u001e[ONNX Layer: QuantizeLinear_397]\u001e[ONNX Layer: DequantizeLinear_340]\u001e[ONNX Layer: QuantizeLinear_337]\u001e[ONNX Layer: DequantizeLinear_343]\u001e[ONNX Layer: Add_361]\u001e[ONNX Layer: Relu_362]\u001e[ONNX Layer: DequantizeLinear_360]\u001e[ONNX Layer: QuantizeLinear_357]"
},{
  "Name": "model.encoders.camera.backbone.layer3.1.conv1.weight + QuantizeLinear_370 + Conv_372 + Relu_373",
  "LayerType": "CaskConvolution",
  "Inputs": [
  {
    "Name": "939",
    "Location": "Device",
    "Dimensions": [6,1024,16,44],
    "Format/Datatype": "Thirty-two wide channel vectorized row major Int8 format"
  }],
  "Outputs": [
  {
    "Name": "952",
    "Location": "Device",
    "Dimensions": [6,256,16,44],
    "Format/Datatype": "Thirty-two wide channel vectorized row major Int8 format"
  }],
  "ParameterType": "Convolution",
  "Kernel": [1,1],
  "PaddingMode": "kEXPLICIT_ROUND_DOWN",
  "PrePadding": [0,0],
  "PostPadding": [0,0],
  "Stride": [1,1],
  "Dilation": [1,1],
  "OutMaps": 256,
  "Groups": 1,
  "Weights": {"Type": "Int8", "Count": 262144},
  "Bias": {"Type": "Float", "Count": 256},
  "HasBias": 1,
  "HasReLU": 1,
  "HasSparseWeights": 0,
  "HasDynamicFilter": 0,
  "HasDynamicBias": 0,
  "HasResidual": 0,
  "ConvXAsActInputIdx": -1,
  "BiasAsActInputIdx": -1,
  "ResAsActInputIdx": -1,
  "Activation": "RELU",
  "TacticName": "sm80_xmma_conv_fprop_smallk_i8i8_i32_f32_nchw_vect_c_32kcrs_vect_c_32_nchw_vect_c_32_warptilesize16x32_stage5_warpsize1x4x2_r1s1_u1v1_hw0_c1024_scalebias_relu",
  "TacticValue": "0x11898100e6875c92",
  "StreamId": 0,
  "Metadata": "[ONNX Layer: QuantizeLinear_370]\u001e[ONNX Layer: Conv_372]\u001e[ONNX Layer: Relu_373]\u001e[ONNX Layer: QuantizeLinear_376]\u001e[ONNX Layer: DequantizeLinear_368]\u001e[ONNX Layer: QuantizeLinear_365]\u001e[ONNX Layer: DequantizeLinear_371]"
},{
  "Name": "model.encoders.camera.backbone.layer3.1.conv2.weight + QuantizeLinear_381 + Conv_383 + Relu_384",
  "LayerType": "CaskConvolution",
  "Inputs": [
  {
    "Name": "952",
    "Location": "Device",
    "Dimensions": [6,256,16,44],
    "Format/Datatype": "Thirty-two wide channel vectorized row major Int8 format"
  }],
  "Outputs": [
  {
    "Name": "965",
    "Location": "Device",
    "Dimensions": [6,256,16,44],
    "Format/Datatype": "Thirty-two wide channel vectorized row major Int8 format"
  }],
  "ParameterType": "Convolution",
  "Kernel": [3,3],
  "PaddingMode": "kEXPLICIT_ROUND_DOWN",
  "PrePadding": [1,1],
  "PostPadding": [1,1],
  "Stride": [1,1],
  "Dilation": [1,1],
  "OutMaps": 256,
  "Groups": 1,
  "Weights": {"Type": "Int8", "Count": 589824},
  "Bias": {"Type": "Float", "Count": 256},
  "HasBias": 1,
  "HasReLU": 1,
  "HasSparseWeights": 0,
  "HasDynamicFilter": 0,
  "HasDynamicBias": 0,
  "HasResidual": 0,
  "ConvXAsActInputIdx": -1,
  "BiasAsActInputIdx": -1,
  "ResAsActInputIdx": -1,
  "Activation": "RELU",
  "TacticName": "sm80_xmma_fprop_avdt_dense_int8int8_tilesize64x128x32_tapsperload9_threadspercta128_r3s3_u1v1_scalebias_relu",
  "TacticValue": "0x99ccdec1bdaffe62",
  "StreamId": 0,
  "Metadata": "[ONNX Layer: QuantizeLinear_381]\u001e[ONNX Layer: Conv_383]\u001e[ONNX Layer: Relu_384]\u001e[ONNX Layer: QuantizeLinear_387]\u001e[ONNX Layer: DequantizeLinear_379]\u001e[ONNX Layer: QuantizeLinear_376]\u001e[ONNX Layer: DequantizeLinear_382]"
},{
  "Name": "model.encoders.camera.backbone.layer3.1.conv3.weight + QuantizeLinear_392 + Conv_394 + Add_401 + Relu_402",
  "LayerType": "CaskConvolution",
  "Inputs": [
  {
    "Name": "965",
    "Location": "Device",
    "Dimensions": [6,256,16,44],
    "Format/Datatype": "Thirty-two wide channel vectorized row major Int8 format"
  },
  {
    "Name": "939",
    "Location": "Device",
    "Dimensions": [6,1024,16,44],
    "Format/Datatype": "Thirty-two wide channel vectorized row major Int8 format"
  }],
  "Outputs": [
  {
    "Name": "985",
    "Location": "Device",
    "Dimensions": [6,1024,16,44],
    "Format/Datatype": "Thirty-two wide channel vectorized row major Int8 format"
  }],
  "ParameterType": "Convolution",
  "Kernel": [1,1],
  "PaddingMode": "kEXPLICIT_ROUND_DOWN",
  "PrePadding": [0,0],
  "PostPadding": [0,0],
  "Stride": [1,1],
  "Dilation": [1,1],
  "OutMaps": 1024,
  "Groups": 1,
  "Weights": {"Type": "Int8", "Count": 262144},
  "Bias": {"Type": "Float", "Count": 1024},
  "HasBias": 1,
  "HasReLU": 1,
  "HasSparseWeights": 0,
  "HasDynamicFilter": 0,
  "HasDynamicBias": 0,
  "HasResidual": 1,
  "ConvXAsActInputIdx": -1,
  "BiasAsActInputIdx": -1,
  "ResAsActInputIdx": -1,
  "Activation": "RELU",
  "TacticName": "sm80_xmma_conv_fprop_smallk_i8i8_i32_f32_nchw_vect_c_32kcrs_vect_c_32_nchw_vect_c_32_warptilesize32x32_stage4_warpsize2x4x1_r1s1_u1v1_hw0_c256_scalebias_beta_relu",
  "TacticValue": "0x7da1544a119637e7",
  "StreamId": 0,
  "Metadata": "[ONNX Layer: QuantizeLinear_392]\u001e[ONNX Layer: Conv_394]\u001e[ONNX Layer: QuantizeLinear_405]\u001e[ONNX Layer: QuantizeLinear_437]\u001e[ONNX Layer: DequantizeLinear_390]\u001e[ONNX Layer: QuantizeLinear_387]\u001e[ONNX Layer: DequantizeLinear_393]\u001e[ONNX Layer: Add_401]\u001e[ONNX Layer: Relu_402]\u001e[ONNX Layer: DequantizeLinear_400]\u001e[ONNX Layer: QuantizeLinear_365]"
},{
  "Name": "model.encoders.camera.backbone.layer3.2.conv1.weight + QuantizeLinear_410 + Conv_412 + Relu_413",
  "LayerType": "CaskConvolution",
  "Inputs": [
  {
    "Name": "985",
    "Location": "Device",
    "Dimensions": [6,1024,16,44],
    "Format/Datatype": "Thirty-two wide channel vectorized row major Int8 format"
  }],
  "Outputs": [
  {
    "Name": "998",
    "Location": "Device",
    "Dimensions": [6,256,16,44],
    "Format/Datatype": "Thirty-two wide channel vectorized row major Int8 format"
  }],
  "ParameterType": "Convolution",
  "Kernel": [1,1],
  "PaddingMode": "kEXPLICIT_ROUND_DOWN",
  "PrePadding": [0,0],
  "PostPadding": [0,0],
  "Stride": [1,1],
  "Dilation": [1,1],
  "OutMaps": 256,
  "Groups": 1,
  "Weights": {"Type": "Int8", "Count": 262144},
  "Bias": {"Type": "Float", "Count": 256},
  "HasBias": 1,
  "HasReLU": 1,
  "HasSparseWeights": 0,
  "HasDynamicFilter": 0,
  "HasDynamicBias": 0,
  "HasResidual": 0,
  "ConvXAsActInputIdx": -1,
  "BiasAsActInputIdx": -1,
  "ResAsActInputIdx": -1,
  "Activation": "RELU",
  "TacticName": "sm80_xmma_conv_fprop_smallk_i8i8_i32_f32_nchw_vect_c_32kcrs_vect_c_32_nchw_vect_c_32_warptilesize16x32_stage5_warpsize1x4x2_r1s1_u1v1_hw0_c1024_scalebias_relu",
  "TacticValue": "0x11898100e6875c92",
  "StreamId": 0,
  "Metadata": "[ONNX Layer: QuantizeLinear_410]\u001e[ONNX Layer: Conv_412]\u001e[ONNX Layer: Relu_413]\u001e[ONNX Layer: QuantizeLinear_416]\u001e[ONNX Layer: DequantizeLinear_408]\u001e[ONNX Layer: QuantizeLinear_405]\u001e[ONNX Layer: DequantizeLinear_411]"
},{
  "Name": "model.encoders.camera.backbone.layer3.2.conv2.weight + QuantizeLinear_421 + Conv_423 + Relu_424",
  "LayerType": "CaskConvolution",
  "Inputs": [
  {
    "Name": "998",
    "Location": "Device",
    "Dimensions": [6,256,16,44],
    "Format/Datatype": "Thirty-two wide channel vectorized row major Int8 format"
  }],
  "Outputs": [
  {
    "Name": "1011",
    "Location": "Device",
    "Dimensions": [6,256,16,44],
    "Format/Datatype": "Thirty-two wide channel vectorized row major Int8 format"
  }],
  "ParameterType": "Convolution",
  "Kernel": [3,3],
  "PaddingMode": "kEXPLICIT_ROUND_DOWN",
  "PrePadding": [1,1],
  "PostPadding": [1,1],
  "Stride": [1,1],
  "Dilation": [1,1],
  "OutMaps": 256,
  "Groups": 1,
  "Weights": {"Type": "Int8", "Count": 589824},
  "Bias": {"Type": "Float", "Count": 256},
  "HasBias": 1,
  "HasReLU": 1,
  "HasSparseWeights": 0,
  "HasDynamicFilter": 0,
  "HasDynamicBias": 0,
  "HasResidual": 0,
  "ConvXAsActInputIdx": -1,
  "BiasAsActInputIdx": -1,
  "ResAsActInputIdx": -1,
  "Activation": "RELU",
  "TacticName": "sm80_xmma_fprop_avdt_dense_int8int8_tilesize64x128x32_tapsperload9_threadspercta128_r3s3_u1v1_scalebias_relu",
  "TacticValue": "0x99ccdec1bdaffe62",
  "StreamId": 0,
  "Metadata": "[ONNX Layer: QuantizeLinear_421]\u001e[ONNX Layer: Conv_423]\u001e[ONNX Layer: Relu_424]\u001e[ONNX Layer: QuantizeLinear_427]\u001e[ONNX Layer: DequantizeLinear_419]\u001e[ONNX Layer: QuantizeLinear_416]\u001e[ONNX Layer: DequantizeLinear_422]"
},{
  "Name": "model.encoders.camera.backbone.layer3.2.conv3.weight + QuantizeLinear_432 + Conv_434 + Add_441 + Relu_442",
  "LayerType": "CaskConvolution",
  "Inputs": [
  {
    "Name": "1011",
    "Location": "Device",
    "Dimensions": [6,256,16,44],
    "Format/Datatype": "Thirty-two wide channel vectorized row major Int8 format"
  },
  {
    "Name": "985",
    "Location": "Device",
    "Dimensions": [6,1024,16,44],
    "Format/Datatype": "Thirty-two wide channel vectorized row major Int8 format"
  }],
  "Outputs": [
  {
    "Name": "1031",
    "Location": "Device",
    "Dimensions": [6,1024,16,44],
    "Format/Datatype": "Thirty-two wide channel vectorized row major Int8 format"
  }],
  "ParameterType": "Convolution",
  "Kernel": [1,1],
  "PaddingMode": "kEXPLICIT_ROUND_DOWN",
  "PrePadding": [0,0],
  "PostPadding": [0,0],
  "Stride": [1,1],
  "Dilation": [1,1],
  "OutMaps": 1024,
  "Groups": 1,
  "Weights": {"Type": "Int8", "Count": 262144},
  "Bias": {"Type": "Float", "Count": 1024},
  "HasBias": 1,
  "HasReLU": 1,
  "HasSparseWeights": 0,
  "HasDynamicFilter": 0,
  "HasDynamicBias": 0,
  "HasResidual": 1,
  "ConvXAsActInputIdx": -1,
  "BiasAsActInputIdx": -1,
  "ResAsActInputIdx": -1,
  "Activation": "RELU",
  "TacticName": "sm80_xmma_conv_fprop_smallk_i8i8_i32_f32_nchw_vect_c_32kcrs_vect_c_32_nchw_vect_c_32_warptilesize32x32_stage4_warpsize2x4x1_r1s1_u1v1_hw0_c256_scalebias_beta_relu",
  "TacticValue": "0x7da1544a119637e7",
  "StreamId": 0,
  "Metadata": "[ONNX Layer: QuantizeLinear_432]\u001e[ONNX Layer: Conv_434]\u001e[ONNX Layer: QuantizeLinear_445]\u001e[ONNX Layer: QuantizeLinear_477]\u001e[ONNX Layer: DequantizeLinear_430]\u001e[ONNX Layer: QuantizeLinear_427]\u001e[ONNX Layer: DequantizeLinear_433]\u001e[ONNX Layer: Add_441]\u001e[ONNX Layer: Relu_442]\u001e[ONNX Layer: DequantizeLinear_440]\u001e[ONNX Layer: QuantizeLinear_405]"
},{
  "Name": "model.encoders.camera.backbone.layer3.3.conv1.weight + QuantizeLinear_450 + Conv_452 + Relu_453",
  "LayerType": "CaskConvolution",
  "Inputs": [
  {
    "Name": "1031",
    "Location": "Device",
    "Dimensions": [6,1024,16,44],
    "Format/Datatype": "Thirty-two wide channel vectorized row major Int8 format"
  }],
  "Outputs": [
  {
    "Name": "1044",
    "Location": "Device",
    "Dimensions": [6,256,16,44],
    "Format/Datatype": "Thirty-two wide channel vectorized row major Int8 format"
  }],
  "ParameterType": "Convolution",
  "Kernel": [1,1],
  "PaddingMode": "kEXPLICIT_ROUND_DOWN",
  "PrePadding": [0,0],
  "PostPadding": [0,0],
  "Stride": [1,1],
  "Dilation": [1,1],
  "OutMaps": 256,
  "Groups": 1,
  "Weights": {"Type": "Int8", "Count": 262144},
  "Bias": {"Type": "Float", "Count": 256},
  "HasBias": 1,
  "HasReLU": 1,
  "HasSparseWeights": 0,
  "HasDynamicFilter": 0,
  "HasDynamicBias": 0,
  "HasResidual": 0,
  "ConvXAsActInputIdx": -1,
  "BiasAsActInputIdx": -1,
  "ResAsActInputIdx": -1,
  "Activation": "RELU",
  "TacticName": "sm80_xmma_conv_fprop_smallk_i8i8_i32_f32_nchw_vect_c_32kcrs_vect_c_32_nchw_vect_c_32_warptilesize16x32_stage5_warpsize1x4x2_r1s1_u1v1_hw0_c1024_scalebias_relu",
  "TacticValue": "0x11898100e6875c92",
  "StreamId": 0,
  "Metadata": "[ONNX Layer: QuantizeLinear_450]\u001e[ONNX Layer: Conv_452]\u001e[ONNX Layer: Relu_453]\u001e[ONNX Layer: QuantizeLinear_456]\u001e[ONNX Layer: DequantizeLinear_448]\u001e[ONNX Layer: QuantizeLinear_445]\u001e[ONNX Layer: DequantizeLinear_451]"
},{
  "Name": "model.encoders.camera.backbone.layer3.3.conv2.weight + QuantizeLinear_461 + Conv_463 + Relu_464",
  "LayerType": "CaskConvolution",
  "Inputs": [
  {
    "Name": "1044",
    "Location": "Device",
    "Dimensions": [6,256,16,44],
    "Format/Datatype": "Thirty-two wide channel vectorized row major Int8 format"
  }],
  "Outputs": [
  {
    "Name": "1057",
    "Location": "Device",
    "Dimensions": [6,256,16,44],
    "Format/Datatype": "Thirty-two wide channel vectorized row major Int8 format"
  }],
  "ParameterType": "Convolution",
  "Kernel": [3,3],
  "PaddingMode": "kEXPLICIT_ROUND_DOWN",
  "PrePadding": [1,1],
  "PostPadding": [1,1],
  "Stride": [1,1],
  "Dilation": [1,1],
  "OutMaps": 256,
  "Groups": 1,
  "Weights": {"Type": "Int8", "Count": 589824},
  "Bias": {"Type": "Float", "Count": 256},
  "HasBias": 1,
  "HasReLU": 1,
  "HasSparseWeights": 0,
  "HasDynamicFilter": 0,
  "HasDynamicBias": 0,
  "HasResidual": 0,
  "ConvXAsActInputIdx": -1,
  "BiasAsActInputIdx": -1,
  "ResAsActInputIdx": -1,
  "Activation": "RELU",
  "TacticName": "sm80_xmma_fprop_avdt_dense_int8int8_tilesize64x128x32_tapsperload9_threadspercta128_r3s3_u1v1_scalebias_relu",
  "TacticValue": "0x99ccdec1bdaffe62",
  "StreamId": 0,
  "Metadata": "[ONNX Layer: QuantizeLinear_461]\u001e[ONNX Layer: Conv_463]\u001e[ONNX Layer: Relu_464]\u001e[ONNX Layer: QuantizeLinear_467]\u001e[ONNX Layer: DequantizeLinear_459]\u001e[ONNX Layer: QuantizeLinear_456]\u001e[ONNX Layer: DequantizeLinear_462]"
},{
  "Name": "model.encoders.camera.backbone.layer3.3.conv3.weight + QuantizeLinear_472 + Conv_474 + Add_481 + Relu_482",
  "LayerType": "CaskConvolution",
  "Inputs": [
  {
    "Name": "1057",
    "Location": "Device",
    "Dimensions": [6,256,16,44],
    "Format/Datatype": "Thirty-two wide channel vectorized row major Int8 format"
  },
  {
    "Name": "1031",
    "Location": "Device",
    "Dimensions": [6,1024,16,44],
    "Format/Datatype": "Thirty-two wide channel vectorized row major Int8 format"
  }],
  "Outputs": [
  {
    "Name": "1077",
    "Location": "Device",
    "Dimensions": [6,1024,16,44],
    "Format/Datatype": "Thirty-two wide channel vectorized row major Int8 format"
  }],
  "ParameterType": "Convolution",
  "Kernel": [1,1],
  "PaddingMode": "kEXPLICIT_ROUND_DOWN",
  "PrePadding": [0,0],
  "PostPadding": [0,0],
  "Stride": [1,1],
  "Dilation": [1,1],
  "OutMaps": 1024,
  "Groups": 1,
  "Weights": {"Type": "Int8", "Count": 262144},
  "Bias": {"Type": "Float", "Count": 1024},
  "HasBias": 1,
  "HasReLU": 1,
  "HasSparseWeights": 0,
  "HasDynamicFilter": 0,
  "HasDynamicBias": 0,
  "HasResidual": 1,
  "ConvXAsActInputIdx": -1,
  "BiasAsActInputIdx": -1,
  "ResAsActInputIdx": -1,
  "Activation": "RELU",
  "TacticName": "sm80_xmma_conv_fprop_smallk_i8i8_i32_f32_nchw_vect_c_32kcrs_vect_c_32_nchw_vect_c_32_warptilesize32x32_stage4_warpsize2x4x1_r1s1_u1v1_hw0_c256_scalebias_beta_relu",
  "TacticValue": "0x7da1544a119637e7",
  "StreamId": 0,
  "Metadata": "[ONNX Layer: QuantizeLinear_472]\u001e[ONNX Layer: Conv_474]\u001e[ONNX Layer: QuantizeLinear_485]\u001e[ONNX Layer: QuantizeLinear_517]\u001e[ONNX Layer: DequantizeLinear_470]\u001e[ONNX Layer: QuantizeLinear_467]\u001e[ONNX Layer: DequantizeLinear_473]\u001e[ONNX Layer: Add_481]\u001e[ONNX Layer: Relu_482]\u001e[ONNX Layer: DequantizeLinear_480]\u001e[ONNX Layer: QuantizeLinear_445]"
},{
  "Name": "model.encoders.camera.backbone.layer3.4.conv1.weight + QuantizeLinear_490 + Conv_492 + Relu_493",
  "LayerType": "CaskConvolution",
  "Inputs": [
  {
    "Name": "1077",
    "Location": "Device",
    "Dimensions": [6,1024,16,44],
    "Format/Datatype": "Thirty-two wide channel vectorized row major Int8 format"
  }],
  "Outputs": [
  {
    "Name": "1090",
    "Location": "Device",
    "Dimensions": [6,256,16,44],
    "Format/Datatype": "Thirty-two wide channel vectorized row major Int8 format"
  }],
  "ParameterType": "Convolution",
  "Kernel": [1,1],
  "PaddingMode": "kEXPLICIT_ROUND_DOWN",
  "PrePadding": [0,0],
  "PostPadding": [0,0],
  "Stride": [1,1],
  "Dilation": [1,1],
  "OutMaps": 256,
  "Groups": 1,
  "Weights": {"Type": "Int8", "Count": 262144},
  "Bias": {"Type": "Float", "Count": 256},
  "HasBias": 1,
  "HasReLU": 1,
  "HasSparseWeights": 0,
  "HasDynamicFilter": 0,
  "HasDynamicBias": 0,
  "HasResidual": 0,
  "ConvXAsActInputIdx": -1,
  "BiasAsActInputIdx": -1,
  "ResAsActInputIdx": -1,
  "Activation": "RELU",
  "TacticName": "sm80_xmma_conv_fprop_smallk_i8i8_i32_f32_nchw_vect_c_32kcrs_vect_c_32_nchw_vect_c_32_warptilesize16x32_stage5_warpsize1x4x2_r1s1_u1v1_hw0_c1024_scalebias_relu",
  "TacticValue": "0x11898100e6875c92",
  "StreamId": 0,
  "Metadata": "[ONNX Layer: QuantizeLinear_490]\u001e[ONNX Layer: Conv_492]\u001e[ONNX Layer: Relu_493]\u001e[ONNX Layer: QuantizeLinear_496]\u001e[ONNX Layer: DequantizeLinear_488]\u001e[ONNX Layer: QuantizeLinear_485]\u001e[ONNX Layer: DequantizeLinear_491]"
},{
  "Name": "model.encoders.camera.backbone.layer3.4.conv2.weight + QuantizeLinear_501 + Conv_503 + Relu_504",
  "LayerType": "CaskConvolution",
  "Inputs": [
  {
    "Name": "1090",
    "Location": "Device",
    "Dimensions": [6,256,16,44],
    "Format/Datatype": "Thirty-two wide channel vectorized row major Int8 format"
  }],
  "Outputs": [
  {
    "Name": "1103",
    "Location": "Device",
    "Dimensions": [6,256,16,44],
    "Format/Datatype": "Thirty-two wide channel vectorized row major Int8 format"
  }],
  "ParameterType": "Convolution",
  "Kernel": [3,3],
  "PaddingMode": "kEXPLICIT_ROUND_DOWN",
  "PrePadding": [1,1],
  "PostPadding": [1,1],
  "Stride": [1,1],
  "Dilation": [1,1],
  "OutMaps": 256,
  "Groups": 1,
  "Weights": {"Type": "Int8", "Count": 589824},
  "Bias": {"Type": "Float", "Count": 256},
  "HasBias": 1,
  "HasReLU": 1,
  "HasSparseWeights": 0,
  "HasDynamicFilter": 0,
  "HasDynamicBias": 0,
  "HasResidual": 0,
  "ConvXAsActInputIdx": -1,
  "BiasAsActInputIdx": -1,
  "ResAsActInputIdx": -1,
  "Activation": "RELU",
  "TacticName": "sm80_xmma_fprop_avdt_dense_int8int8_tilesize64x128x32_tapsperload9_threadspercta128_r3s3_u1v1_scalebias_relu",
  "TacticValue": "0x99ccdec1bdaffe62",
  "StreamId": 0,
  "Metadata": "[ONNX Layer: QuantizeLinear_501]\u001e[ONNX Layer: Conv_503]\u001e[ONNX Layer: Relu_504]\u001e[ONNX Layer: QuantizeLinear_507]\u001e[ONNX Layer: DequantizeLinear_499]\u001e[ONNX Layer: QuantizeLinear_496]\u001e[ONNX Layer: DequantizeLinear_502]"
},{
  "Name": "model.encoders.camera.backbone.layer3.4.conv3.weight + QuantizeLinear_512 + Conv_514 + Add_521 + Relu_522",
  "LayerType": "CaskConvolution",
  "Inputs": [
  {
    "Name": "1103",
    "Location": "Device",
    "Dimensions": [6,256,16,44],
    "Format/Datatype": "Thirty-two wide channel vectorized row major Int8 format"
  },
  {
    "Name": "1077",
    "Location": "Device",
    "Dimensions": [6,1024,16,44],
    "Format/Datatype": "Thirty-two wide channel vectorized row major Int8 format"
  }],
  "Outputs": [
  {
    "Name": "1123",
    "Location": "Device",
    "Dimensions": [6,1024,16,44],
    "Format/Datatype": "Thirty-two wide channel vectorized row major Int8 format"
  }],
  "ParameterType": "Convolution",
  "Kernel": [1,1],
  "PaddingMode": "kEXPLICIT_ROUND_DOWN",
  "PrePadding": [0,0],
  "PostPadding": [0,0],
  "Stride": [1,1],
  "Dilation": [1,1],
  "OutMaps": 1024,
  "Groups": 1,
  "Weights": {"Type": "Int8", "Count": 262144},
  "Bias": {"Type": "Float", "Count": 1024},
  "HasBias": 1,
  "HasReLU": 1,
  "HasSparseWeights": 0,
  "HasDynamicFilter": 0,
  "HasDynamicBias": 0,
  "HasResidual": 1,
  "ConvXAsActInputIdx": -1,
  "BiasAsActInputIdx": -1,
  "ResAsActInputIdx": -1,
  "Activation": "RELU",
  "TacticName": "sm80_xmma_conv_fprop_smallk_i8i8_i32_f32_nchw_vect_c_32kcrs_vect_c_32_nchw_vect_c_32_warptilesize32x32_stage4_warpsize2x4x1_r1s1_u1v1_hw0_c256_scalebias_beta_relu",
  "TacticValue": "0x7da1544a119637e7",
  "StreamId": 0,
  "Metadata": "[ONNX Layer: QuantizeLinear_512]\u001e[ONNX Layer: Conv_514]\u001e[ONNX Layer: QuantizeLinear_525]\u001e[ONNX Layer: QuantizeLinear_557]\u001e[ONNX Layer: DequantizeLinear_510]\u001e[ONNX Layer: QuantizeLinear_507]\u001e[ONNX Layer: DequantizeLinear_513]\u001e[ONNX Layer: Add_521]\u001e[ONNX Layer: Relu_522]\u001e[ONNX Layer: DequantizeLinear_520]\u001e[ONNX Layer: QuantizeLinear_485]"
},{
  "Name": "model.encoders.camera.backbone.layer3.5.conv1.weight + QuantizeLinear_530 + Conv_532 + Relu_533",
  "LayerType": "CaskConvolution",
  "Inputs": [
  {
    "Name": "1123",
    "Location": "Device",
    "Dimensions": [6,1024,16,44],
    "Format/Datatype": "Thirty-two wide channel vectorized row major Int8 format"
  }],
  "Outputs": [
  {
    "Name": "1136",
    "Location": "Device",
    "Dimensions": [6,256,16,44],
    "Format/Datatype": "Thirty-two wide channel vectorized row major Int8 format"
  }],
  "ParameterType": "Convolution",
  "Kernel": [1,1],
  "PaddingMode": "kEXPLICIT_ROUND_DOWN",
  "PrePadding": [0,0],
  "PostPadding": [0,0],
  "Stride": [1,1],
  "Dilation": [1,1],
  "OutMaps": 256,
  "Groups": 1,
  "Weights": {"Type": "Int8", "Count": 262144},
  "Bias": {"Type": "Float", "Count": 256},
  "HasBias": 1,
  "HasReLU": 1,
  "HasSparseWeights": 0,
  "HasDynamicFilter": 0,
  "HasDynamicBias": 0,
  "HasResidual": 0,
  "ConvXAsActInputIdx": -1,
  "BiasAsActInputIdx": -1,
  "ResAsActInputIdx": -1,
  "Activation": "RELU",
  "TacticName": "sm80_xmma_conv_fprop_smallk_i8i8_i32_f32_nchw_vect_c_32kcrs_vect_c_32_nchw_vect_c_32_warptilesize16x32_stage5_warpsize1x4x2_r1s1_u1v1_hw0_c1024_scalebias_relu",
  "TacticValue": "0x11898100e6875c92",
  "StreamId": 0,
  "Metadata": "[ONNX Layer: QuantizeLinear_530]\u001e[ONNX Layer: Conv_532]\u001e[ONNX Layer: Relu_533]\u001e[ONNX Layer: QuantizeLinear_536]\u001e[ONNX Layer: DequantizeLinear_528]\u001e[ONNX Layer: QuantizeLinear_525]\u001e[ONNX Layer: DequantizeLinear_531]"
},{
  "Name": "model.encoders.camera.backbone.layer3.5.conv2.weight + QuantizeLinear_541 + Conv_543 + Relu_544",
  "LayerType": "CaskConvolution",
  "Inputs": [
  {
    "Name": "1136",
    "Location": "Device",
    "Dimensions": [6,256,16,44],
    "Format/Datatype": "Thirty-two wide channel vectorized row major Int8 format"
  }],
  "Outputs": [
  {
    "Name": "1149",
    "Location": "Device",
    "Dimensions": [6,256,16,44],
    "Format/Datatype": "Thirty-two wide channel vectorized row major Int8 format"
  }],
  "ParameterType": "Convolution",
  "Kernel": [3,3],
  "PaddingMode": "kEXPLICIT_ROUND_DOWN",
  "PrePadding": [1,1],
  "PostPadding": [1,1],
  "Stride": [1,1],
  "Dilation": [1,1],
  "OutMaps": 256,
  "Groups": 1,
  "Weights": {"Type": "Int8", "Count": 589824},
  "Bias": {"Type": "Float", "Count": 256},
  "HasBias": 1,
  "HasReLU": 1,
  "HasSparseWeights": 0,
  "HasDynamicFilter": 0,
  "HasDynamicBias": 0,
  "HasResidual": 0,
  "ConvXAsActInputIdx": -1,
  "BiasAsActInputIdx": -1,
  "ResAsActInputIdx": -1,
  "Activation": "RELU",
  "TacticName": "sm80_xmma_fprop_avdt_dense_int8int8_tilesize64x128x32_tapsperload9_threadspercta128_r3s3_u1v1_scalebias_relu",
  "TacticValue": "0x99ccdec1bdaffe62",
  "StreamId": 0,
  "Metadata": "[ONNX Layer: QuantizeLinear_541]\u001e[ONNX Layer: Conv_543]\u001e[ONNX Layer: Relu_544]\u001e[ONNX Layer: QuantizeLinear_547]\u001e[ONNX Layer: DequantizeLinear_539]\u001e[ONNX Layer: QuantizeLinear_536]\u001e[ONNX Layer: DequantizeLinear_542]"
},{
  "Name": "model.encoders.camera.backbone.layer3.5.conv3.weight + QuantizeLinear_552 + Conv_554 + Add_561 + Relu_562",
  "LayerType": "CaskConvolution",
  "Inputs": [
  {
    "Name": "1149",
    "Location": "Device",
    "Dimensions": [6,256,16,44],
    "Format/Datatype": "Thirty-two wide channel vectorized row major Int8 format"
  },
  {
    "Name": "1123",
    "Location": "Device",
    "Dimensions": [6,1024,16,44],
    "Format/Datatype": "Thirty-two wide channel vectorized row major Int8 format"
  }],
  "Outputs": [
  {
    "Name": "Concat_712_1333_clone_0",
    "Location": "Device",
    "Dimensions": [6,1024,16,44],
    "Format/Datatype": "Thirty-two wide channel vectorized row major Int8 format"
  }],
  "ParameterType": "Convolution",
  "Kernel": [1,1],
  "PaddingMode": "kEXPLICIT_ROUND_DOWN",
  "PrePadding": [0,0],
  "PostPadding": [0,0],
  "Stride": [1,1],
  "Dilation": [1,1],
  "OutMaps": 1024,
  "Groups": 1,
  "Weights": {"Type": "Int8", "Count": 262144},
  "Bias": {"Type": "Float", "Count": 1024},
  "HasBias": 1,
  "HasReLU": 1,
  "HasSparseWeights": 0,
  "HasDynamicFilter": 0,
  "HasDynamicBias": 0,
  "HasResidual": 1,
  "ConvXAsActInputIdx": -1,
  "BiasAsActInputIdx": -1,
  "ResAsActInputIdx": -1,
  "Activation": "RELU",
  "TacticName": "sm80_xmma_conv_fprop_smallk_i8i8_i32_f32_nchw_vect_c_32kcrs_vect_c_32_nchw_vect_c_32_warptilesize32x32_stage4_warpsize2x4x1_r1s1_u1v1_hw0_c256_scalebias_beta_relu",
  "TacticValue": "0x7da1544a119637e7",
  "StreamId": 0,
  "Metadata": "[ONNX Layer: QuantizeLinear_552]\u001e[ONNX Layer: Conv_554]\u001e[ONNX Layer: QuantizeLinear_565]\u001e[ONNX Layer: QuantizeLinear_597]\u001e[ONNX Layer: QuantizeLinear_702]\u001e[ONNX Layer: DequantizeLinear_550]\u001e[ONNX Layer: QuantizeLinear_547]\u001e[ONNX Layer: DequantizeLinear_553]\u001e[ONNX Layer: Add_561]\u001e[ONNX Layer: Relu_562]\u001e[ONNX Layer: DequantizeLinear_560]\u001e[ONNX Layer: QuantizeLinear_525]"
},{
  "Name": "model.encoders.camera.backbone.layer4.0.conv1.weight + QuantizeLinear_570 + Conv_572 + Relu_573",
  "LayerType": "CaskConvolution",
  "Inputs": [
  {
    "Name": "Concat_712_1333_clone_0",
    "Location": "Device",
    "Dimensions": [6,1024,16,44],
    "Format/Datatype": "Thirty-two wide channel vectorized row major Int8 format"
  }],
  "Outputs": [
  {
    "Name": "1182",
    "Location": "Device",
    "Dimensions": [6,512,16,44],
    "Format/Datatype": "Thirty-two wide channel vectorized row major Int8 format"
  }],
  "ParameterType": "Convolution",
  "Kernel": [1,1],
  "PaddingMode": "kEXPLICIT_ROUND_DOWN",
  "PrePadding": [0,0],
  "PostPadding": [0,0],
  "Stride": [1,1],
  "Dilation": [1,1],
  "OutMaps": 512,
  "Groups": 1,
  "Weights": {"Type": "Int8", "Count": 524288},
  "Bias": {"Type": "Float", "Count": 512},
  "HasBias": 1,
  "HasReLU": 1,
  "HasSparseWeights": 0,
  "HasDynamicFilter": 0,
  "HasDynamicBias": 0,
  "HasResidual": 0,
  "ConvXAsActInputIdx": -1,
  "BiasAsActInputIdx": -1,
  "ResAsActInputIdx": -1,
  "Activation": "RELU",
  "TacticName": "sm80_xmma_conv_fprop_smallk_i8i8_i32_f32_nchw_vect_c_32kcrs_vect_c_32_nchw_vect_c_32_warptilesize16x32_stage5_warpsize1x4x2_r1s1_u1v1_hw0_c1024_scalebias_relu",
  "TacticValue": "0x11898100e6875c92",
  "StreamId": 0,
  "Metadata": "[ONNX Layer: QuantizeLinear_570]\u001e[ONNX Layer: Conv_572]\u001e[ONNX Layer: Relu_573]\u001e[ONNX Layer: QuantizeLinear_576]\u001e[ONNX Layer: DequantizeLinear_568]\u001e[ONNX Layer: QuantizeLinear_565]\u001e[ONNX Layer: DequantizeLinear_571]"
},{
  "Name": "model.encoders.camera.backbone.layer4.0.downsample.0.weight + QuantizeLinear_602 + Conv_604",
  "LayerType": "CaskConvolution",
  "Inputs": [
  {
    "Name": "Concat_712_1333_clone_0",
    "Location": "Device",
    "Dimensions": [6,1024,16,44],
    "Format/Datatype": "Thirty-two wide channel vectorized row major Int8 format"
  }],
  "Outputs": [
  {
    "Name": "1219",
    "Location": "Device",
    "Dimensions": [6,2048,8,22],
    "Format/Datatype": "Thirty-two wide channel vectorized row major Int8 format"
  }],
  "ParameterType": "Convolution",
  "Kernel": [1,1],
  "PaddingMode": "kEXPLICIT_ROUND_DOWN",
  "PrePadding": [0,0],
  "PostPadding": [0,0],
  "Stride": [2,2],
  "Dilation": [1,1],
  "OutMaps": 2048,
  "Groups": 1,
  "Weights": {"Type": "Int8", "Count": 2097152},
  "Bias": {"Type": "Float", "Count": 2048},
  "HasBias": 1,
  "HasReLU": 0,
  "HasSparseWeights": 0,
  "HasDynamicFilter": 0,
  "HasDynamicBias": 0,
  "HasResidual": 0,
  "ConvXAsActInputIdx": -1,
  "BiasAsActInputIdx": -1,
  "ResAsActInputIdx": -1,
  "Activation": "NONE",
  "TacticName": "sm80_xmma_fprop_implicit_gemm_interleaved_i8i8_i8i32_f32_nchw_vect_c_32kcrs_vect_c_32_nchw_vect_c_32_tilesize96x192x64_stage3_warpsize2x2x1_g1_tensor16x8x32_t1r1s1",
  "TacticValue": "0x6106e2811713d7ee",
  "StreamId": 0,
  "Metadata": "[ONNX Layer: QuantizeLinear_602]\u001e[ONNX Layer: Conv_604]\u001e[ONNX Layer: QuantizeLinear_607]\u001e[ONNX Layer: DequantizeLinear_600]\u001e[ONNX Layer: QuantizeLinear_565]\u001e[ONNX Layer: DequantizeLinear_603]"
},{
  "Name": "model.encoders.camera.backbone.layer4.0.conv2.weight + QuantizeLinear_581 + Conv_583 + Relu_584",
  "LayerType": "CaskConvolution",
  "Inputs": [
  {
    "Name": "1182",
    "Location": "Device",
    "Dimensions": [6,512,16,44],
    "Format/Datatype": "Thirty-two wide channel vectorized row major Int8 format"
  }],
  "Outputs": [
  {
    "Name": "1195",
    "Location": "Device",
    "Dimensions": [6,512,8,22],
    "Format/Datatype": "Thirty-two wide channel vectorized row major Int8 format"
  }],
  "ParameterType": "Convolution",
  "Kernel": [3,3],
  "PaddingMode": "kEXPLICIT_ROUND_DOWN",
  "PrePadding": [1,1],
  "PostPadding": [1,1],
  "Stride": [2,2],
  "Dilation": [1,1],
  "OutMaps": 512,
  "Groups": 1,
  "Weights": {"Type": "Int8", "Count": 2359296},
  "Bias": {"Type": "Float", "Count": 512},
  "HasBias": 1,
  "HasReLU": 1,
  "HasSparseWeights": 0,
  "HasDynamicFilter": 0,
  "HasDynamicBias": 0,
  "HasResidual": 0,
  "ConvXAsActInputIdx": -1,
  "BiasAsActInputIdx": -1,
  "ResAsActInputIdx": -1,
  "Activation": "RELU",
  "TacticName": "sm80_xmma_fprop_implicit_gemm_interleaved_i8i8_i8i32_f32_nchw_vect_c_32kcrs_vect_c_32_nchw_vect_c_32_tilesize96x128x64_stage3_warpsize2x2x1_g1_tensor16x8x32",
  "TacticValue": "0x87620679fb5f37df",
  "StreamId": 0,
  "Metadata": "[ONNX Layer: QuantizeLinear_581]\u001e[ONNX Layer: Conv_583]\u001e[ONNX Layer: Relu_584]\u001e[ONNX Layer: QuantizeLinear_587]\u001e[ONNX Layer: DequantizeLinear_579]\u001e[ONNX Layer: QuantizeLinear_576]\u001e[ONNX Layer: DequantizeLinear_582]"
},{
  "Name": "model.encoders.camera.backbone.layer4.0.conv3.weight + QuantizeLinear_592 + Conv_594 + Add_611 + Relu_612",
  "LayerType": "CaskConvolution",
  "Inputs": [
  {
    "Name": "1195",
    "Location": "Device",
    "Dimensions": [6,512,8,22],
    "Format/Datatype": "Thirty-two wide channel vectorized row major Int8 format"
  },
  {
    "Name": "1219",
    "Location": "Device",
    "Dimensions": [6,2048,8,22],
    "Format/Datatype": "Thirty-two wide channel vectorized row major Int8 format"
  }],
  "Outputs": [
  {
    "Name": "1227",
    "Location": "Device",
    "Dimensions": [6,2048,8,22],
    "Format/Datatype": "Thirty-two wide channel vectorized row major Int8 format"
  }],
  "ParameterType": "Convolution",
  "Kernel": [1,1],
  "PaddingMode": "kEXPLICIT_ROUND_DOWN",
  "PrePadding": [0,0],
  "PostPadding": [0,0],
  "Stride": [1,1],
  "Dilation": [1,1],
  "OutMaps": 2048,
  "Groups": 1,
  "Weights": {"Type": "Int8", "Count": 1048576},
  "Bias": {"Type": "Float", "Count": 2048},
  "HasBias": 1,
  "HasReLU": 1,
  "HasSparseWeights": 0,
  "HasDynamicFilter": 0,
  "HasDynamicBias": 0,
  "HasResidual": 1,
  "ConvXAsActInputIdx": -1,
  "BiasAsActInputIdx": -1,
  "ResAsActInputIdx": -1,
  "Activation": "RELU",
  "TacticName": "sm80_xmma_conv_fprop_smallk_i8i8_i32_f32_nchw_vect_c_32kcrs_vect_c_32_nchw_vect_c_32_warptilesize16x32_stage4_warpsize2x4x1_r1s1_u1v1_hw0_c512_scalebias_beta_relu",
  "TacticValue": "0x231735260b035c95",
  "StreamId": 0,
  "Metadata": "[ONNX Layer: QuantizeLinear_592]\u001e[ONNX Layer: Conv_594]\u001e[ONNX Layer: QuantizeLinear_615]\u001e[ONNX Layer: QuantizeLinear_647]\u001e[ONNX Layer: DequantizeLinear_590]\u001e[ONNX Layer: QuantizeLinear_587]\u001e[ONNX Layer: DequantizeLinear_593]\u001e[ONNX Layer: Add_611]\u001e[ONNX Layer: Relu_612]\u001e[ONNX Layer: DequantizeLinear_610]\u001e[ONNX Layer: QuantizeLinear_607]"
},{
  "Name": "model.encoders.camera.backbone.layer4.1.conv1.weight + QuantizeLinear_620 + Conv_622 + Relu_623",
  "LayerType": "CaskConvolution",
  "Inputs": [
  {
    "Name": "1227",
    "Location": "Device",
    "Dimensions": [6,2048,8,22],
    "Format/Datatype": "Thirty-two wide channel vectorized row major Int8 format"
  }],
  "Outputs": [
  {
    "Name": "1240",
    "Location": "Device",
    "Dimensions": [6,512,8,22],
    "Format/Datatype": "Thirty-two wide channel vectorized row major Int8 format"
  }],
  "ParameterType": "Convolution",
  "Kernel": [1,1],
  "PaddingMode": "kEXPLICIT_ROUND_DOWN",
  "PrePadding": [0,0],
  "PostPadding": [0,0],
  "Stride": [1,1],
  "Dilation": [1,1],
  "OutMaps": 512,
  "Groups": 1,
  "Weights": {"Type": "Int8", "Count": 1048576},
  "Bias": {"Type": "Float", "Count": 512},
  "HasBias": 1,
  "HasReLU": 1,
  "HasSparseWeights": 0,
  "HasDynamicFilter": 0,
  "HasDynamicBias": 0,
  "HasResidual": 0,
  "ConvXAsActInputIdx": -1,
  "BiasAsActInputIdx": -1,
  "ResAsActInputIdx": -1,
  "Activation": "RELU",
  "TacticName": "sm80_xmma_fprop_implicit_gemm_interleaved_i8i8_i8i32_f32_nchw_vect_c_32kcrs_vect_c_32_nchw_vect_c_32_tilesize96x128x64_stage3_warpsize2x2x1_g1_tensor16x8x32_t1r1s1",
  "TacticValue": "0x79a4e52543793dbe",
  "StreamId": 0,
  "Metadata": "[ONNX Layer: QuantizeLinear_620]\u001e[ONNX Layer: Conv_622]\u001e[ONNX Layer: Relu_623]\u001e[ONNX Layer: QuantizeLinear_626]\u001e[ONNX Layer: DequantizeLinear_618]\u001e[ONNX Layer: QuantizeLinear_615]\u001e[ONNX Layer: DequantizeLinear_621]"
},{
  "Name": "model.encoders.camera.backbone.layer4.1.conv2.weight + QuantizeLinear_631 + Conv_633 + Relu_634",
  "LayerType": "CaskConvolution",
  "Inputs": [
  {
    "Name": "1240",
    "Location": "Device",
    "Dimensions": [6,512,8,22],
    "Format/Datatype": "Thirty-two wide channel vectorized row major Int8 format"
  }],
  "Outputs": [
  {
    "Name": "1253",
    "Location": "Device",
    "Dimensions": [6,512,8,22],
    "Format/Datatype": "Thirty-two wide channel vectorized row major Int8 format"
  }],
  "ParameterType": "Convolution",
  "Kernel": [3,3],
  "PaddingMode": "kEXPLICIT_ROUND_DOWN",
  "PrePadding": [1,1],
  "PostPadding": [1,1],
  "Stride": [1,1],
  "Dilation": [1,1],
  "OutMaps": 512,
  "Groups": 1,
  "Weights": {"Type": "Int8", "Count": 2359296},
  "Bias": {"Type": "Float", "Count": 512},
  "HasBias": 1,
  "HasReLU": 1,
  "HasSparseWeights": 0,
  "HasDynamicFilter": 0,
  "HasDynamicBias": 0,
  "HasResidual": 0,
  "ConvXAsActInputIdx": -1,
  "BiasAsActInputIdx": -1,
  "ResAsActInputIdx": -1,
  "Activation": "RELU",
  "TacticName": "sm80_xmma_fprop_implicit_gemm_interleaved_i8i8_i8i32_f32_nchw_vect_c_32kcrs_vect_c_32_nchw_vect_c_32_tilesize96x128x64_stage3_warpsize2x2x1_g1_tensor16x8x32",
  "TacticValue": "0x87620679fb5f37df",
  "StreamId": 0,
  "Metadata": "[ONNX Layer: QuantizeLinear_631]\u001e[ONNX Layer: Conv_633]\u001e[ONNX Layer: Relu_634]\u001e[ONNX Layer: QuantizeLinear_637]\u001e[ONNX Layer: DequantizeLinear_629]\u001e[ONNX Layer: QuantizeLinear_626]\u001e[ONNX Layer: DequantizeLinear_632]"
},{
  "Name": "model.encoders.camera.backbone.layer4.1.conv3.weight + QuantizeLinear_642 + Conv_644 + Add_651 + Relu_652",
  "LayerType": "CaskConvolution",
  "Inputs": [
  {
    "Name": "1253",
    "Location": "Device",
    "Dimensions": [6,512,8,22],
    "Format/Datatype": "Thirty-two wide channel vectorized row major Int8 format"
  },
  {
    "Name": "1227",
    "Location": "Device",
    "Dimensions": [6,2048,8,22],
    "Format/Datatype": "Thirty-two wide channel vectorized row major Int8 format"
  }],
  "Outputs": [
  {
    "Name": "1273",
    "Location": "Device",
    "Dimensions": [6,2048,8,22],
    "Format/Datatype": "Thirty-two wide channel vectorized row major Int8 format"
  }],
  "ParameterType": "Convolution",
  "Kernel": [1,1],
  "PaddingMode": "kEXPLICIT_ROUND_DOWN",
  "PrePadding": [0,0],
  "PostPadding": [0,0],
  "Stride": [1,1],
  "Dilation": [1,1],
  "OutMaps": 2048,
  "Groups": 1,
  "Weights": {"Type": "Int8", "Count": 1048576},
  "Bias": {"Type": "Float", "Count": 2048},
  "HasBias": 1,
  "HasReLU": 1,
  "HasSparseWeights": 0,
  "HasDynamicFilter": 0,
  "HasDynamicBias": 0,
  "HasResidual": 1,
  "ConvXAsActInputIdx": -1,
  "BiasAsActInputIdx": -1,
  "ResAsActInputIdx": -1,
  "Activation": "RELU",
  "TacticName": "sm80_xmma_conv_fprop_smallk_i8i8_i32_f32_nchw_vect_c_32kcrs_vect_c_32_nchw_vect_c_32_warptilesize16x32_stage4_warpsize2x4x1_r1s1_u1v1_hw0_c512_scalebias_beta_relu",
  "TacticValue": "0x231735260b035c95",
  "StreamId": 0,
  "Metadata": "[ONNX Layer: QuantizeLinear_642]\u001e[ONNX Layer: Conv_644]\u001e[ONNX Layer: QuantizeLinear_655]\u001e[ONNX Layer: QuantizeLinear_687]\u001e[ONNX Layer: DequantizeLinear_640]\u001e[ONNX Layer: QuantizeLinear_637]\u001e[ONNX Layer: DequantizeLinear_643]\u001e[ONNX Layer: Add_651]\u001e[ONNX Layer: Relu_652]\u001e[ONNX Layer: DequantizeLinear_650]\u001e[ONNX Layer: QuantizeLinear_615]"
},{
  "Name": "model.encoders.camera.backbone.layer4.2.conv1.weight + QuantizeLinear_660 + Conv_662 + Relu_663",
  "LayerType": "CaskConvolution",
  "Inputs": [
  {
    "Name": "1273",
    "Location": "Device",
    "Dimensions": [6,2048,8,22],
    "Format/Datatype": "Thirty-two wide channel vectorized row major Int8 format"
  }],
  "Outputs": [
  {
    "Name": "1286",
    "Location": "Device",
    "Dimensions": [6,512,8,22],
    "Format/Datatype": "Thirty-two wide channel vectorized row major Int8 format"
  }],
  "ParameterType": "Convolution",
  "Kernel": [1,1],
  "PaddingMode": "kEXPLICIT_ROUND_DOWN",
  "PrePadding": [0,0],
  "PostPadding": [0,0],
  "Stride": [1,1],
  "Dilation": [1,1],
  "OutMaps": 512,
  "Groups": 1,
  "Weights": {"Type": "Int8", "Count": 1048576},
  "Bias": {"Type": "Float", "Count": 512},
  "HasBias": 1,
  "HasReLU": 1,
  "HasSparseWeights": 0,
  "HasDynamicFilter": 0,
  "HasDynamicBias": 0,
  "HasResidual": 0,
  "ConvXAsActInputIdx": -1,
  "BiasAsActInputIdx": -1,
  "ResAsActInputIdx": -1,
  "Activation": "RELU",
  "TacticName": "sm80_xmma_fprop_implicit_gemm_interleaved_i8i8_i8i32_f32_nchw_vect_c_32kcrs_vect_c_32_nchw_vect_c_32_tilesize96x128x64_stage3_warpsize2x2x1_g1_tensor16x8x32_t1r1s1",
  "TacticValue": "0x79a4e52543793dbe",
  "StreamId": 0,
  "Metadata": "[ONNX Layer: QuantizeLinear_660]\u001e[ONNX Layer: Conv_662]\u001e[ONNX Layer: Relu_663]\u001e[ONNX Layer: QuantizeLinear_666]\u001e[ONNX Layer: DequantizeLinear_658]\u001e[ONNX Layer: QuantizeLinear_655]\u001e[ONNX Layer: DequantizeLinear_661]"
},{
  "Name": "model.encoders.camera.backbone.layer4.2.conv2.weight + QuantizeLinear_671 + Conv_673 + Relu_674",
  "LayerType": "CaskConvolution",
  "Inputs": [
  {
    "Name": "1286",
    "Location": "Device",
    "Dimensions": [6,512,8,22],
    "Format/Datatype": "Thirty-two wide channel vectorized row major Int8 format"
  }],
  "Outputs": [
  {
    "Name": "1299",
    "Location": "Device",
    "Dimensions": [6,512,8,22],
    "Format/Datatype": "Thirty-two wide channel vectorized row major Int8 format"
  }],
  "ParameterType": "Convolution",
  "Kernel": [3,3],
  "PaddingMode": "kEXPLICIT_ROUND_DOWN",
  "PrePadding": [1,1],
  "PostPadding": [1,1],
  "Stride": [1,1],
  "Dilation": [1,1],
  "OutMaps": 512,
  "Groups": 1,
  "Weights": {"Type": "Int8", "Count": 2359296},
  "Bias": {"Type": "Float", "Count": 512},
  "HasBias": 1,
  "HasReLU": 1,
  "HasSparseWeights": 0,
  "HasDynamicFilter": 0,
  "HasDynamicBias": 0,
  "HasResidual": 0,
  "ConvXAsActInputIdx": -1,
  "BiasAsActInputIdx": -1,
  "ResAsActInputIdx": -1,
  "Activation": "RELU",
  "TacticName": "sm80_xmma_fprop_implicit_gemm_interleaved_i8i8_i8i32_f32_nchw_vect_c_32kcrs_vect_c_32_nchw_vect_c_32_tilesize96x128x64_stage3_warpsize2x2x1_g1_tensor16x8x32",
  "TacticValue": "0x87620679fb5f37df",
  "StreamId": 0,
  "Metadata": "[ONNX Layer: QuantizeLinear_671]\u001e[ONNX Layer: Conv_673]\u001e[ONNX Layer: Relu_674]\u001e[ONNX Layer: QuantizeLinear_677]\u001e[ONNX Layer: DequantizeLinear_669]\u001e[ONNX Layer: QuantizeLinear_666]\u001e[ONNX Layer: DequantizeLinear_672]"
},{
  "Name": "model.encoders.camera.backbone.layer4.2.conv3.weight + QuantizeLinear_682 + Conv_684 + Add_691 + Relu_692",
  "LayerType": "CaskConvolution",
  "Inputs": [
  {
    "Name": "1299",
    "Location": "Device",
    "Dimensions": [6,512,8,22],
    "Format/Datatype": "Thirty-two wide channel vectorized row major Int8 format"
  },
  {
    "Name": "1273",
    "Location": "Device",
    "Dimensions": [6,2048,8,22],
    "Format/Datatype": "Thirty-two wide channel vectorized row major Int8 format"
  }],
  "Outputs": [
  {
    "Name": "1327",
    "Location": "Device",
    "Dimensions": [6,2048,8,22],
    "Format/Datatype": "Thirty-two wide channel vectorized row major Int8 format"
  }],
  "ParameterType": "Convolution",
  "Kernel": [1,1],
  "PaddingMode": "kEXPLICIT_ROUND_DOWN",
  "PrePadding": [0,0],
  "PostPadding": [0,0],
  "Stride": [1,1],
  "Dilation": [1,1],
  "OutMaps": 2048,
  "Groups": 1,
  "Weights": {"Type": "Int8", "Count": 1048576},
  "Bias": {"Type": "Float", "Count": 2048},
  "HasBias": 1,
  "HasReLU": 1,
  "HasSparseWeights": 0,
  "HasDynamicFilter": 0,
  "HasDynamicBias": 0,
  "HasResidual": 1,
  "ConvXAsActInputIdx": -1,
  "BiasAsActInputIdx": -1,
  "ResAsActInputIdx": -1,
  "Activation": "RELU",
  "TacticName": "sm80_xmma_conv_fprop_smallk_i8i8_i32_f32_nchw_vect_c_32kcrs_vect_c_32_nchw_vect_c_32_warptilesize16x32_stage4_warpsize2x4x1_r1s1_u1v1_hw0_c512_scalebias_beta_relu",
  "TacticValue": "0x231735260b035c95",
  "StreamId": 0,
  "Metadata": "[ONNX Layer: QuantizeLinear_682]\u001e[ONNX Layer: Conv_684]\u001e[ONNX Layer: QuantizeLinear_708]\u001e[ONNX Layer: QuantizeLinear_565]\u001e[ONNX Layer: DequantizeLinear_680]\u001e[ONNX Layer: QuantizeLinear_677]\u001e[ONNX Layer: DequantizeLinear_683]\u001e[ONNX Layer: Add_691]\u001e[ONNX Layer: Relu_692]\u001e[ONNX Layer: DequantizeLinear_690]\u001e[ONNX Layer: QuantizeLinear_655]"
},{
  "Name": "Resize_699",
  "LayerType": "Resize",
  "Inputs": [
  {
    "Name": "1327",
    "Location": "Device",
    "Dimensions": [6,2048,8,22],
    "Format/Datatype": "Thirty-two wide channel vectorized row major Int8 format"
  }],
  "Outputs": [
  {
    "Name": "Concat_712_1339_clone_1",
    "Location": "Device",
    "Dimensions": [6,2048,16,44],
    "Format/Datatype": "Thirty-two wide channel vectorized row major Int8 format"
  }],
  "ParameterType": "Resize",
  "InterpolationMode": "LINEAR",
  "ResizeScales": [0, 0, 0, 0, 0, 0, 0, 0],
  "ExcludeOutside": 0,
  "CubicCoeff": -0.75,
  "CoordTransform": "kHALF_PIXEL",
  "ResizeSelector": "kUPPER",
  "NNRounding": "kFLOOR",
  "TacticValue": "0x0000000000000008",
  "StreamId": 0,
  "Metadata": "[ONNX Layer: Resize_699]"
},{
  "Name": "Concat_712_1333_clone_0 copy",
  "LayerType": "Reformat",
  "Inputs": [
  {
    "Name": "Concat_712_1333_clone_0",
    "Location": "Device",
    "Dimensions": [6,1024,16,44],
    "Format/Datatype": "Thirty-two wide channel vectorized row major Int8 format"
  }],
  "Outputs": [
  {
    "Name": "1343",
    "Location": "Device",
    "Dimensions": [6,1024,16,44],
    "Format/Datatype": "Four wide channel vectorized row major Int8 format"
  }],
  "ParameterType": "Reformat",
  "Origin": "CONCAT",
  "TacticValue": "0x0000000000000000",
  "StreamId": 0,
  "Metadata": "[ONNX Layer: Concat_712]"
},{
  "Name": "Concat_712_1339_clone_1 copy",
  "LayerType": "Reformat",
  "Inputs": [
  {
    "Name": "Concat_712_1339_clone_1",
    "Location": "Device",
    "Dimensions": [6,2048,16,44],
    "Format/Datatype": "Thirty-two wide channel vectorized row major Int8 format"
  }],
  "Outputs": [
  {
    "Name": "1343",
    "Location": "Device",
    "Dimensions": [6,2048,16,44],
    "Format/Datatype": "Four wide channel vectorized row major Int8 format"
  }],
  "ParameterType": "Reformat",
  "Origin": "CONCAT",
  "TacticValue": "0x0000000000000000",
  "StreamId": 0,
  "Metadata": "[ONNX Layer: Concat_712]"
},{
  "Name": "Reformatting CopyNode for Input Tensor 0 to model.encoders.camera.neck.lateral_convs.1.conv.weight + QuantizeLinear_720 + Conv_722 + Relu_723",
  "LayerType": "Reformat",
  "Inputs": [
  {
    "Name": "1343",
    "Location": "Device",
    "Dimensions": [6,3072,16,44],
    "Format/Datatype": "Four wide channel vectorized row major Int8 format"
  }],
  "Outputs": [
  {
    "Name": "Reformatted Input Tensor 0 to model.encoders.camera.neck.lateral_convs.1.conv.weight + QuantizeLinear_720 + Conv_722 + Relu_723",
    "Location": "Device",
    "Dimensions": [6,3072,16,44],
    "Format/Datatype": "Channel major INT8 format where channel % 16 == 0"
  }],
  "ParameterType": "Reformat",
  "Origin": "REFORMAT",
  "TacticValue": "0x00000000000003ea",
  "StreamId": 0,
  "Metadata": ""
},{
  "Name": "model.encoders.camera.neck.lateral_convs.1.conv.weight + QuantizeLinear_720 + Conv_722 + Relu_723",
  "LayerType": "CaskConvolution",
  "Inputs": [
  {
    "Name": "Reformatted Input Tensor 0 to model.encoders.camera.neck.lateral_convs.1.conv.weight + QuantizeLinear_720 + Conv_722 + Relu_723",
    "Location": "Device",
    "Dimensions": [6,3072,16,44],
    "Format/Datatype": "Channel major INT8 format where channel % 16 == 0"
  }],
  "Outputs": [
  {
    "Name": "1356",
    "Location": "Device",
    "Dimensions": [6,256,16,44],
    "Format/Datatype": "Channel major INT8 format where channel % 16 == 0"
  }],
  "ParameterType": "Convolution",
  "Kernel": [1,1],
  "PaddingMode": "kEXPLICIT_ROUND_DOWN",
  "PrePadding": [0,0],
  "PostPadding": [0,0],
  "Stride": [1,1],
  "Dilation": [1,1],
  "OutMaps": 256,
  "Groups": 1,
  "Weights": {"Type": "Int8", "Count": 786432},
  "Bias": {"Type": "Float", "Count": 256},
  "HasBias": 1,
  "HasReLU": 1,
  "HasSparseWeights": 0,
  "HasDynamicFilter": 0,
  "HasDynamicBias": 0,
  "HasResidual": 0,
  "ConvXAsActInputIdx": -1,
  "BiasAsActInputIdx": -1,
  "ResAsActInputIdx": -1,
  "Activation": "RELU",
  "TacticName": "sm86_xmma_fprop_implicit_gemm_i8i8_i8i32_f32_nhwckrsc_nhwc_tilesize128x64x64_stage4_warpsize2x2x1_g1_tensor16x8x32_wo_epi_swizzle_t1r1s1",
  "TacticValue": "0x76bc2f187b341446",
  "StreamId": 0,
  "Metadata": "[ONNX Layer: QuantizeLinear_720]\u001e[ONNX Layer: Conv_722]\u001e[ONNX Layer: Relu_723]\u001e[ONNX Layer: QuantizeLinear_726]\u001e[ONNX Layer: DequantizeLinear_718]\u001e[ONNX Layer: QuantizeLinear_565]\u001e[ONNX Layer: DequantizeLinear_721]"
},{
  "Name": "Reformatting CopyNode for Input Tensor 0 to model.encoders.camera.neck.fpn_convs.1.conv.weight + QuantizeLinear_731 + Conv_733 + Relu_734",
  "LayerType": "Reformat",
  "Inputs": [
  {
    "Name": "1356",
    "Location": "Device",
    "Dimensions": [6,256,16,44],
    "Format/Datatype": "Channel major INT8 format where channel % 16 == 0"
  }],
  "Outputs": [
  {
    "Name": "Reformatted Input Tensor 0 to model.encoders.camera.neck.fpn_convs.1.conv.weight + QuantizeLinear_731 + Conv_733 + Relu_734",
    "Location": "Device",
    "Dimensions": [6,256,16,44],
    "Format/Datatype": "Thirty-two wide channel vectorized row major Int8 format"
  }],
  "ParameterType": "Reformat",
  "Origin": "REFORMAT",
  "TacticValue": "0x00000000000003ea",
  "StreamId": 0,
  "Metadata": ""
},{
  "Name": "model.encoders.camera.neck.fpn_convs.1.conv.weight + QuantizeLinear_731 + Conv_733 + Relu_734",
  "LayerType": "CaskConvolution",
  "Inputs": [
  {
    "Name": "Reformatted Input Tensor 0 to model.encoders.camera.neck.fpn_convs.1.conv.weight + QuantizeLinear_731 + Conv_733 + Relu_734",
    "Location": "Device",
    "Dimensions": [6,256,16,44],
    "Format/Datatype": "Thirty-two wide channel vectorized row major Int8 format"
  }],
  "Outputs": [
  {
    "Name": "1377",
    "Location": "Device",
    "Dimensions": [6,256,16,44],
    "Format/Datatype": "Thirty-two wide channel vectorized row major Int8 format"
  }],
  "ParameterType": "Convolution",
  "Kernel": [3,3],
  "PaddingMode": "kEXPLICIT_ROUND_DOWN",
  "PrePadding": [1,1],
  "PostPadding": [1,1],
  "Stride": [1,1],
  "Dilation": [1,1],
  "OutMaps": 256,
  "Groups": 1,
  "Weights": {"Type": "Int8", "Count": 589824},
  "Bias": {"Type": "Float", "Count": 256},
  "HasBias": 1,
  "HasReLU": 1,
  "HasSparseWeights": 0,
  "HasDynamicFilter": 0,
  "HasDynamicBias": 0,
  "HasResidual": 0,
  "ConvXAsActInputIdx": -1,
  "BiasAsActInputIdx": -1,
  "ResAsActInputIdx": -1,
  "Activation": "RELU",
  "TacticName": "sm80_xmma_fprop_avdt_dense_int8int8_tilesize64x128x32_tapsperload9_threadspercta128_r3s3_u1v1_scalebias_relu",
  "TacticValue": "0x99ccdec1bdaffe62",
  "StreamId": 0,
  "Metadata": "[ONNX Layer: QuantizeLinear_731]\u001e[ONNX Layer: Conv_733]\u001e[ONNX Layer: Relu_734]\u001e[ONNX Layer: QuantizeLinear_750]\u001e[ONNX Layer: QuantizeLinear_315]\u001e[ONNX Layer: DequantizeLinear_729]\u001e[ONNX Layer: QuantizeLinear_726]\u001e[ONNX Layer: DequantizeLinear_732]"
},{
  "Name": "Resize_741",
  "LayerType": "Resize",
  "Inputs": [
  {
    "Name": "1377",
    "Location": "Device",
    "Dimensions": [6,256,16,44],
    "Format/Datatype": "Thirty-two wide channel vectorized row major Int8 format"
  }],
  "Outputs": [
  {
    "Name": "Concat_754_1389_clone_1",
    "Location": "Device",
    "Dimensions": [6,256,32,88],
    "Format/Datatype": "Thirty-two wide channel vectorized row major Int8 format"
  }],
  "ParameterType": "Resize",
  "InterpolationMode": "LINEAR",
  "ResizeScales": [0, 0, 0, 0, 0, 0, 0, 0],
  "ExcludeOutside": 0,
  "CubicCoeff": -0.75,
  "CoordTransform": "kHALF_PIXEL",
  "ResizeSelector": "kUPPER",
  "NNRounding": "kFLOOR",
  "TacticValue": "0x0000000000000008",
  "StreamId": 0,
  "Metadata": "[ONNX Layer: Resize_741]"
},{
  "Name": "Concat_754_1383_clone_0 copy",
  "LayerType": "Reformat",
  "Inputs": [
  {
    "Name": "Concat_754_1383_clone_0",
    "Location": "Device",
    "Dimensions": [6,512,32,88],
    "Format/Datatype": "Thirty-two wide channel vectorized row major Int8 format"
  }],
  "Outputs": [
  {
    "Name": "1393",
    "Location": "Device",
    "Dimensions": [6,512,32,88],
    "Format/Datatype": "Channel major INT8 format where channel % 16 == 0"
  }],
  "ParameterType": "Reformat",
  "Origin": "CONCAT",
  "TacticValue": "0x00000000000003ea",
  "StreamId": 0,
  "Metadata": "[ONNX Layer: Concat_754]"
},{
  "Name": "Concat_754_1389_clone_1 copy",
  "LayerType": "Reformat",
  "Inputs": [
  {
    "Name": "Concat_754_1389_clone_1",
    "Location": "Device",
    "Dimensions": [6,256,32,88],
    "Format/Datatype": "Thirty-two wide channel vectorized row major Int8 format"
  }],
  "Outputs": [
  {
    "Name": "1393",
    "Location": "Device",
    "Dimensions": [6,256,32,88],
    "Format/Datatype": "Channel major INT8 format where channel % 16 == 0"
  }],
  "ParameterType": "Reformat",
  "Origin": "CONCAT",
  "TacticValue": "0x00000000000003ea",
  "StreamId": 0,
  "Metadata": "[ONNX Layer: Concat_754]"
},{
  "Name": "model.encoders.camera.neck.lateral_convs.0.conv.weight + QuantizeLinear_762 + Conv_764 + Relu_765",
  "LayerType": "CaskConvolution",
  "Inputs": [
  {
    "Name": "1393",
    "Location": "Device",
    "Dimensions": [6,768,32,88],
    "Format/Datatype": "Channel major INT8 format where channel % 16 == 0"
  }],
  "Outputs": [
  {
    "Name": "1406",
    "Location": "Device",
    "Dimensions": [6,256,32,88],
    "Format/Datatype": "Channel major INT8 format where channel % 16 == 0"
  }],
  "ParameterType": "Convolution",
  "Kernel": [1,1],
  "PaddingMode": "kEXPLICIT_ROUND_DOWN",
  "PrePadding": [0,0],
  "PostPadding": [0,0],
  "Stride": [1,1],
  "Dilation": [1,1],
  "OutMaps": 256,
  "Groups": 1,
  "Weights": {"Type": "Int8", "Count": 196608},
  "Bias": {"Type": "Float", "Count": 256},
  "HasBias": 1,
  "HasReLU": 1,
  "HasSparseWeights": 0,
  "HasDynamicFilter": 0,
  "HasDynamicBias": 0,
  "HasResidual": 0,
  "ConvXAsActInputIdx": -1,
  "BiasAsActInputIdx": -1,
  "ResAsActInputIdx": -1,
  "Activation": "RELU",
  "TacticName": "sm86_xmma_fprop_implicit_gemm_i8i8_i8i32_f32_nhwckrsc_nhwc_tilesize128x64x64_stage4_warpsize2x2x1_g1_tensor16x8x32_wo_epi_swizzle_simple_t1r1s1",
  "TacticValue": "0x764c3b623721cf29",
  "StreamId": 0,
  "Metadata": "[ONNX Layer: QuantizeLinear_762]\u001e[ONNX Layer: Conv_764]\u001e[ONNX Layer: Relu_765]\u001e[ONNX Layer: QuantizeLinear_768]\u001e[ONNX Layer: DequantizeLinear_760]\u001e[ONNX Layer: QuantizeLinear_315]\u001e[ONNX Layer: DequantizeLinear_763]"
},{
  "Name": "model.encoders.camera.neck.fpn_convs.0.conv.weight + QuantizeLinear_773 + Conv_775 + Relu_776",
  "LayerType": "CaskConvolution",
  "Inputs": [
  {
    "Name": "1406",
    "Location": "Device",
    "Dimensions": [6,256,32,88],
    "Format/Datatype": "Channel major INT8 format where channel % 16 == 0"
  }],
  "Outputs": [
  {
    "Name": "Reformatted Output Tensor 0 to model.encoders.camera.neck.fpn_convs.0.conv.weight + QuantizeLinear_773 + Conv_775 + Relu_776",
    "Location": "Device",
    "Dimensions": [6,256,32,88],
    "Format/Datatype": "Channel major INT8 format where channel % 16 == 0"
  }],
  "ParameterType": "Convolution",
  "Kernel": [3,3],
  "PaddingMode": "kEXPLICIT_ROUND_DOWN",
  "PrePadding": [1,1],
  "PostPadding": [1,1],
  "Stride": [1,1],
  "Dilation": [1,1],
  "OutMaps": 256,
  "Groups": 1,
  "Weights": {"Type": "Int8", "Count": 589824},
  "Bias": {"Type": "Float", "Count": 256},
  "HasBias": 1,
  "HasReLU": 1,
  "HasSparseWeights": 0,
  "HasDynamicFilter": 0,
  "HasDynamicBias": 0,
  "HasResidual": 0,
  "ConvXAsActInputIdx": -1,
  "BiasAsActInputIdx": -1,
  "ResAsActInputIdx": -1,
  "Activation": "RELU",
  "TacticName": "sm86_xmma_fprop_implicit_gemm_i8i8_i8i32_f32_nhwckrsc_nhwc_tilesize128x128x64_stage3_warpsize2x2x1_g1_tensor16x8x32_wo_epi_swizzle_t1r3s3",
  "TacticValue": "0x00509b61c47b6aa4",
  "StreamId": 0,
  "Metadata": "[ONNX Layer: QuantizeLinear_773]\u001e[ONNX Layer: Conv_775]\u001e[ONNX Layer: Relu_776]\u001e[ONNX Layer: QuantizeLinear_817]\u001e[ONNX Layer: DequantizeLinear_771]\u001e[ONNX Layer: QuantizeLinear_768]\u001e[ONNX Layer: DequantizeLinear_774]"
},{
  "Name": "Reformatting CopyNode for Output Tensor 0 to model.encoders.camera.neck.fpn_convs.0.conv.weight + QuantizeLinear_773 + Conv_775 + Relu_776",
  "LayerType": "Reformat",
  "Inputs": [
  {
    "Name": "Reformatted Output Tensor 0 to model.encoders.camera.neck.fpn_convs.0.conv.weight + QuantizeLinear_773 + Conv_775 + Relu_776",
    "Location": "Device",
    "Dimensions": [6,256,32,88],
    "Format/Datatype": "Channel major INT8 format where channel % 16 == 0"
  }],
  "Outputs": [
  {
    "Name": "1491",
    "Location": "Device",
    "Dimensions": [6,256,32,88],
    "Format/Datatype": "Thirty-two wide channel vectorized row major Int8 format"
  }],
  "ParameterType": "Reformat",
  "Origin": "REFORMAT",
  "TacticValue": "0x00000000000003ea",
  "StreamId": 0,
  "Metadata": ""
},{
  "Name": "model.encoders.camera.vtransform.depthnet.0.weight + QuantizeLinear_822 + Conv_824 + Relu_825",
  "LayerType": "CaskConvolution",
  "Inputs": [
  {
    "Name": "1491",
    "Location": "Device",
    "Dimensions": [6,320,32,88],
    "Format/Datatype": "Thirty-two wide channel vectorized row major Int8 format"
  }],
  "Outputs": [
  {
    "Name": "1504",
    "Location": "Device",
    "Dimensions": [6,256,32,88],
    "Format/Datatype": "Thirty-two wide channel vectorized row major Int8 format"
  }],
  "ParameterType": "Convolution",
  "Kernel": [3,3],
  "PaddingMode": "kEXPLICIT_ROUND_DOWN",
  "PrePadding": [1,1],
  "PostPadding": [1,1],
  "Stride": [1,1],
  "Dilation": [1,1],
  "OutMaps": 256,
  "Groups": 1,
  "Weights": {"Type": "Int8", "Count": 737280},
  "Bias": {"Type": "Float", "Count": 256},
  "HasBias": 1,
  "HasReLU": 1,
  "HasSparseWeights": 0,
  "HasDynamicFilter": 0,
  "HasDynamicBias": 0,
  "HasResidual": 0,
  "ConvXAsActInputIdx": -1,
  "BiasAsActInputIdx": -1,
  "ResAsActInputIdx": -1,
  "Activation": "RELU",
  "TacticName": "sm80_xmma_fprop_avdt_dense_int8int8_tilesize64x256x32_tapsperload3_threadspercta128_r3s3_u1v1_scalebias_relu",
  "TacticValue": "0x9dafb2758560cc1d",
  "StreamId": 0,
  "Metadata": "[ONNX Layer: QuantizeLinear_822]\u001e[ONNX Layer: Conv_824]\u001e[ONNX Layer: Relu_825]\u001e[ONNX Layer: QuantizeLinear_828]\u001e[ONNX Layer: DequantizeLinear_820]\u001e[ONNX Layer: QuantizeLinear_817]\u001e[ONNX Layer: DequantizeLinear_823]"
},{
  "Name": "model.encoders.camera.vtransform.depthnet.3.weight + QuantizeLinear_833 + Conv_835 + Relu_836",
  "LayerType": "CaskConvolution",
  "Inputs": [
  {
    "Name": "1504",
    "Location": "Device",
    "Dimensions": [6,256,32,88],
    "Format/Datatype": "Thirty-two wide channel vectorized row major Int8 format"
  }],
  "Outputs": [
  {
    "Name": "1517",
    "Location": "Device",
    "Dimensions": [6,256,32,88],
    "Format/Datatype": "Thirty-two wide channel vectorized row major Int8 format"
  }],
  "ParameterType": "Convolution",
  "Kernel": [3,3],
  "PaddingMode": "kEXPLICIT_ROUND_DOWN",
  "PrePadding": [1,1],
  "PostPadding": [1,1],
  "Stride": [1,1],
  "Dilation": [1,1],
  "OutMaps": 256,
  "Groups": 1,
  "Weights": {"Type": "Int8", "Count": 589824},
  "Bias": {"Type": "Float", "Count": 256},
  "HasBias": 1,
  "HasReLU": 1,
  "HasSparseWeights": 0,
  "HasDynamicFilter": 0,
  "HasDynamicBias": 0,
  "HasResidual": 0,
  "ConvXAsActInputIdx": -1,
  "BiasAsActInputIdx": -1,
  "ResAsActInputIdx": -1,
  "Activation": "RELU",
  "TacticName": "sm80_xmma_fprop_avdt_dense_int8int8_tilesize64x256x32_tapsperload3_threadspercta128_r3s3_u1v1_scalebias_relu",
  "TacticValue": "0x9dafb2758560cc1d",
  "StreamId": 0,
  "Metadata": "[ONNX Layer: QuantizeLinear_833]\u001e[ONNX Layer: Conv_835]\u001e[ONNX Layer: Relu_836]\u001e[ONNX Layer: QuantizeLinear_839]\u001e[ONNX Layer: DequantizeLinear_831]\u001e[ONNX Layer: QuantizeLinear_828]\u001e[ONNX Layer: DequantizeLinear_834]"
},{
  "Name": "model.encoders.camera.vtransform.depthnet.6.weight + QuantizeLinear_844 + Conv_846",
  "LayerType": "CaskConvolution",
  "Inputs": [
  {
    "Name": "1517",
    "Location": "Device",
    "Dimensions": [6,256,32,88],
    "Format/Datatype": "Thirty-two wide channel vectorized row major Int8 format"
  }],
  "Outputs": [
  {
    "Name": "Reformatted Output Tensor 0 to model.encoders.camera.vtransform.depthnet.6.weight + QuantizeLinear_844 + Conv_846",
    "Location": "Device",
    "Dimensions": [6,198,32,88],
    "Format/Datatype": "Thirty-two wide channel vectorized row major FP16 format"
  }],
  "ParameterType": "Convolution",
  "Kernel": [1,1],
  "PaddingMode": "kEXPLICIT_ROUND_DOWN",
  "PrePadding": [0,0],
  "PostPadding": [0,0],
  "Stride": [1,1],
  "Dilation": [1,1],
  "OutMaps": 198,
  "Groups": 1,
  "Weights": {"Type": "Int8", "Count": 50688},
  "Bias": {"Type": "Float", "Count": 198},
  "HasBias": 1,
  "HasReLU": 0,
  "HasSparseWeights": 0,
  "HasDynamicFilter": 0,
  "HasDynamicBias": 0,
  "HasResidual": 0,
  "ConvXAsActInputIdx": -1,
  "BiasAsActInputIdx": -1,
  "ResAsActInputIdx": -1,
  "Activation": "NONE",
  "TacticName": "sm80_xmma_fprop_implicit_gemm_interleaved_i8f16_i8i32_f32_nchw_vect_c_32kcrs_vect_c_32_nchw_vect_c_32_tilesize128x128x64_stage4_warpsize2x2x1_g1_tensor16x8x32_simple_t1r1s1",
  "TacticValue": "0x8486adb55ae0ca6c",
  "StreamId": 0,
  "Metadata": "[ONNX Layer: QuantizeLinear_844]\u001e[ONNX Layer: Conv_846]\u001e[ONNX Layer: DequantizeLinear_842]\u001e[ONNX Layer: QuantizeLinear_839]\u001e[ONNX Layer: DequantizeLinear_845]"
},{
  "Name": "Reformatting CopyNode for Output Tensor 0 to model.encoders.camera.vtransform.depthnet.6.weight + QuantizeLinear_844 + Conv_846",
  "LayerType": "Reformat",
  "Inputs": [
  {
    "Name": "Reformatted Output Tensor 0 to model.encoders.camera.vtransform.depthnet.6.weight + QuantizeLinear_844 + Conv_846",
    "Location": "Device",
    "Dimensions": [6,198,32,88],
    "Format/Datatype": "Thirty-two wide channel vectorized row major FP16 format"
  }],
  "Outputs": [
  {
    "Name": "1526",
    "Location": "Device",
    "Dimensions": [6,198,32,88],
    "Format/Datatype": "Row major linear FP16 format"
  }],
  "ParameterType": "Reformat",
  "Origin": "REFORMAT",
  "TacticValue": "0x00000000000003ea",
  "StreamId": 0,
  "Metadata": ""
},{
  "Name": "Slice_851",
  "LayerType": "Reformat",
  "Inputs": [
  {
    "Name": "1526",
    "Location": "Device",
    "Dimensions": [6,118,32,88],
    "Format/Datatype": "Row major linear FP16 format"
  }],
  "Outputs": [
  {
    "Name": "1531",
    "Location": "Device",
    "Dimensions": [6,118,32,88],
    "Format/Datatype": "Row major linear FP16 format"
  }],
  "ParameterType": "Reformat",
  "Origin": "SLICE",
  "TacticValue": "0x00000000000003e8",
  "StreamId": 0,
  "Metadata": "[ONNX Layer: Slice_851]"
},{
  "Name": "Softmax_852",
  "LayerType": "CaskSoftMaxV2",
  "Inputs": [
  {
    "Name": "1531",
    "Location": "Device",
    "Dimensions": [6,118,32,88],
    "Format/Datatype": "Row major linear FP16 format"
  }],
  "Outputs": [
  {
    "Name": "camera_depth_weights",
    "Location": "Device",
    "Dimensions": [6,118,32,88],
    "Format/Datatype": "Row major linear FP16 format"
  }],
  "ParameterType": "SoftMax",
  "Axes": 2,
  "HasLog": 0,
  "TacticValue": "0xd49ab000cdcd2713",
  "StreamId": 0,
  "Metadata": "[ONNX Layer: Softmax_852]"
},{
  "Name": "Transpose_858",
  "LayerType": "Shuffle",
  "Inputs": [
  {
    "Name": "1526",
    "Location": "Device",
    "Dimensions": [6,80,32,88],
    "Format/Datatype": "Row major linear FP16 format"
  }],
  "Outputs": [
  {
    "Name": "camera_feature",
    "Location": "Device",
    "Dimensions": [6,32,88,80],
    "Format/Datatype": "Row major linear FP16 format"
  }],
  "ParameterType": "Shuffle",
  "FirstTranspose": [0,2,3,1],
  "Reshape": "nbDims=-1",
  "SecondTranspose": [0,1,2,3],
  "ZeroIsPlaceholder": 1,
  "TacticValue": "0x0000000000000001",
  "StreamId": 0,
  "Metadata": "[ONNX Layer: Transpose_858]"
}],
"Bindings": ["img"
,"depth"
,"camera_feature"
,"camera_depth_weights"
]}
